def @main(%grad_output: Tensor[(1, 1536), float32], %nn_batch_flatten_2_x: Tensor[(1, 64, 12, 2), float32], %nn_avg_pool2d_3_x: Tensor[(1, 64, 25, 5), float32], %nn_relu_5_x: Tensor[(1, 64, 25, 5), float32], %multiply_7_x: Tensor[(1, 64, 25, 5), float32], %nn_instance_norm_9_x: Tensor[(1, 8, 1000), float32], %nn_conv2d_11_x: Tensor[(1, 64, 25, 5), float32], %nn_relu_12_x: Tensor[(1, 64, 25, 5), float32], %multiply_14_x: Tensor[(1, 64, 25, 5), float32], %nn_instance_norm_16_x: Tensor[(1, 8, 1000), float32], %nn_conv2d_19_x: Tensor[(1, 64, 25, 5), float32], %nn_relu_20_x: Tensor[(1, 64, 25, 5), float32], %multiply_22_x: Tensor[(1, 64, 25, 5), float32], %nn_instance_norm_24_x: Tensor[(1, 8, 1000), float32], %nn_conv2d_26_x: Tensor[(1, 64, 25, 5), float32], %data_0: Tensor[(1, 64, 25, 5), float32], %param_1_train: Tensor[(64, 64, 1, 1), float32], %param_2_train: Tensor[(8), float32], %param_3_train: Tensor[(8), float32], %param_4_train: Tensor[(64, 1, 1), float32], %param_5_train: Tensor[(64, 1, 1), float32], %param_6_train: Tensor[(64, 1, 3, 3), float32], %param_7_train: Tensor[(64), float32], %param_8_train: Tensor[(8), float32], %param_9_train: Tensor[(8), float32], %param_10_train: Tensor[(64, 1, 1), float32], %param_11_train: Tensor[(64, 1, 1), float32], %param_12_train: Tensor[(64, 64, 1, 1), float32], %param_13_train: Tensor[(8), float32], %param_14_train: Tensor[(8), float32], %param_15_train: Tensor[(64, 1, 1), float32], %param_16_train: Tensor[(64, 1, 1), float32]) -> (Tensor[(1, 64, 1, 1), float32], Tensor[(1, 64, 1, 1), float32], Tensor[(8, 1), float32], Tensor[(8, 1), float32], Tensor[(64, 64, 1, 1), float32], Tensor[(1, 64, 1, 1), float32], Tensor[(1, 64, 1, 1), float32], Tensor[(8, 1), float32], Tensor[(8, 1), float32], Tensor[(64), float32], Tensor[(64, 1, 3, 3), float32], Tensor[(1, 64, 1, 1), float32], Tensor[(1, 64, 1, 1), float32], Tensor[(8, 1), float32], Tensor[(8, 1), float32], Tensor[(64, 64, 1, 1), float32]) {
  %0 = zeros(shape=[1, 64, 25, 5], dtype="float32") /* ty=Tensor[(1, 64, 25, 5), float32] */;
  %1 = reshape(%grad_output, newshape=[1, 64, 12, 2]) /* ty=Tensor[(1, 64, 12, 2), float32] */;
  %2 = nn.avg_pool2d_grad(%1, %nn_avg_pool2d_3_x, pool_size=[2, 2], strides=[2, 2], dilation=[], padding=[0, 0, 0, 0]) /* ty=Tensor[(1, 64, 25, 5), float32] */;
  %3 = less(%nn_relu_5_x, %0) /* ty=Tensor[(1, 64, 25, 5), bool] */;
  %4 = strided_slice(%2, begin=[0, 0, 0, 0], end=[None, None, None, None], strides=[1], axes=None) /* ty=Tensor[(1, 64, 25, 5), float32] */;
  %5 = where(%3, %0, %4) /* ty=Tensor[(1, 64, 25, 5), float32] */;
  %6 = multiply(%5, %multiply_7_x) /* ty=Tensor[(1, 64, 25, 5), float32] */;
  %7 = transpose(%nn_conv2d_11_x, axes=[1, 0, 2, 3]) /* ty=Tensor[(64, 1, 25, 5), float32] */;
  %8 = multiply(%5, %param_15_train) /* ty=Tensor[(1, 64, 25, 5), float32] */;
  %9 = reshape(%nn_instance_norm_9_x, newshape=[8, 1000]) /* ty=Tensor[(8, 1000), float32] */;
  %10 = mean(%9, axis=[1], keepdims=True) /* ty=Tensor[(8, 1), float32] */;
  %11 = subtract(%9, %10) /* ty=Tensor[(8, 1000), float32] */;
  %12 = multiply(%11, %11) /* ty=Tensor[(8, 1000), float32] */;
  %13 = mean(%12, axis=[1], keepdims=True) /* ty=Tensor[(8, 1), float32] */;
  %14 = add(%13, 1e-05f /* ty=float32 */) /* ty=Tensor[(8, 1), float32] */;
  %15 = sqrt(%14) /* ty=Tensor[(8, 1), float32] */;
  %16 = divide(1f /* ty=float32 */, %15) /* ty=Tensor[(8, 1), float32] */;
  %17 = repeat(%16, repeats=1, axis=0) /* ty=Tensor[(8, 1), float32] */;
  %18 = reshape(%8, newshape=[8, 1000]) /* ty=Tensor[(8, 1000), float32] */;
  %19 = reshape(%17, newshape=[8, 1]) /* ty=Tensor[(8, 1), float32] */;
  %20 = multiply(%18, %11) /* ty=Tensor[(8, 1000), float32] */;
  %21 = sum(%20, axis=[1], keepdims=True) /* ty=Tensor[(8, 1), float32] */;
  %22 = multiply(%19, %19) /* ty=Tensor[(8, 1), float32] */;
  %23 = multiply(-0.5f /* ty=float32 */, %21) /* ty=Tensor[(8, 1), float32] */;
  %24 = multiply(%22, %19) /* ty=Tensor[(8, 1), float32] */;
  %25 = multiply(%23, %24) /* ty=Tensor[(8, 1), float32] */;
  %26 = multiply(%25, 0.001f /* ty=float32 */) /* ty=Tensor[(8, 1), float32] */;
  %27 = multiply(%11, %26) /* ty=Tensor[(8, 1000), float32] */;
  %28 = multiply(%18, %19) /* ty=Tensor[(8, 1000), float32] */;
  %29 = multiply(%27, 2f /* ty=float32 */) /* ty=Tensor[(8, 1000), float32] */;
  %30 = add(%28, %29) /* ty=Tensor[(8, 1000), float32] */;
  %31 = sum(%30, axis=[1], keepdims=True) /* ty=Tensor[(8, 1), float32] */;
  %32 = negative(%31) /* ty=Tensor[(8, 1), float32] */;
  %33 = multiply(%32, 0.001f /* ty=float32 */) /* ty=Tensor[(8, 1), float32] */;
  %34 = add(%30, %33) /* ty=Tensor[(8, 1000), float32] */;
  %35 = reshape(%34, newshape=[1, 64, 25, 5]) /* ty=Tensor[(1, 64, 25, 5), float32] */;
  %36 = transpose(%35, axes=[1, 0, 2, 3]) /* ty=Tensor[(64, 1, 25, 5), float32] */;
  %37 = reshape(%7, newshape=[64, 1, 25, 5]) /* ty=Tensor[(64, 1, 25, 5), float32] */;
  %38 = reshape(%36, newshape=[64, 1, 25, 5]) /* ty=Tensor[(64, 1, 25, 5), float32] */;
  %39 = nn.conv2d(%37, %38, padding=[0, 0, 0, 0], channels=64, kernel_size=[25, 5]) /* ty=Tensor[(64, 64, 1, 1), float32] */;
  %40 = transpose(%39, axes=[1, 0, 2, 3]) /* ty=Tensor[(64, 64, 1, 1), float32] */;
  %41 = reshape(%40, newshape=[64, 1, 64, 1, 1]) /* ty=Tensor[(64, 1, 64, 1, 1), float32] */;
  %42 = sum(%41, axis=[1]) /* ty=Tensor[(64, 64, 1, 1), float32] */;
  %43 = zeros(shape=[1, 64, 25, 5], dtype="float32") /* ty=Tensor[(1, 64, 25, 5), float32] */;
  %44 = less(%nn_relu_12_x, %43) /* ty=Tensor[(1, 64, 25, 5), bool] */;
  %45 = nn.conv2d_transpose(%35, %param_12_train, channels=64, kernel_size=[1, 1], padding=[0, 0, 0, 0], kernel_layout="IOHW") /* ty=Tensor[(1, 64, 25, 5), float32] */;
  %46 = where(%44, %43, %45) /* ty=Tensor[(1, 64, 25, 5), float32] */;
  %47 = multiply(%46, %multiply_14_x) /* ty=Tensor[(1, 64, 25, 5), float32] */;
  %48 = multiply(%46, %param_10_train) /* ty=Tensor[(1, 64, 25, 5), float32] */;
  %49 = reshape(%nn_instance_norm_16_x, newshape=[8, 1000]) /* ty=Tensor[(8, 1000), float32] */;
  %50 = mean(%49, axis=[1], keepdims=True) /* ty=Tensor[(8, 1), float32] */;
  %51 = subtract(%49, %50) /* ty=Tensor[(8, 1000), float32] */;
  %52 = multiply(%51, %51) /* ty=Tensor[(8, 1000), float32] */;
  %53 = mean(%52, axis=[1], keepdims=True) /* ty=Tensor[(8, 1), float32] */;
  %54 = add(%53, 1e-05f /* ty=float32 */) /* ty=Tensor[(8, 1), float32] */;
  %55 = sqrt(%54) /* ty=Tensor[(8, 1), float32] */;
  %56 = divide(1f /* ty=float32 */, %55) /* ty=Tensor[(8, 1), float32] */;
  %57 = repeat(%56, repeats=1, axis=0) /* ty=Tensor[(8, 1), float32] */;
  %58 = reshape(%48, newshape=[8, 1000]) /* ty=Tensor[(8, 1000), float32] */;
  %59 = reshape(%57, newshape=[8, 1]) /* ty=Tensor[(8, 1), float32] */;
  %60 = multiply(%58, %51) /* ty=Tensor[(8, 1000), float32] */;
  %61 = sum(%60, axis=[1], keepdims=True) /* ty=Tensor[(8, 1), float32] */;
  %62 = multiply(%59, %59) /* ty=Tensor[(8, 1), float32] */;
  %63 = multiply(-0.5f /* ty=float32 */, %61) /* ty=Tensor[(8, 1), float32] */;
  %64 = multiply(%62, %59) /* ty=Tensor[(8, 1), float32] */;
  %65 = multiply(%63, %64) /* ty=Tensor[(8, 1), float32] */;
  %66 = multiply(%65, 0.001f /* ty=float32 */) /* ty=Tensor[(8, 1), float32] */;
  %67 = multiply(%51, %66) /* ty=Tensor[(8, 1000), float32] */;
  %68 = multiply(%58, %59) /* ty=Tensor[(8, 1000), float32] */;
  %69 = multiply(%67, 2f /* ty=float32 */) /* ty=Tensor[(8, 1000), float32] */;
  %70 = add(%68, %69) /* ty=Tensor[(8, 1000), float32] */;
  %71 = sum(%70, axis=[1], keepdims=True) /* ty=Tensor[(8, 1), float32] */;
  %72 = negative(%71) /* ty=Tensor[(8, 1), float32] */;
  %73 = multiply(%72, 0.001f /* ty=float32 */) /* ty=Tensor[(8, 1), float32] */;
  %74 = add(%70, %73) /* ty=Tensor[(8, 1000), float32] */;
  %75 = reshape(%74, newshape=[1, 64, 25, 5]) /* ty=Tensor[(1, 64, 25, 5), float32] */;
  %76 = tile(%75, reps=[1, 1, 1, 1]) /* ty=Tensor[(1, 64, 25, 5), float32] */;
  %77 = reshape(%nn_conv2d_19_x, newshape=[1, -1, 0, 0]) /* ty=Tensor[(1, 64, 25, 5), float32] */;
  %78 = reshape(%76, newshape=[-1, 1, 0, 0]) /* ty=Tensor[(64, 1, 25, 5), float32] */;
  %79 = nn.conv2d(%77, %78, padding=[1, 1, 1, 1], groups=64, channels=64, kernel_size=[25, 5]) /* ty=Tensor[(1, 64, 3, 3), float32] */;
  %80 = reshape(%79, newshape=[1, 1, 64, 3, 3]) /* ty=Tensor[(1, 1, 64, 3, 3), float32] */;
  %81 = sum(%80, axis=[0]) /* ty=Tensor[(1, 64, 3, 3), float32] */;
  %82 = zeros(shape=[1, 64, 25, 5], dtype="float32") /* ty=Tensor[(1, 64, 25, 5), float32] */;
  %83 = less(%nn_relu_20_x, %82) /* ty=Tensor[(1, 64, 25, 5), bool] */;
  %84 = nn.conv2d_transpose(%75, %param_6_train, channels=64, kernel_size=[3, 3], padding=[1, 1, 1, 1], groups=64, kernel_layout="IOHW") /* ty=Tensor[(1, 64, 25, 5), float32] */;
  %85 = where(%83, %82, %84) /* ty=Tensor[(1, 64, 25, 5), float32] */;
  %86 = multiply(%85, %multiply_22_x) /* ty=Tensor[(1, 64, 25, 5), float32] */;
  %87 = transpose(%nn_conv2d_26_x, axes=[1, 0, 2, 3]) /* ty=Tensor[(64, 1, 25, 5), float32] */;
  %88 = multiply(%85, %param_4_train) /* ty=Tensor[(1, 64, 25, 5), float32] */;
  %89 = reshape(%nn_instance_norm_24_x, newshape=[8, 1000]) /* ty=Tensor[(8, 1000), float32] */;
  %90 = mean(%89, axis=[1], keepdims=True) /* ty=Tensor[(8, 1), float32] */;
  %91 = subtract(%89, %90) /* ty=Tensor[(8, 1000), float32] */;
  %92 = multiply(%91, %91) /* ty=Tensor[(8, 1000), float32] */;
  %93 = mean(%92, axis=[1], keepdims=True) /* ty=Tensor[(8, 1), float32] */;
  %94 = add(%93, 1e-05f /* ty=float32 */) /* ty=Tensor[(8, 1), float32] */;
  %95 = sqrt(%94) /* ty=Tensor[(8, 1), float32] */;
  %96 = divide(1f /* ty=float32 */, %95) /* ty=Tensor[(8, 1), float32] */;
  %97 = repeat(%96, repeats=1, axis=0) /* ty=Tensor[(8, 1), float32] */;
  %98 = reshape(%88, newshape=[8, 1000]) /* ty=Tensor[(8, 1000), float32] */;
  %99 = reshape(%97, newshape=[8, 1]) /* ty=Tensor[(8, 1), float32] */;
  %100 = multiply(%98, %91) /* ty=Tensor[(8, 1000), float32] */;
  %101 = sum(%100, axis=[1], keepdims=True) /* ty=Tensor[(8, 1), float32] */;
  %102 = multiply(%99, %99) /* ty=Tensor[(8, 1), float32] */;
  %103 = multiply(-0.5f /* ty=float32 */, %101) /* ty=Tensor[(8, 1), float32] */;
  %104 = multiply(%102, %99) /* ty=Tensor[(8, 1), float32] */;
  %105 = multiply(%103, %104) /* ty=Tensor[(8, 1), float32] */;
  %106 = multiply(%105, 0.001f /* ty=float32 */) /* ty=Tensor[(8, 1), float32] */;
  %107 = multiply(%91, %106) /* ty=Tensor[(8, 1000), float32] */;
  %108 = multiply(%98, %99) /* ty=Tensor[(8, 1000), float32] */;
  %109 = multiply(%107, 2f /* ty=float32 */) /* ty=Tensor[(8, 1000), float32] */;
  %110 = add(%108, %109) /* ty=Tensor[(8, 1000), float32] */;
  %111 = sum(%110, axis=[1], keepdims=True) /* ty=Tensor[(8, 1), float32] */;
  %112 = negative(%111) /* ty=Tensor[(8, 1), float32] */;
  %113 = multiply(%112, 0.001f /* ty=float32 */) /* ty=Tensor[(8, 1), float32] */;
  %114 = add(%110, %113) /* ty=Tensor[(8, 1000), float32] */;
  %115 = reshape(%114, newshape=[1, 64, 25, 5]) /* ty=Tensor[(1, 64, 25, 5), float32] */;
  %116 = transpose(%115, axes=[1, 0, 2, 3]) /* ty=Tensor[(64, 1, 25, 5), float32] */;
  %117 = reshape(%87, newshape=[64, 1, 25, 5]) /* ty=Tensor[(64, 1, 25, 5), float32] */;
  %118 = reshape(%116, newshape=[64, 1, 25, 5]) /* ty=Tensor[(64, 1, 25, 5), float32] */;
  %119 = nn.conv2d(%117, %118, padding=[0, 0, 0, 0], channels=64, kernel_size=[25, 5]) /* ty=Tensor[(64, 64, 1, 1), float32] */;
  %120 = transpose(%119, axes=[1, 0, 2, 3]) /* ty=Tensor[(64, 64, 1, 1), float32] */;
  %121 = reshape(%120, newshape=[64, 1, 64, 1, 1]) /* ty=Tensor[(64, 1, 64, 1, 1), float32] */;
  %122 = sum(%121, axis=[1]) /* ty=Tensor[(64, 64, 1, 1), float32] */;
  %123 = sum(%5, axis=[2, 3], keepdims=True) /* ty=Tensor[(1, 64, 1, 1), float32] */;
  %124 = sum(%6, axis=[2, 3], keepdims=True) /* ty=Tensor[(1, 64, 1, 1), float32] */;
  %125 = zeros(shape=[8, 1], dtype="float32") /* ty=Tensor[(8, 1), float32] */;
  %126 = zeros(shape=[8, 1], dtype="float32") /* ty=Tensor[(8, 1), float32] */;
  %127 = reshape(%42, newshape=[64, 64, 1, 1]) /* ty=Tensor[(64, 64, 1, 1), float32] */;
  %128 = sum(%46, axis=[2, 3], keepdims=True) /* ty=Tensor[(1, 64, 1, 1), float32] */;
  %129 = sum(%47, axis=[2, 3], keepdims=True) /* ty=Tensor[(1, 64, 1, 1), float32] */;
  %130 = zeros(shape=[8, 1], dtype="float32") /* ty=Tensor[(8, 1), float32] */;
  %131 = zeros(shape=[8, 1], dtype="float32") /* ty=Tensor[(8, 1), float32] */;
  %132 = sum(%75, axis=[1], exclude=True) /* ty=Tensor[(64), float32] */;
  %133 = transpose(%81, axes=[1, 0, 2, 3]) /* ty=Tensor[(64, 1, 3, 3), float32] */;
  %134 = sum(%85, axis=[2, 3], keepdims=True) /* ty=Tensor[(1, 64, 1, 1), float32] */;
  %135 = sum(%86, axis=[2, 3], keepdims=True) /* ty=Tensor[(1, 64, 1, 1), float32] */;
  %136 = zeros(shape=[8, 1], dtype="float32") /* ty=Tensor[(8, 1), float32] */;
  %137 = zeros(shape=[8, 1], dtype="float32") /* ty=Tensor[(8, 1), float32] */;
  %138 = reshape(%122, newshape=[64, 64, 1, 1]) /* ty=Tensor[(64, 64, 1, 1), float32] */;
  (%123, %124, %125, %126, %127, %128, %129, %130, %131, %132, %133, %134, %135, %136, %137, %138)
}
