def @main(%grad_output: float32, %nn_cross_entropy_with_logits_0_pred: Tensor[(1, 12), float32], %nn_log_softmax_1_y: Tensor[(1, 12), float32], %nn_dense_5_x: Tensor[(1, 64), float32], %nn_batch_flatten_6_x: Tensor[(1, 64, 1, 1), float32], %nn_avg_pool2d_7_x: Tensor[(1, 64, 25, 5), float32], %nn_dropout_9_y: Tensor[(1, 64, 25, 5), float32], %nn_relu_10_x: Tensor[(1, 64, 25, 5), float32], %multiply_12_x: Tensor[(1, 64, 25, 5), float32], %nn_instance_norm_14_x: Tensor[(1, 8, 1000), float32], %nn_conv2d_17_x: Tensor[(1, 64, 25, 5), float32], %nn_relu_18_x: Tensor[(1, 64, 25, 5), float32], %multiply_20_x: Tensor[(1, 64, 25, 5), float32], %nn_instance_norm_22_x: Tensor[(1, 8, 1000), float32], %nn_conv2d_25_x: Tensor[(1, 64, 25, 5), float32], %nn_relu_26_x: Tensor[(1, 64, 25, 5), float32], %multiply_28_x: Tensor[(1, 64, 25, 5), float32], %nn_instance_norm_30_x: Tensor[(1, 8, 1000), float32], %nn_conv2d_33_x: Tensor[(1, 64, 25, 5), float32], %nn_relu_34_x: Tensor[(1, 64, 25, 5), float32], %multiply_36_x: Tensor[(1, 64, 25, 5), float32], %nn_instance_norm_38_x: Tensor[(1, 8, 1000), float32], %nn_conv2d_41_x: Tensor[(1, 64, 25, 5), float32], %nn_relu_42_x: Tensor[(1, 64, 25, 5), float32], %multiply_44_x: Tensor[(1, 64, 25, 5), float32], %nn_instance_norm_46_x: Tensor[(1, 8, 1000), float32], %nn_conv2d_49_x: Tensor[(1, 64, 25, 5), float32], %nn_relu_50_x: Tensor[(1, 64, 25, 5), float32], %multiply_52_x: Tensor[(1, 64, 25, 5), float32], %nn_instance_norm_54_x: Tensor[(1, 8, 1000), float32], %nn_conv2d_57_x: Tensor[(1, 64, 25, 5), float32], %nn_relu_58_x: Tensor[(1, 64, 25, 5), float32], %multiply_60_x: Tensor[(1, 64, 25, 5), float32], %nn_instance_norm_62_x: Tensor[(1, 8, 1000), float32], %nn_conv2d_65_x: Tensor[(1, 64, 25, 5), float32], %nn_relu_66_x: Tensor[(1, 64, 25, 5), float32], %multiply_68_x: Tensor[(1, 64, 25, 5), float32], %nn_instance_norm_70_x: Tensor[(1, 8, 1000), float32], %nn_conv2d_73_x: Tensor[(1, 64, 25, 5), float32], %nn_dropout_74_y: Tensor[(1, 64, 25, 5), float32], %nn_relu_75_x: Tensor[(1, 64, 25, 5), float32], %multiply_77_x: Tensor[(1, 64, 25, 5), float32], %nn_instance_norm_79_x: Tensor[(1, 8, 1000), float32], %nn_conv2d_82_x: Tensor[(1, 1, 49, 10), float32], %data_0: Tensor[(1, 1, 49, 10), float32], %param_1_train: Tensor[(64, 1, 10, 4), float32], %param_2_train: Tensor[(64), float32], %param_3_train: Tensor[(8), float32], %param_4_train: Tensor[(8), float32], %param_5_train: Tensor[(64, 1, 1), float32], %param_6_train: Tensor[(64, 1, 1), float32], %param_7_train: Tensor[(64, 1, 3, 3), float32], %param_8_train: Tensor[(64), float32], %param_9_train: Tensor[(8), float32], %param_10_train: Tensor[(8), float32], %param_11_train: Tensor[(64, 1, 1), float32], %param_12_train: Tensor[(64, 1, 1), float32], %param_13_train: Tensor[(64, 64, 1, 1), float32], %param_14_train: Tensor[(64), float32], %param_15_train: Tensor[(8), float32], %param_16_train: Tensor[(8), float32], %param_17_train: Tensor[(64, 1, 1), float32], %param_18_train: Tensor[(64, 1, 1), float32], %param_19_train: Tensor[(64, 1, 3, 3), float32], %param_20_train: Tensor[(64), float32], %param_21_train: Tensor[(8), float32], %param_22_train: Tensor[(8), float32], %param_23_train: Tensor[(64, 1, 1), float32], %param_24_train: Tensor[(64, 1, 1), float32], %param_25_train: Tensor[(64, 64, 1, 1), float32], %param_26_train: Tensor[(64), float32], %param_27_train: Tensor[(8), float32], %param_28_train: Tensor[(8), float32], %param_29_train: Tensor[(64, 1, 1), float32], %param_30_train: Tensor[(64, 1, 1), float32], %param_31_train: Tensor[(64, 1, 3, 3), float32], %param_32_train: Tensor[(64), float32], %param_33_train: Tensor[(8), float32], %param_34_train: Tensor[(8), float32], %param_35_train: Tensor[(64, 1, 1), float32], %param_36_train: Tensor[(64, 1, 1), float32], %param_37_train: Tensor[(64, 64, 1, 1), float32], %param_38_train: Tensor[(64), float32], %param_39_train: Tensor[(8), float32], %param_40_train: Tensor[(8), float32], %param_41_train: Tensor[(64, 1, 1), float32], %param_42_train: Tensor[(64, 1, 1), float32], %param_43_train: Tensor[(64, 1, 3, 3), float32], %param_44_train: Tensor[(64), float32], %param_45_train: Tensor[(8), float32], %param_46_train: Tensor[(8), float32], %param_47_train: Tensor[(64, 1, 1), float32], %param_48_train: Tensor[(64, 1, 1), float32], %param_49_train: Tensor[(64, 64, 1, 1), float32], %param_50_train: Tensor[(64), float32], %param_51_train: Tensor[(8), float32], %param_52_train: Tensor[(8), float32], %param_53_train: Tensor[(64, 1, 1), float32], %param_54_train: Tensor[(64, 1, 1), float32], %param_55_train: Tensor[(12, 64), float32], %param_56_train: Tensor[(12), float32], %label: Tensor[(1, 12), float32]) -> (Tensor[(1, 12), float32], Tensor[(12, 64), float32], Tensor[(1, 64, 1, 1), float32], Tensor[(1, 64, 1, 1), float32], Tensor[(8, 1), float32], Tensor[(8, 1), float32], Tensor[(64), float32], Tensor[(64, 64, 1, 1), float32], Tensor[(1, 64, 1, 1), float32], Tensor[(1, 64, 1, 1), float32], Tensor[(8, 1), float32], Tensor[(8, 1), float32], Tensor[(64), float32], Tensor[(64, 1, 3, 3), float32], Tensor[(1, 64, 1, 1), float32], Tensor[(1, 64, 1, 1), float32], Tensor[(8, 1), float32], Tensor[(8, 1), float32], Tensor[(64), float32], Tensor[(64, 64, 1, 1), float32], Tensor[(1, 64, 1, 1), float32], Tensor[(1, 64, 1, 1), float32], Tensor[(8, 1), float32], Tensor[(8, 1), float32], Tensor[(64), float32], Tensor[(64, 1, 3, 3), float32], Tensor[(1, 64, 1, 1), float32], Tensor[(1, 64, 1, 1), float32], Tensor[(8, 1), float32], Tensor[(8, 1), float32], Tensor[(64), float32], Tensor[(64, 64, 1, 1), float32], Tensor[(1, 64, 1, 1), float32], Tensor[(1, 64, 1, 1), float32], Tensor[(8, 1), float32], Tensor[(8, 1), float32], Tensor[(64), float32], Tensor[(64, 1, 3, 3), float32], Tensor[(1, 64, 1, 1), float32], Tensor[(1, 64, 1, 1), float32], Tensor[(8, 1), float32], Tensor[(8, 1), float32], Tensor[(64), float32], Tensor[(64, 64, 1, 1), float32], Tensor[(1, 64, 1, 1), float32], Tensor[(1, 64, 1, 1), float32], Tensor[(8, 1), float32], Tensor[(8, 1), float32], Tensor[(64), float32], Tensor[(64, 1, 3, 3), float32], Tensor[(1, 64, 1, 1), float32], Tensor[(1, 64, 1, 1), float32], Tensor[(8, 1), float32], Tensor[(8, 1), float32], Tensor[(64), float32], Tensor[(64, 1, 10, 4), float32]) {
  %0 = negative(%grad_output) /* ty=float32 */;
  %1 = multiply(%0, %label) /* ty=Tensor[(1, 12), float32] */;
  %2 = sum(%1, axis=[-1], keepdims=True) /* ty=Tensor[(1, 1), float32] */;
  %3 = exp(%nn_log_softmax_1_y) /* ty=Tensor[(1, 12), float32] */;
  %4 = multiply(%2, %3) /* ty=Tensor[(1, 12), float32] */;
  %5 = subtract(%1, %4) /* ty=Tensor[(1, 12), float32] */;
  %6 = reshape(%5, newshape=[1, 12]) /* ty=Tensor[(1, 12), float32] */;
  %7 = transpose(%6, axes=None) /* ty=Tensor[(12, 1), float32] */;
  %8 = zeros(shape=[1, 64, 25, 5], dtype="float32") /* ty=Tensor[(1, 64, 25, 5), float32] */;
  %9 = nn.matmul(%6, %param_55_train, units=None) /* ty=Tensor[(1, 64), float32] */;
  %10 = reshape(%9, newshape=[1, 64, 1, 1]) /* ty=Tensor[(1, 64, 1, 1), float32] */;
  %11 = nn.avg_pool2d_grad(%10, %nn_avg_pool2d_7_x, pool_size=[25, 5], strides=[25, 5], dilation=[], padding=[0, 0, 0, 0]) /* ty=Tensor[(1, 64, 25, 5), float32] */;
  %12 = strided_slice(%11, begin=[0, 0, 0, 0], end=[None, None, None, None], strides=[1], axes=None) /* ty=Tensor[(1, 64, 25, 5), float32] */;
  %13 = less(%nn_relu_10_x, %8) /* ty=Tensor[(1, 64, 25, 5), bool] */;
  %14 = multiply(%12, %nn_dropout_9_y) /* ty=Tensor[(1, 64, 25, 5), float32] */;
  %15 = where(%13, %8, %14) /* ty=Tensor[(1, 64, 25, 5), float32] */;
  %16 = multiply(%15, %multiply_12_x) /* ty=Tensor[(1, 64, 25, 5), float32] */;
  %17 = multiply(%15, %param_53_train) /* ty=Tensor[(1, 64, 25, 5), float32] */;
  %18 = reshape(%nn_instance_norm_14_x, newshape=[8, 1000]) /* ty=Tensor[(8, 1000), float32] */;
  %19 = mean(%18, axis=[1], keepdims=True) /* ty=Tensor[(8, 1), float32] */;
  %20 = subtract(%18, %19) /* ty=Tensor[(8, 1000), float32] */;
  %21 = power(%20, 2f /* ty=float32 */) /* ty=Tensor[(8, 1000), float32] */;
  %22 = mean(%21, axis=[1], keepdims=True) /* ty=Tensor[(8, 1), float32] */;
  %23 = add(%22, 1e-05f /* ty=float32 */) /* ty=Tensor[(8, 1), float32] */;
  %24 = sqrt(%23) /* ty=Tensor[(8, 1), float32] */;
  %25 = divide(1f /* ty=float32 */, %24) /* ty=Tensor[(8, 1), float32] */;
  %26 = repeat(%25, repeats=1, axis=0) /* ty=Tensor[(8, 1), float32] */;
  %27 = reshape(%17, newshape=[8, 1000]) /* ty=Tensor[(8, 1000), float32] */;
  %28 = reshape(%26, newshape=[8, 1]) /* ty=Tensor[(8, 1), float32] */;
  %29 = multiply(%27, %20) /* ty=Tensor[(8, 1000), float32] */;
  %30 = sum(%29, axis=[1], keepdims=True) /* ty=Tensor[(8, 1), float32] */;
  %31 = multiply(-0.5f /* ty=float32 */, %30) /* ty=Tensor[(8, 1), float32] */;
  %32 = power(%28, 3f /* ty=float32 */) /* ty=Tensor[(8, 1), float32] */;
  %33 = multiply(%31, %32) /* ty=Tensor[(8, 1), float32] */;
  %34 = multiply(%33, 0.001f /* ty=float32 */) /* ty=Tensor[(8, 1), float32] */;
  %35 = multiply(%20, %34) /* ty=Tensor[(8, 1000), float32] */;
  %36 = multiply(%27, %28) /* ty=Tensor[(8, 1000), float32] */;
  %37 = multiply(%35, 2f /* ty=float32 */) /* ty=Tensor[(8, 1000), float32] */;
  %38 = add(%36, %37) /* ty=Tensor[(8, 1000), float32] */;
  %39 = sum(%38, axis=[1], keepdims=True) /* ty=Tensor[(8, 1), float32] */;
  %40 = negative(%39) /* ty=Tensor[(8, 1), float32] */;
  %41 = multiply(%40, 0.001f /* ty=float32 */) /* ty=Tensor[(8, 1), float32] */;
  %42 = add(%38, %41) /* ty=Tensor[(8, 1000), float32] */;
  %43 = reshape(%42, newshape=[1, 64, 25, 5]) /* ty=Tensor[(1, 64, 25, 5), float32] */;
  %44 = transpose(%nn_conv2d_17_x, axes=[1, 0, 2, 3]) /* ty=Tensor[(64, 1, 25, 5), float32] */;
  %45 = transpose(%43, axes=[1, 0, 2, 3]) /* ty=Tensor[(64, 1, 25, 5), float32] */;
  %46 = reshape(%44, newshape=[64, 1, 25, 5]) /* ty=Tensor[(64, 1, 25, 5), float32] */;
  %47 = reshape(%45, newshape=[64, 1, 25, 5]) /* ty=Tensor[(64, 1, 25, 5), float32] */;
  %48 = nn.conv2d(%46, %47, padding=[0, 0, 0, 0], channels=64, kernel_size=[25, 5]) /* ty=Tensor[(64, 64, 1, 1), float32] */;
  %49 = transpose(%48, axes=[1, 0, 2, 3]) /* ty=Tensor[(64, 64, 1, 1), float32] */;
  %50 = reshape(%49, newshape=[64, 1, 64, 1, 1]) /* ty=Tensor[(64, 1, 64, 1, 1), float32] */;
  %51 = sum(%50, axis=[1]) /* ty=Tensor[(64, 64, 1, 1), float32] */;
  %52 = zeros(shape=[1, 64, 25, 5], dtype="float32") /* ty=Tensor[(1, 64, 25, 5), float32] */;
  %53 = less(%nn_relu_18_x, %52) /* ty=Tensor[(1, 64, 25, 5), bool] */;
  %54 = nn.conv2d_transpose(%43, %param_49_train, channels=64, kernel_size=[1, 1], padding=[0, 0, 0, 0], kernel_layout="IOHW") /* ty=Tensor[(1, 64, 25, 5), float32] */;
  %55 = where(%53, %52, %54) /* ty=Tensor[(1, 64, 25, 5), float32] */;
  %56 = multiply(%55, %multiply_20_x) /* ty=Tensor[(1, 64, 25, 5), float32] */;
  %57 = multiply(%55, %param_47_train) /* ty=Tensor[(1, 64, 25, 5), float32] */;
  %58 = reshape(%nn_instance_norm_22_x, newshape=[8, 1000]) /* ty=Tensor[(8, 1000), float32] */;
  %59 = mean(%58, axis=[1], keepdims=True) /* ty=Tensor[(8, 1), float32] */;
  %60 = subtract(%58, %59) /* ty=Tensor[(8, 1000), float32] */;
  %61 = power(%60, 2f /* ty=float32 */) /* ty=Tensor[(8, 1000), float32] */;
  %62 = mean(%61, axis=[1], keepdims=True) /* ty=Tensor[(8, 1), float32] */;
  %63 = add(%62, 1e-05f /* ty=float32 */) /* ty=Tensor[(8, 1), float32] */;
  %64 = sqrt(%63) /* ty=Tensor[(8, 1), float32] */;
  %65 = divide(1f /* ty=float32 */, %64) /* ty=Tensor[(8, 1), float32] */;
  %66 = repeat(%65, repeats=1, axis=0) /* ty=Tensor[(8, 1), float32] */;
  %67 = reshape(%57, newshape=[8, 1000]) /* ty=Tensor[(8, 1000), float32] */;
  %68 = reshape(%66, newshape=[8, 1]) /* ty=Tensor[(8, 1), float32] */;
  %69 = multiply(%67, %60) /* ty=Tensor[(8, 1000), float32] */;
  %70 = sum(%69, axis=[1], keepdims=True) /* ty=Tensor[(8, 1), float32] */;
  %71 = multiply(-0.5f /* ty=float32 */, %70) /* ty=Tensor[(8, 1), float32] */;
  %72 = power(%68, 3f /* ty=float32 */) /* ty=Tensor[(8, 1), float32] */;
  %73 = multiply(%71, %72) /* ty=Tensor[(8, 1), float32] */;
  %74 = multiply(%73, 0.001f /* ty=float32 */) /* ty=Tensor[(8, 1), float32] */;
  %75 = multiply(%60, %74) /* ty=Tensor[(8, 1000), float32] */;
  %76 = multiply(%67, %68) /* ty=Tensor[(8, 1000), float32] */;
  %77 = multiply(%75, 2f /* ty=float32 */) /* ty=Tensor[(8, 1000), float32] */;
  %78 = add(%76, %77) /* ty=Tensor[(8, 1000), float32] */;
  %79 = sum(%78, axis=[1], keepdims=True) /* ty=Tensor[(8, 1), float32] */;
  %80 = negative(%79) /* ty=Tensor[(8, 1), float32] */;
  %81 = multiply(%80, 0.001f /* ty=float32 */) /* ty=Tensor[(8, 1), float32] */;
  %82 = add(%78, %81) /* ty=Tensor[(8, 1000), float32] */;
  %83 = reshape(%82, newshape=[1, 64, 25, 5]) /* ty=Tensor[(1, 64, 25, 5), float32] */;
  %84 = tile(%83, reps=[1, 1, 1, 1]) /* ty=Tensor[(1, 64, 25, 5), float32] */;
  %85 = reshape(%nn_conv2d_25_x, newshape=[1, -1, 0, 0]) /* ty=Tensor[(1, 64, 25, 5), float32] */;
  %86 = reshape(%84, newshape=[-1, 1, 0, 0]) /* ty=Tensor[(64, 1, 25, 5), float32] */;
  %87 = nn.conv2d(%85, %86, padding=[1, 1, 1, 1], groups=64, channels=64, kernel_size=[25, 5]) /* ty=Tensor[(1, 64, 3, 3), float32] */;
  %88 = reshape(%87, newshape=[1, 1, 64, 3, 3]) /* ty=Tensor[(1, 1, 64, 3, 3), float32] */;
  %89 = sum(%88, axis=[0]) /* ty=Tensor[(1, 64, 3, 3), float32] */;
  %90 = zeros(shape=[1, 64, 25, 5], dtype="float32") /* ty=Tensor[(1, 64, 25, 5), float32] */;
  %91 = less(%nn_relu_26_x, %90) /* ty=Tensor[(1, 64, 25, 5), bool] */;
  %92 = nn.conv2d_transpose(%83, %param_43_train, channels=64, kernel_size=[3, 3], padding=[1, 1, 1, 1], groups=64, kernel_layout="IOHW") /* ty=Tensor[(1, 64, 25, 5), float32] */;
  %93 = where(%91, %90, %92) /* ty=Tensor[(1, 64, 25, 5), float32] */;
  %94 = multiply(%93, %multiply_28_x) /* ty=Tensor[(1, 64, 25, 5), float32] */;
  %95 = multiply(%93, %param_41_train) /* ty=Tensor[(1, 64, 25, 5), float32] */;
  %96 = reshape(%nn_instance_norm_30_x, newshape=[8, 1000]) /* ty=Tensor[(8, 1000), float32] */;
  %97 = mean(%96, axis=[1], keepdims=True) /* ty=Tensor[(8, 1), float32] */;
  %98 = subtract(%96, %97) /* ty=Tensor[(8, 1000), float32] */;
  %99 = power(%98, 2f /* ty=float32 */) /* ty=Tensor[(8, 1000), float32] */;
  %100 = mean(%99, axis=[1], keepdims=True) /* ty=Tensor[(8, 1), float32] */;
  %101 = add(%100, 1e-05f /* ty=float32 */) /* ty=Tensor[(8, 1), float32] */;
  %102 = sqrt(%101) /* ty=Tensor[(8, 1), float32] */;
  %103 = divide(1f /* ty=float32 */, %102) /* ty=Tensor[(8, 1), float32] */;
  %104 = repeat(%103, repeats=1, axis=0) /* ty=Tensor[(8, 1), float32] */;
  %105 = reshape(%95, newshape=[8, 1000]) /* ty=Tensor[(8, 1000), float32] */;
  %106 = reshape(%104, newshape=[8, 1]) /* ty=Tensor[(8, 1), float32] */;
  %107 = multiply(%105, %98) /* ty=Tensor[(8, 1000), float32] */;
  %108 = sum(%107, axis=[1], keepdims=True) /* ty=Tensor[(8, 1), float32] */;
  %109 = multiply(-0.5f /* ty=float32 */, %108) /* ty=Tensor[(8, 1), float32] */;
  %110 = power(%106, 3f /* ty=float32 */) /* ty=Tensor[(8, 1), float32] */;
  %111 = multiply(%109, %110) /* ty=Tensor[(8, 1), float32] */;
  %112 = multiply(%111, 0.001f /* ty=float32 */) /* ty=Tensor[(8, 1), float32] */;
  %113 = multiply(%98, %112) /* ty=Tensor[(8, 1000), float32] */;
  %114 = multiply(%105, %106) /* ty=Tensor[(8, 1000), float32] */;
  %115 = multiply(%113, 2f /* ty=float32 */) /* ty=Tensor[(8, 1000), float32] */;
  %116 = add(%114, %115) /* ty=Tensor[(8, 1000), float32] */;
  %117 = sum(%116, axis=[1], keepdims=True) /* ty=Tensor[(8, 1), float32] */;
  %118 = negative(%117) /* ty=Tensor[(8, 1), float32] */;
  %119 = multiply(%118, 0.001f /* ty=float32 */) /* ty=Tensor[(8, 1), float32] */;
  %120 = add(%116, %119) /* ty=Tensor[(8, 1000), float32] */;
  %121 = reshape(%120, newshape=[1, 64, 25, 5]) /* ty=Tensor[(1, 64, 25, 5), float32] */;
  %122 = transpose(%nn_conv2d_33_x, axes=[1, 0, 2, 3]) /* ty=Tensor[(64, 1, 25, 5), float32] */;
  %123 = transpose(%121, axes=[1, 0, 2, 3]) /* ty=Tensor[(64, 1, 25, 5), float32] */;
  %124 = reshape(%122, newshape=[64, 1, 25, 5]) /* ty=Tensor[(64, 1, 25, 5), float32] */;
  %125 = reshape(%123, newshape=[64, 1, 25, 5]) /* ty=Tensor[(64, 1, 25, 5), float32] */;
  %126 = nn.conv2d(%124, %125, padding=[0, 0, 0, 0], channels=64, kernel_size=[25, 5]) /* ty=Tensor[(64, 64, 1, 1), float32] */;
  %127 = transpose(%126, axes=[1, 0, 2, 3]) /* ty=Tensor[(64, 64, 1, 1), float32] */;
  %128 = reshape(%127, newshape=[64, 1, 64, 1, 1]) /* ty=Tensor[(64, 1, 64, 1, 1), float32] */;
  %129 = sum(%128, axis=[1]) /* ty=Tensor[(64, 64, 1, 1), float32] */;
  %130 = zeros(shape=[1, 64, 25, 5], dtype="float32") /* ty=Tensor[(1, 64, 25, 5), float32] */;
  %131 = less(%nn_relu_34_x, %130) /* ty=Tensor[(1, 64, 25, 5), bool] */;
  %132 = nn.conv2d_transpose(%121, %param_37_train, channels=64, kernel_size=[1, 1], padding=[0, 0, 0, 0], kernel_layout="IOHW") /* ty=Tensor[(1, 64, 25, 5), float32] */;
  %133 = where(%131, %130, %132) /* ty=Tensor[(1, 64, 25, 5), float32] */;
  %134 = multiply(%133, %multiply_36_x) /* ty=Tensor[(1, 64, 25, 5), float32] */;
  %135 = multiply(%133, %param_35_train) /* ty=Tensor[(1, 64, 25, 5), float32] */;
  %136 = reshape(%nn_instance_norm_38_x, newshape=[8, 1000]) /* ty=Tensor[(8, 1000), float32] */;
  %137 = mean(%136, axis=[1], keepdims=True) /* ty=Tensor[(8, 1), float32] */;
  %138 = subtract(%136, %137) /* ty=Tensor[(8, 1000), float32] */;
  %139 = power(%138, 2f /* ty=float32 */) /* ty=Tensor[(8, 1000), float32] */;
  %140 = mean(%139, axis=[1], keepdims=True) /* ty=Tensor[(8, 1), float32] */;
  %141 = add(%140, 1e-05f /* ty=float32 */) /* ty=Tensor[(8, 1), float32] */;
  %142 = sqrt(%141) /* ty=Tensor[(8, 1), float32] */;
  %143 = divide(1f /* ty=float32 */, %142) /* ty=Tensor[(8, 1), float32] */;
  %144 = repeat(%143, repeats=1, axis=0) /* ty=Tensor[(8, 1), float32] */;
  %145 = reshape(%135, newshape=[8, 1000]) /* ty=Tensor[(8, 1000), float32] */;
  %146 = reshape(%144, newshape=[8, 1]) /* ty=Tensor[(8, 1), float32] */;
  %147 = multiply(%145, %138) /* ty=Tensor[(8, 1000), float32] */;
  %148 = sum(%147, axis=[1], keepdims=True) /* ty=Tensor[(8, 1), float32] */;
  %149 = multiply(-0.5f /* ty=float32 */, %148) /* ty=Tensor[(8, 1), float32] */;
  %150 = power(%146, 3f /* ty=float32 */) /* ty=Tensor[(8, 1), float32] */;
  %151 = multiply(%149, %150) /* ty=Tensor[(8, 1), float32] */;
  %152 = multiply(%151, 0.001f /* ty=float32 */) /* ty=Tensor[(8, 1), float32] */;
  %153 = multiply(%138, %152) /* ty=Tensor[(8, 1000), float32] */;
  %154 = multiply(%145, %146) /* ty=Tensor[(8, 1000), float32] */;
  %155 = multiply(%153, 2f /* ty=float32 */) /* ty=Tensor[(8, 1000), float32] */;
  %156 = add(%154, %155) /* ty=Tensor[(8, 1000), float32] */;
  %157 = sum(%156, axis=[1], keepdims=True) /* ty=Tensor[(8, 1), float32] */;
  %158 = negative(%157) /* ty=Tensor[(8, 1), float32] */;
  %159 = multiply(%158, 0.001f /* ty=float32 */) /* ty=Tensor[(8, 1), float32] */;
  %160 = add(%156, %159) /* ty=Tensor[(8, 1000), float32] */;
  %161 = reshape(%160, newshape=[1, 64, 25, 5]) /* ty=Tensor[(1, 64, 25, 5), float32] */;
  %162 = tile(%161, reps=[1, 1, 1, 1]) /* ty=Tensor[(1, 64, 25, 5), float32] */;
  %163 = reshape(%nn_conv2d_41_x, newshape=[1, -1, 0, 0]) /* ty=Tensor[(1, 64, 25, 5), float32] */;
  %164 = reshape(%162, newshape=[-1, 1, 0, 0]) /* ty=Tensor[(64, 1, 25, 5), float32] */;
  %165 = nn.conv2d(%163, %164, padding=[1, 1, 1, 1], groups=64, channels=64, kernel_size=[25, 5]) /* ty=Tensor[(1, 64, 3, 3), float32] */;
  %166 = reshape(%165, newshape=[1, 1, 64, 3, 3]) /* ty=Tensor[(1, 1, 64, 3, 3), float32] */;
  %167 = sum(%166, axis=[0]) /* ty=Tensor[(1, 64, 3, 3), float32] */;
  %168 = zeros(shape=[1, 64, 25, 5], dtype="float32") /* ty=Tensor[(1, 64, 25, 5), float32] */;
  %169 = less(%nn_relu_42_x, %168) /* ty=Tensor[(1, 64, 25, 5), bool] */;
  %170 = nn.conv2d_transpose(%161, %param_31_train, channels=64, kernel_size=[3, 3], padding=[1, 1, 1, 1], groups=64, kernel_layout="IOHW") /* ty=Tensor[(1, 64, 25, 5), float32] */;
  %171 = where(%169, %168, %170) /* ty=Tensor[(1, 64, 25, 5), float32] */;
  %172 = multiply(%171, %multiply_44_x) /* ty=Tensor[(1, 64, 25, 5), float32] */;
  %173 = multiply(%171, %param_29_train) /* ty=Tensor[(1, 64, 25, 5), float32] */;
  %174 = reshape(%nn_instance_norm_46_x, newshape=[8, 1000]) /* ty=Tensor[(8, 1000), float32] */;
  %175 = mean(%174, axis=[1], keepdims=True) /* ty=Tensor[(8, 1), float32] */;
  %176 = subtract(%174, %175) /* ty=Tensor[(8, 1000), float32] */;
  %177 = power(%176, 2f /* ty=float32 */) /* ty=Tensor[(8, 1000), float32] */;
  %178 = mean(%177, axis=[1], keepdims=True) /* ty=Tensor[(8, 1), float32] */;
  %179 = add(%178, 1e-05f /* ty=float32 */) /* ty=Tensor[(8, 1), float32] */;
  %180 = sqrt(%179) /* ty=Tensor[(8, 1), float32] */;
  %181 = divide(1f /* ty=float32 */, %180) /* ty=Tensor[(8, 1), float32] */;
  %182 = repeat(%181, repeats=1, axis=0) /* ty=Tensor[(8, 1), float32] */;
  %183 = reshape(%173, newshape=[8, 1000]) /* ty=Tensor[(8, 1000), float32] */;
  %184 = reshape(%182, newshape=[8, 1]) /* ty=Tensor[(8, 1), float32] */;
  %185 = multiply(%183, %176) /* ty=Tensor[(8, 1000), float32] */;
  %186 = sum(%185, axis=[1], keepdims=True) /* ty=Tensor[(8, 1), float32] */;
  %187 = multiply(-0.5f /* ty=float32 */, %186) /* ty=Tensor[(8, 1), float32] */;
  %188 = power(%184, 3f /* ty=float32 */) /* ty=Tensor[(8, 1), float32] */;
  %189 = multiply(%187, %188) /* ty=Tensor[(8, 1), float32] */;
  %190 = multiply(%189, 0.001f /* ty=float32 */) /* ty=Tensor[(8, 1), float32] */;
  %191 = multiply(%176, %190) /* ty=Tensor[(8, 1000), float32] */;
  %192 = multiply(%183, %184) /* ty=Tensor[(8, 1000), float32] */;
  %193 = multiply(%191, 2f /* ty=float32 */) /* ty=Tensor[(8, 1000), float32] */;
  %194 = add(%192, %193) /* ty=Tensor[(8, 1000), float32] */;
  %195 = sum(%194, axis=[1], keepdims=True) /* ty=Tensor[(8, 1), float32] */;
  %196 = negative(%195) /* ty=Tensor[(8, 1), float32] */;
  %197 = multiply(%196, 0.001f /* ty=float32 */) /* ty=Tensor[(8, 1), float32] */;
  %198 = add(%194, %197) /* ty=Tensor[(8, 1000), float32] */;
  %199 = reshape(%198, newshape=[1, 64, 25, 5]) /* ty=Tensor[(1, 64, 25, 5), float32] */;
  %200 = transpose(%nn_conv2d_49_x, axes=[1, 0, 2, 3]) /* ty=Tensor[(64, 1, 25, 5), float32] */;
  %201 = transpose(%199, axes=[1, 0, 2, 3]) /* ty=Tensor[(64, 1, 25, 5), float32] */;
  %202 = reshape(%200, newshape=[64, 1, 25, 5]) /* ty=Tensor[(64, 1, 25, 5), float32] */;
  %203 = reshape(%201, newshape=[64, 1, 25, 5]) /* ty=Tensor[(64, 1, 25, 5), float32] */;
  %204 = nn.conv2d(%202, %203, padding=[0, 0, 0, 0], channels=64, kernel_size=[25, 5]) /* ty=Tensor[(64, 64, 1, 1), float32] */;
  %205 = transpose(%204, axes=[1, 0, 2, 3]) /* ty=Tensor[(64, 64, 1, 1), float32] */;
  %206 = reshape(%205, newshape=[64, 1, 64, 1, 1]) /* ty=Tensor[(64, 1, 64, 1, 1), float32] */;
  %207 = sum(%206, axis=[1]) /* ty=Tensor[(64, 64, 1, 1), float32] */;
  %208 = zeros(shape=[1, 64, 25, 5], dtype="float32") /* ty=Tensor[(1, 64, 25, 5), float32] */;
  %209 = less(%nn_relu_50_x, %208) /* ty=Tensor[(1, 64, 25, 5), bool] */;
  %210 = nn.conv2d_transpose(%199, %param_25_train, channels=64, kernel_size=[1, 1], padding=[0, 0, 0, 0], kernel_layout="IOHW") /* ty=Tensor[(1, 64, 25, 5), float32] */;
  %211 = where(%209, %208, %210) /* ty=Tensor[(1, 64, 25, 5), float32] */;
  %212 = multiply(%211, %multiply_52_x) /* ty=Tensor[(1, 64, 25, 5), float32] */;
  %213 = multiply(%211, %param_23_train) /* ty=Tensor[(1, 64, 25, 5), float32] */;
  %214 = reshape(%nn_instance_norm_54_x, newshape=[8, 1000]) /* ty=Tensor[(8, 1000), float32] */;
  %215 = mean(%214, axis=[1], keepdims=True) /* ty=Tensor[(8, 1), float32] */;
  %216 = subtract(%214, %215) /* ty=Tensor[(8, 1000), float32] */;
  %217 = power(%216, 2f /* ty=float32 */) /* ty=Tensor[(8, 1000), float32] */;
  %218 = mean(%217, axis=[1], keepdims=True) /* ty=Tensor[(8, 1), float32] */;
  %219 = add(%218, 1e-05f /* ty=float32 */) /* ty=Tensor[(8, 1), float32] */;
  %220 = sqrt(%219) /* ty=Tensor[(8, 1), float32] */;
  %221 = divide(1f /* ty=float32 */, %220) /* ty=Tensor[(8, 1), float32] */;
  %222 = repeat(%221, repeats=1, axis=0) /* ty=Tensor[(8, 1), float32] */;
  %223 = reshape(%213, newshape=[8, 1000]) /* ty=Tensor[(8, 1000), float32] */;
  %224 = reshape(%222, newshape=[8, 1]) /* ty=Tensor[(8, 1), float32] */;
  %225 = multiply(%223, %216) /* ty=Tensor[(8, 1000), float32] */;
  %226 = sum(%225, axis=[1], keepdims=True) /* ty=Tensor[(8, 1), float32] */;
  %227 = multiply(-0.5f /* ty=float32 */, %226) /* ty=Tensor[(8, 1), float32] */;
  %228 = power(%224, 3f /* ty=float32 */) /* ty=Tensor[(8, 1), float32] */;
  %229 = multiply(%227, %228) /* ty=Tensor[(8, 1), float32] */;
  %230 = multiply(%229, 0.001f /* ty=float32 */) /* ty=Tensor[(8, 1), float32] */;
  %231 = multiply(%216, %230) /* ty=Tensor[(8, 1000), float32] */;
  %232 = multiply(%223, %224) /* ty=Tensor[(8, 1000), float32] */;
  %233 = multiply(%231, 2f /* ty=float32 */) /* ty=Tensor[(8, 1000), float32] */;
  %234 = add(%232, %233) /* ty=Tensor[(8, 1000), float32] */;
  %235 = sum(%234, axis=[1], keepdims=True) /* ty=Tensor[(8, 1), float32] */;
  %236 = negative(%235) /* ty=Tensor[(8, 1), float32] */;
  %237 = multiply(%236, 0.001f /* ty=float32 */) /* ty=Tensor[(8, 1), float32] */;
  %238 = add(%234, %237) /* ty=Tensor[(8, 1000), float32] */;
  %239 = reshape(%238, newshape=[1, 64, 25, 5]) /* ty=Tensor[(1, 64, 25, 5), float32] */;
  %240 = tile(%239, reps=[1, 1, 1, 1]) /* ty=Tensor[(1, 64, 25, 5), float32] */;
  %241 = reshape(%nn_conv2d_57_x, newshape=[1, -1, 0, 0]) /* ty=Tensor[(1, 64, 25, 5), float32] */;
  %242 = reshape(%240, newshape=[-1, 1, 0, 0]) /* ty=Tensor[(64, 1, 25, 5), float32] */;
  %243 = nn.conv2d(%241, %242, padding=[1, 1, 1, 1], groups=64, channels=64, kernel_size=[25, 5]) /* ty=Tensor[(1, 64, 3, 3), float32] */;
  %244 = reshape(%243, newshape=[1, 1, 64, 3, 3]) /* ty=Tensor[(1, 1, 64, 3, 3), float32] */;
  %245 = sum(%244, axis=[0]) /* ty=Tensor[(1, 64, 3, 3), float32] */;
  %246 = zeros(shape=[1, 64, 25, 5], dtype="float32") /* ty=Tensor[(1, 64, 25, 5), float32] */;
  %247 = less(%nn_relu_58_x, %246) /* ty=Tensor[(1, 64, 25, 5), bool] */;
  %248 = nn.conv2d_transpose(%239, %param_19_train, channels=64, kernel_size=[3, 3], padding=[1, 1, 1, 1], groups=64, kernel_layout="IOHW") /* ty=Tensor[(1, 64, 25, 5), float32] */;
  %249 = where(%247, %246, %248) /* ty=Tensor[(1, 64, 25, 5), float32] */;
  %250 = multiply(%249, %multiply_60_x) /* ty=Tensor[(1, 64, 25, 5), float32] */;
  %251 = multiply(%249, %param_17_train) /* ty=Tensor[(1, 64, 25, 5), float32] */;
  %252 = reshape(%nn_instance_norm_62_x, newshape=[8, 1000]) /* ty=Tensor[(8, 1000), float32] */;
  %253 = mean(%252, axis=[1], keepdims=True) /* ty=Tensor[(8, 1), float32] */;
  %254 = subtract(%252, %253) /* ty=Tensor[(8, 1000), float32] */;
  %255 = power(%254, 2f /* ty=float32 */) /* ty=Tensor[(8, 1000), float32] */;
  %256 = mean(%255, axis=[1], keepdims=True) /* ty=Tensor[(8, 1), float32] */;
  %257 = add(%256, 1e-05f /* ty=float32 */) /* ty=Tensor[(8, 1), float32] */;
  %258 = sqrt(%257) /* ty=Tensor[(8, 1), float32] */;
  %259 = divide(1f /* ty=float32 */, %258) /* ty=Tensor[(8, 1), float32] */;
  %260 = repeat(%259, repeats=1, axis=0) /* ty=Tensor[(8, 1), float32] */;
  %261 = reshape(%251, newshape=[8, 1000]) /* ty=Tensor[(8, 1000), float32] */;
  %262 = reshape(%260, newshape=[8, 1]) /* ty=Tensor[(8, 1), float32] */;
  %263 = multiply(%261, %254) /* ty=Tensor[(8, 1000), float32] */;
  %264 = sum(%263, axis=[1], keepdims=True) /* ty=Tensor[(8, 1), float32] */;
  %265 = multiply(-0.5f /* ty=float32 */, %264) /* ty=Tensor[(8, 1), float32] */;
  %266 = power(%262, 3f /* ty=float32 */) /* ty=Tensor[(8, 1), float32] */;
  %267 = multiply(%265, %266) /* ty=Tensor[(8, 1), float32] */;
  %268 = multiply(%267, 0.001f /* ty=float32 */) /* ty=Tensor[(8, 1), float32] */;
  %269 = multiply(%254, %268) /* ty=Tensor[(8, 1000), float32] */;
  %270 = multiply(%261, %262) /* ty=Tensor[(8, 1000), float32] */;
  %271 = multiply(%269, 2f /* ty=float32 */) /* ty=Tensor[(8, 1000), float32] */;
  %272 = add(%270, %271) /* ty=Tensor[(8, 1000), float32] */;
  %273 = sum(%272, axis=[1], keepdims=True) /* ty=Tensor[(8, 1), float32] */;
  %274 = negative(%273) /* ty=Tensor[(8, 1), float32] */;
  %275 = multiply(%274, 0.001f /* ty=float32 */) /* ty=Tensor[(8, 1), float32] */;
  %276 = add(%272, %275) /* ty=Tensor[(8, 1000), float32] */;
  %277 = reshape(%276, newshape=[1, 64, 25, 5]) /* ty=Tensor[(1, 64, 25, 5), float32] */;
  %278 = transpose(%nn_conv2d_65_x, axes=[1, 0, 2, 3]) /* ty=Tensor[(64, 1, 25, 5), float32] */;
  %279 = transpose(%277, axes=[1, 0, 2, 3]) /* ty=Tensor[(64, 1, 25, 5), float32] */;
  %280 = reshape(%278, newshape=[64, 1, 25, 5]) /* ty=Tensor[(64, 1, 25, 5), float32] */;
  %281 = reshape(%279, newshape=[64, 1, 25, 5]) /* ty=Tensor[(64, 1, 25, 5), float32] */;
  %282 = nn.conv2d(%280, %281, padding=[0, 0, 0, 0], channels=64, kernel_size=[25, 5]) /* ty=Tensor[(64, 64, 1, 1), float32] */;
  %283 = transpose(%282, axes=[1, 0, 2, 3]) /* ty=Tensor[(64, 64, 1, 1), float32] */;
  %284 = reshape(%283, newshape=[64, 1, 64, 1, 1]) /* ty=Tensor[(64, 1, 64, 1, 1), float32] */;
  %285 = sum(%284, axis=[1]) /* ty=Tensor[(64, 64, 1, 1), float32] */;
  %286 = zeros(shape=[1, 64, 25, 5], dtype="float32") /* ty=Tensor[(1, 64, 25, 5), float32] */;
  %287 = less(%nn_relu_66_x, %286) /* ty=Tensor[(1, 64, 25, 5), bool] */;
  %288 = nn.conv2d_transpose(%277, %param_13_train, channels=64, kernel_size=[1, 1], padding=[0, 0, 0, 0], kernel_layout="IOHW") /* ty=Tensor[(1, 64, 25, 5), float32] */;
  %289 = where(%287, %286, %288) /* ty=Tensor[(1, 64, 25, 5), float32] */;
  %290 = multiply(%289, %multiply_68_x) /* ty=Tensor[(1, 64, 25, 5), float32] */;
  %291 = multiply(%289, %param_11_train) /* ty=Tensor[(1, 64, 25, 5), float32] */;
  %292 = reshape(%nn_instance_norm_70_x, newshape=[8, 1000]) /* ty=Tensor[(8, 1000), float32] */;
  %293 = mean(%292, axis=[1], keepdims=True) /* ty=Tensor[(8, 1), float32] */;
  %294 = subtract(%292, %293) /* ty=Tensor[(8, 1000), float32] */;
  %295 = power(%294, 2f /* ty=float32 */) /* ty=Tensor[(8, 1000), float32] */;
  %296 = mean(%295, axis=[1], keepdims=True) /* ty=Tensor[(8, 1), float32] */;
  %297 = add(%296, 1e-05f /* ty=float32 */) /* ty=Tensor[(8, 1), float32] */;
  %298 = sqrt(%297) /* ty=Tensor[(8, 1), float32] */;
  %299 = divide(1f /* ty=float32 */, %298) /* ty=Tensor[(8, 1), float32] */;
  %300 = repeat(%299, repeats=1, axis=0) /* ty=Tensor[(8, 1), float32] */;
  %301 = reshape(%291, newshape=[8, 1000]) /* ty=Tensor[(8, 1000), float32] */;
  %302 = reshape(%300, newshape=[8, 1]) /* ty=Tensor[(8, 1), float32] */;
  %303 = multiply(%301, %294) /* ty=Tensor[(8, 1000), float32] */;
  %304 = sum(%303, axis=[1], keepdims=True) /* ty=Tensor[(8, 1), float32] */;
  %305 = multiply(-0.5f /* ty=float32 */, %304) /* ty=Tensor[(8, 1), float32] */;
  %306 = power(%302, 3f /* ty=float32 */) /* ty=Tensor[(8, 1), float32] */;
  %307 = multiply(%305, %306) /* ty=Tensor[(8, 1), float32] */;
  %308 = multiply(%307, 0.001f /* ty=float32 */) /* ty=Tensor[(8, 1), float32] */;
  %309 = multiply(%294, %308) /* ty=Tensor[(8, 1000), float32] */;
  %310 = multiply(%301, %302) /* ty=Tensor[(8, 1000), float32] */;
  %311 = multiply(%309, 2f /* ty=float32 */) /* ty=Tensor[(8, 1000), float32] */;
  %312 = add(%310, %311) /* ty=Tensor[(8, 1000), float32] */;
  %313 = sum(%312, axis=[1], keepdims=True) /* ty=Tensor[(8, 1), float32] */;
  %314 = negative(%313) /* ty=Tensor[(8, 1), float32] */;
  %315 = multiply(%314, 0.001f /* ty=float32 */) /* ty=Tensor[(8, 1), float32] */;
  %316 = add(%312, %315) /* ty=Tensor[(8, 1000), float32] */;
  %317 = reshape(%316, newshape=[1, 64, 25, 5]) /* ty=Tensor[(1, 64, 25, 5), float32] */;
  %318 = tile(%317, reps=[1, 1, 1, 1]) /* ty=Tensor[(1, 64, 25, 5), float32] */;
  %319 = reshape(%nn_conv2d_73_x, newshape=[1, -1, 0, 0]) /* ty=Tensor[(1, 64, 25, 5), float32] */;
  %320 = reshape(%318, newshape=[-1, 1, 0, 0]) /* ty=Tensor[(64, 1, 25, 5), float32] */;
  %321 = nn.conv2d(%319, %320, padding=[1, 1, 1, 1], groups=64, channels=64, kernel_size=[25, 5]) /* ty=Tensor[(1, 64, 3, 3), float32] */;
  %322 = reshape(%321, newshape=[1, 1, 64, 3, 3]) /* ty=Tensor[(1, 1, 64, 3, 3), float32] */;
  %323 = sum(%322, axis=[0]) /* ty=Tensor[(1, 64, 3, 3), float32] */;
  %324 = zeros(shape=[1, 64, 25, 5], dtype="float32") /* ty=Tensor[(1, 64, 25, 5), float32] */;
  %325 = nn.conv2d_transpose(%317, %param_7_train, channels=64, kernel_size=[3, 3], padding=[1, 1, 1, 1], groups=64, kernel_layout="IOHW") /* ty=Tensor[(1, 64, 25, 5), float32] */;
  %326 = less(%nn_relu_75_x, %324) /* ty=Tensor[(1, 64, 25, 5), bool] */;
  %327 = multiply(%325, %nn_dropout_74_y) /* ty=Tensor[(1, 64, 25, 5), float32] */;
  %328 = where(%326, %324, %327) /* ty=Tensor[(1, 64, 25, 5), float32] */;
  %329 = multiply(%328, %multiply_77_x) /* ty=Tensor[(1, 64, 25, 5), float32] */;
  %330 = multiply(%328, %param_5_train) /* ty=Tensor[(1, 64, 25, 5), float32] */;
  %331 = reshape(%nn_instance_norm_79_x, newshape=[8, 1000]) /* ty=Tensor[(8, 1000), float32] */;
  %332 = mean(%331, axis=[1], keepdims=True) /* ty=Tensor[(8, 1), float32] */;
  %333 = subtract(%331, %332) /* ty=Tensor[(8, 1000), float32] */;
  %334 = power(%333, 2f /* ty=float32 */) /* ty=Tensor[(8, 1000), float32] */;
  %335 = mean(%334, axis=[1], keepdims=True) /* ty=Tensor[(8, 1), float32] */;
  %336 = add(%335, 1e-05f /* ty=float32 */) /* ty=Tensor[(8, 1), float32] */;
  %337 = sqrt(%336) /* ty=Tensor[(8, 1), float32] */;
  %338 = divide(1f /* ty=float32 */, %337) /* ty=Tensor[(8, 1), float32] */;
  %339 = repeat(%338, repeats=1, axis=0) /* ty=Tensor[(8, 1), float32] */;
  %340 = reshape(%330, newshape=[8, 1000]) /* ty=Tensor[(8, 1000), float32] */;
  %341 = reshape(%339, newshape=[8, 1]) /* ty=Tensor[(8, 1), float32] */;
  %342 = multiply(%340, %333) /* ty=Tensor[(8, 1000), float32] */;
  %343 = sum(%342, axis=[1], keepdims=True) /* ty=Tensor[(8, 1), float32] */;
  %344 = multiply(-0.5f /* ty=float32 */, %343) /* ty=Tensor[(8, 1), float32] */;
  %345 = power(%341, 3f /* ty=float32 */) /* ty=Tensor[(8, 1), float32] */;
  %346 = multiply(%344, %345) /* ty=Tensor[(8, 1), float32] */;
  %347 = multiply(%346, 0.001f /* ty=float32 */) /* ty=Tensor[(8, 1), float32] */;
  %348 = multiply(%333, %347) /* ty=Tensor[(8, 1000), float32] */;
  %349 = multiply(%340, %341) /* ty=Tensor[(8, 1000), float32] */;
  %350 = multiply(%348, 2f /* ty=float32 */) /* ty=Tensor[(8, 1000), float32] */;
  %351 = add(%349, %350) /* ty=Tensor[(8, 1000), float32] */;
  %352 = sum(%351, axis=[1], keepdims=True) /* ty=Tensor[(8, 1), float32] */;
  %353 = negative(%352) /* ty=Tensor[(8, 1), float32] */;
  %354 = multiply(%353, 0.001f /* ty=float32 */) /* ty=Tensor[(8, 1), float32] */;
  %355 = add(%351, %354) /* ty=Tensor[(8, 1000), float32] */;
  %356 = reshape(%355, newshape=[1, 64, 25, 5]) /* ty=Tensor[(1, 64, 25, 5), float32] */;
  %357 = transpose(%nn_conv2d_82_x, axes=[1, 0, 2, 3]) /* ty=Tensor[(1, 1, 49, 10), float32] */;
  %358 = transpose(%356, axes=[1, 0, 2, 3]) /* ty=Tensor[(64, 1, 25, 5), float32] */;
  %359 = reshape(%357, newshape=[1, 1, 49, 10]) /* ty=Tensor[(1, 1, 49, 10), float32] */;
  %360 = reshape(%358, newshape=[64, 1, 25, 5]) /* ty=Tensor[(64, 1, 25, 5), float32] */;
  %361 = nn.conv2d(%359, %360, padding=[5, 1, 5, 1], dilation=[2, 2], channels=64, kernel_size=[25, 5]) /* ty=Tensor[(1, 64, 11, 4), float32] */;
  %362 = reshape(%361, newshape=[1, 1, 64, 11, 4]) /* ty=Tensor[(1, 1, 64, 11, 4), float32] */;
  %363 = sum(%362, axis=[0]) /* ty=Tensor[(1, 64, 11, 4), float32] */;
  %364 = transpose(%363, axes=[1, 0, 2, 3]) /* ty=Tensor[(64, 1, 11, 4), float32] */;
  %365 = nn.matmul(%7, %nn_dense_5_x, units=None) /* ty=Tensor[(12, 64), float32] */;
  %366 = sum(%15, axis=[2, 3], keepdims=True) /* ty=Tensor[(1, 64, 1, 1), float32] */;
  %367 = sum(%16, axis=[2, 3], keepdims=True) /* ty=Tensor[(1, 64, 1, 1), float32] */;
  %368 = zeros(shape=[8, 1], dtype="float32") /* ty=Tensor[(8, 1), float32] */;
  %369 = zeros(shape=[8, 1], dtype="float32") /* ty=Tensor[(8, 1), float32] */;
  %370 = sum(%43, axis=[1], exclude=True) /* ty=Tensor[(64), float32] */;
  %371 = reshape(%51, newshape=[64, 64, 1, 1]) /* ty=Tensor[(64, 64, 1, 1), float32] */;
  %372 = sum(%55, axis=[2, 3], keepdims=True) /* ty=Tensor[(1, 64, 1, 1), float32] */;
  %373 = sum(%56, axis=[2, 3], keepdims=True) /* ty=Tensor[(1, 64, 1, 1), float32] */;
  %374 = zeros(shape=[8, 1], dtype="float32") /* ty=Tensor[(8, 1), float32] */;
  %375 = zeros(shape=[8, 1], dtype="float32") /* ty=Tensor[(8, 1), float32] */;
  %376 = sum(%83, axis=[1], exclude=True) /* ty=Tensor[(64), float32] */;
  %377 = transpose(%89, axes=[1, 0, 2, 3]) /* ty=Tensor[(64, 1, 3, 3), float32] */;
  %378 = sum(%93, axis=[2, 3], keepdims=True) /* ty=Tensor[(1, 64, 1, 1), float32] */;
  %379 = sum(%94, axis=[2, 3], keepdims=True) /* ty=Tensor[(1, 64, 1, 1), float32] */;
  %380 = zeros(shape=[8, 1], dtype="float32") /* ty=Tensor[(8, 1), float32] */;
  %381 = zeros(shape=[8, 1], dtype="float32") /* ty=Tensor[(8, 1), float32] */;
  %382 = sum(%121, axis=[1], exclude=True) /* ty=Tensor[(64), float32] */;
  %383 = reshape(%129, newshape=[64, 64, 1, 1]) /* ty=Tensor[(64, 64, 1, 1), float32] */;
  %384 = sum(%133, axis=[2, 3], keepdims=True) /* ty=Tensor[(1, 64, 1, 1), float32] */;
  %385 = sum(%134, axis=[2, 3], keepdims=True) /* ty=Tensor[(1, 64, 1, 1), float32] */;
  %386 = zeros(shape=[8, 1], dtype="float32") /* ty=Tensor[(8, 1), float32] */;
  %387 = zeros(shape=[8, 1], dtype="float32") /* ty=Tensor[(8, 1), float32] */;
  %388 = sum(%161, axis=[1], exclude=True) /* ty=Tensor[(64), float32] */;
  %389 = transpose(%167, axes=[1, 0, 2, 3]) /* ty=Tensor[(64, 1, 3, 3), float32] */;
  %390 = sum(%171, axis=[2, 3], keepdims=True) /* ty=Tensor[(1, 64, 1, 1), float32] */;
  %391 = sum(%172, axis=[2, 3], keepdims=True) /* ty=Tensor[(1, 64, 1, 1), float32] */;
  %392 = zeros(shape=[8, 1], dtype="float32") /* ty=Tensor[(8, 1), float32] */;
  %393 = zeros(shape=[8, 1], dtype="float32") /* ty=Tensor[(8, 1), float32] */;
  %394 = sum(%199, axis=[1], exclude=True) /* ty=Tensor[(64), float32] */;
  %395 = reshape(%207, newshape=[64, 64, 1, 1]) /* ty=Tensor[(64, 64, 1, 1), float32] */;
  %396 = sum(%211, axis=[2, 3], keepdims=True) /* ty=Tensor[(1, 64, 1, 1), float32] */;
  %397 = sum(%212, axis=[2, 3], keepdims=True) /* ty=Tensor[(1, 64, 1, 1), float32] */;
  %398 = zeros(shape=[8, 1], dtype="float32") /* ty=Tensor[(8, 1), float32] */;
  %399 = zeros(shape=[8, 1], dtype="float32") /* ty=Tensor[(8, 1), float32] */;
  %400 = sum(%239, axis=[1], exclude=True) /* ty=Tensor[(64), float32] */;
  %401 = transpose(%245, axes=[1, 0, 2, 3]) /* ty=Tensor[(64, 1, 3, 3), float32] */;
  %402 = sum(%249, axis=[2, 3], keepdims=True) /* ty=Tensor[(1, 64, 1, 1), float32] */;
  %403 = sum(%250, axis=[2, 3], keepdims=True) /* ty=Tensor[(1, 64, 1, 1), float32] */;
  %404 = zeros(shape=[8, 1], dtype="float32") /* ty=Tensor[(8, 1), float32] */;
  %405 = zeros(shape=[8, 1], dtype="float32") /* ty=Tensor[(8, 1), float32] */;
  %406 = sum(%277, axis=[1], exclude=True) /* ty=Tensor[(64), float32] */;
  %407 = reshape(%285, newshape=[64, 64, 1, 1]) /* ty=Tensor[(64, 64, 1, 1), float32] */;
  %408 = sum(%289, axis=[2, 3], keepdims=True) /* ty=Tensor[(1, 64, 1, 1), float32] */;
  %409 = sum(%290, axis=[2, 3], keepdims=True) /* ty=Tensor[(1, 64, 1, 1), float32] */;
  %410 = zeros(shape=[8, 1], dtype="float32") /* ty=Tensor[(8, 1), float32] */;
  %411 = zeros(shape=[8, 1], dtype="float32") /* ty=Tensor[(8, 1), float32] */;
  %412 = sum(%317, axis=[1], exclude=True) /* ty=Tensor[(64), float32] */;
  %413 = transpose(%323, axes=[1, 0, 2, 3]) /* ty=Tensor[(64, 1, 3, 3), float32] */;
  %414 = sum(%328, axis=[2, 3], keepdims=True) /* ty=Tensor[(1, 64, 1, 1), float32] */;
  %415 = sum(%329, axis=[2, 3], keepdims=True) /* ty=Tensor[(1, 64, 1, 1), float32] */;
  %416 = zeros(shape=[8, 1], dtype="float32") /* ty=Tensor[(8, 1), float32] */;
  %417 = zeros(shape=[8, 1], dtype="float32") /* ty=Tensor[(8, 1), float32] */;
  %418 = sum(%356, axis=[1], exclude=True) /* ty=Tensor[(64), float32] */;
  %419 = strided_slice(%364, begin=[0, 0, 0, 0], end=[64, 1, 10, 4], strides=[1], axes=None) /* ty=Tensor[(64, 1, 10, 4), float32] */;
  (%6, %365, %366, %367, %368, %369, %370, %371, %372, %373, %374, %375, %376, %377, %378, %379, %380, %381, %382, %383, %384, %385, %386, %387, %388, %389, %390, %391, %392, %393, %394, %395, %396, %397, %398, %399, %400, %401, %402, %403, %404, %405, %406, %407, %408, %409, %410, %411, %412, %413, %414, %415, %416, %417, %418, %419)
}
