def @main(%data_0: Tensor[(1, 1, 49, 10), float32], %param_1_train: Tensor[(64, 1, 10, 4), float32], %param_2_train: Tensor[(64), float32], %param_3_train: Tensor[(8), float32], %param_4_train: Tensor[(8), float32], %param_5_train: Tensor[(64, 1, 1), float32], %param_6_train: Tensor[(64, 1, 1), float32], %param_7_train: Tensor[(64, 1, 3, 3), float32], %param_8_train: Tensor[(64), float32], %param_9_train: Tensor[(8), float32], %param_10_train: Tensor[(8), float32], %param_11_train: Tensor[(64, 1, 1), float32], %param_12_train: Tensor[(64, 1, 1), float32], %param_13_train: Tensor[(64, 64, 1, 1), float32], %param_14_train: Tensor[(64), float32], %param_15_train: Tensor[(8), float32], %param_16_train: Tensor[(8), float32], %param_17_train: Tensor[(64, 1, 1), float32], %param_18_train: Tensor[(64, 1, 1), float32], %param_19_train: Tensor[(64, 1, 3, 3), float32], %param_20_train: Tensor[(64), float32], %param_21_train: Tensor[(8), float32], %param_22_train: Tensor[(8), float32], %param_23_train: Tensor[(64, 1, 1), float32], %param_24_train: Tensor[(64, 1, 1), float32], %param_25_train: Tensor[(64, 64, 1, 1), float32], %param_26_train: Tensor[(64), float32], %param_27_train: Tensor[(8), float32], %param_28_train: Tensor[(8), float32], %param_29_train: Tensor[(64, 1, 1), float32], %param_30_train: Tensor[(64, 1, 1), float32], %param_31_train: Tensor[(64, 1, 3, 3), float32], %param_32_train: Tensor[(64), float32], %param_33_train: Tensor[(8), float32], %param_34_train: Tensor[(8), float32], %param_35_train: Tensor[(64, 1, 1), float32], %param_36_train: Tensor[(64, 1, 1), float32], %param_37_train: Tensor[(64, 64, 1, 1), float32], %param_38_train: Tensor[(64), float32], %param_39_train: Tensor[(8), float32], %param_40_train: Tensor[(8), float32], %param_41_train: Tensor[(64, 1, 1), float32], %param_42_train: Tensor[(64, 1, 1), float32], %param_43_train: Tensor[(64, 1, 3, 3), float32], %param_44_train: Tensor[(64), float32], %param_45_train: Tensor[(8), float32], %param_46_train: Tensor[(8), float32], %param_47_train: Tensor[(64, 1, 1), float32], %param_48_train: Tensor[(64, 1, 1), float32], %param_49_train: Tensor[(64, 64, 1, 1), float32], %param_50_train: Tensor[(64), float32], %param_51_train: Tensor[(8), float32], %param_52_train: Tensor[(8), float32], %param_53_train: Tensor[(64, 1, 1), float32], %param_54_train: Tensor[(64, 1, 1), float32], %param_55_train: Tensor[(12, 64), float32], %param_56_train: Tensor[(12), float32], %label: Tensor[(1, 12), float32]) -> (float32, Tensor[(1, 12), float32], Tensor[(1, 12), float32], Tensor[(1, 64), float32], Tensor[(1, 64, 1, 1), float32], Tensor[(1, 64, 25, 5), float32], Tensor[(1, 64, 25, 5), float32], Tensor[(1, 64, 25, 5), float32], Tensor[(1, 64, 25, 5), float32], Tensor[(1, 8, 1000), float32], Tensor[(1, 64, 25, 5), float32], Tensor[(1, 64, 25, 5), float32], Tensor[(1, 64, 25, 5), float32], Tensor[(1, 8, 1000), float32], Tensor[(1, 64, 25, 5), float32], Tensor[(1, 64, 25, 5), float32], Tensor[(1, 64, 25, 5), float32], Tensor[(1, 8, 1000), float32], Tensor[(1, 64, 25, 5), float32], Tensor[(1, 64, 25, 5), float32], Tensor[(1, 64, 25, 5), float32], Tensor[(1, 8, 1000), float32], Tensor[(1, 64, 25, 5), float32], Tensor[(1, 64, 25, 5), float32], Tensor[(1, 64, 25, 5), float32], Tensor[(1, 8, 1000), float32], Tensor[(1, 64, 25, 5), float32], Tensor[(1, 64, 25, 5), float32], Tensor[(1, 64, 25, 5), float32], Tensor[(1, 8, 1000), float32], Tensor[(1, 64, 25, 5), float32], Tensor[(1, 64, 25, 5), float32], Tensor[(1, 64, 25, 5), float32], Tensor[(1, 8, 1000), float32], Tensor[(1, 64, 25, 5), float32], Tensor[(1, 64, 25, 5), float32], Tensor[(1, 64, 25, 5), float32], Tensor[(1, 8, 1000), float32], Tensor[(1, 64, 25, 5), float32], Tensor[(1, 64, 25, 5), float32], Tensor[(1, 64, 25, 5), float32], Tensor[(1, 64, 25, 5), float32], Tensor[(1, 8, 1000), float32], Tensor[(1, 1, 49, 10), float32]) {
  %0 = nn.conv2d(%data_0, %param_1_train, strides=[2, 2], padding=[5, 1, 5, 1], channels=64, kernel_size=[10, 4]) /* ty=Tensor[(1, 64, 25, 5), float32] */;
  %1 = nn.bias_add(%0, %param_2_train) /* ty=Tensor[(1, 64, 25, 5), float32] */;
  %2 = reshape(%1, newshape=[0, 8, -1]) /* ty=Tensor[(1, 8, 1000), float32] */;
  %3 = nn.instance_norm(%2, %param_3_train, %param_4_train) /* ty=Tensor[(1, 8, 1000), float32] */;
  %4 = reshape(%3, newshape=[1, 64, 25, 5]) /* ty=Tensor[(1, 64, 25, 5), float32] */;
  %5 = multiply(%4, %param_5_train) /* ty=Tensor[(1, 64, 25, 5), float32] */;
  %6 = add(%5, %param_6_train) /* ty=Tensor[(1, 64, 25, 5), float32] */;
  %7 = nn.relu(%6) /* ty=Tensor[(1, 64, 25, 5), float32] */;
  %8 = nn.dropout(%7, rate=0.2f) /* ty=(Tensor[(1, 64, 25, 5), float32], Tensor[(1, 64, 25, 5), float32]) */;
  %9 = %8.0;
  %10 = nn.conv2d(%9, %param_7_train, padding=[1, 1, 1, 1], groups=64, channels=64, kernel_size=[3, 3]) /* ty=Tensor[(1, 64, 25, 5), float32] */;
  %11 = nn.bias_add(%10, %param_8_train) /* ty=Tensor[(1, 64, 25, 5), float32] */;
  %12 = reshape(%11, newshape=[0, 8, -1]) /* ty=Tensor[(1, 8, 1000), float32] */;
  %13 = nn.instance_norm(%12, %param_9_train, %param_10_train) /* ty=Tensor[(1, 8, 1000), float32] */;
  %14 = reshape(%13, newshape=[1, 64, 25, 5]) /* ty=Tensor[(1, 64, 25, 5), float32] */;
  %15 = multiply(%14, %param_11_train) /* ty=Tensor[(1, 64, 25, 5), float32] */;
  %16 = add(%15, %param_12_train) /* ty=Tensor[(1, 64, 25, 5), float32] */;
  %17 = nn.relu(%16) /* ty=Tensor[(1, 64, 25, 5), float32] */;
  %18 = nn.conv2d(%17, %param_13_train, padding=[0, 0, 0, 0], channels=64, kernel_size=[1, 1]) /* ty=Tensor[(1, 64, 25, 5), float32] */;
  %19 = nn.bias_add(%18, %param_14_train) /* ty=Tensor[(1, 64, 25, 5), float32] */;
  %20 = reshape(%19, newshape=[0, 8, -1]) /* ty=Tensor[(1, 8, 1000), float32] */;
  %21 = nn.instance_norm(%20, %param_15_train, %param_16_train) /* ty=Tensor[(1, 8, 1000), float32] */;
  %22 = reshape(%21, newshape=[1, 64, 25, 5]) /* ty=Tensor[(1, 64, 25, 5), float32] */;
  %23 = multiply(%22, %param_17_train) /* ty=Tensor[(1, 64, 25, 5), float32] */;
  %24 = add(%23, %param_18_train) /* ty=Tensor[(1, 64, 25, 5), float32] */;
  %25 = nn.relu(%24) /* ty=Tensor[(1, 64, 25, 5), float32] */;
  %26 = nn.conv2d(%25, %param_19_train, padding=[1, 1, 1, 1], groups=64, channels=64, kernel_size=[3, 3]) /* ty=Tensor[(1, 64, 25, 5), float32] */;
  %27 = nn.bias_add(%26, %param_20_train) /* ty=Tensor[(1, 64, 25, 5), float32] */;
  %28 = reshape(%27, newshape=[0, 8, -1]) /* ty=Tensor[(1, 8, 1000), float32] */;
  %29 = nn.instance_norm(%28, %param_21_train, %param_22_train) /* ty=Tensor[(1, 8, 1000), float32] */;
  %30 = reshape(%29, newshape=[1, 64, 25, 5]) /* ty=Tensor[(1, 64, 25, 5), float32] */;
  %31 = multiply(%30, %param_23_train) /* ty=Tensor[(1, 64, 25, 5), float32] */;
  %32 = add(%31, %param_24_train) /* ty=Tensor[(1, 64, 25, 5), float32] */;
  %33 = nn.relu(%32) /* ty=Tensor[(1, 64, 25, 5), float32] */;
  %34 = nn.conv2d(%33, %param_25_train, padding=[0, 0, 0, 0], channels=64, kernel_size=[1, 1]) /* ty=Tensor[(1, 64, 25, 5), float32] */;
  %35 = nn.bias_add(%34, %param_26_train) /* ty=Tensor[(1, 64, 25, 5), float32] */;
  %36 = reshape(%35, newshape=[0, 8, -1]) /* ty=Tensor[(1, 8, 1000), float32] */;
  %37 = nn.instance_norm(%36, %param_27_train, %param_28_train) /* ty=Tensor[(1, 8, 1000), float32] */;
  %38 = reshape(%37, newshape=[1, 64, 25, 5]) /* ty=Tensor[(1, 64, 25, 5), float32] */;
  %39 = multiply(%38, %param_29_train) /* ty=Tensor[(1, 64, 25, 5), float32] */;
  %40 = add(%39, %param_30_train) /* ty=Tensor[(1, 64, 25, 5), float32] */;
  %41 = nn.relu(%40) /* ty=Tensor[(1, 64, 25, 5), float32] */;
  %42 = nn.conv2d(%41, %param_31_train, padding=[1, 1, 1, 1], groups=64, channels=64, kernel_size=[3, 3]) /* ty=Tensor[(1, 64, 25, 5), float32] */;
  %43 = nn.bias_add(%42, %param_32_train) /* ty=Tensor[(1, 64, 25, 5), float32] */;
  %44 = reshape(%43, newshape=[0, 8, -1]) /* ty=Tensor[(1, 8, 1000), float32] */;
  %45 = nn.instance_norm(%44, %param_33_train, %param_34_train) /* ty=Tensor[(1, 8, 1000), float32] */;
  %46 = reshape(%45, newshape=[1, 64, 25, 5]) /* ty=Tensor[(1, 64, 25, 5), float32] */;
  %47 = multiply(%46, %param_35_train) /* ty=Tensor[(1, 64, 25, 5), float32] */;
  %48 = add(%47, %param_36_train) /* ty=Tensor[(1, 64, 25, 5), float32] */;
  %49 = nn.relu(%48) /* ty=Tensor[(1, 64, 25, 5), float32] */;
  %50 = nn.conv2d(%49, %param_37_train, padding=[0, 0, 0, 0], channels=64, kernel_size=[1, 1]) /* ty=Tensor[(1, 64, 25, 5), float32] */;
  %51 = nn.bias_add(%50, %param_38_train) /* ty=Tensor[(1, 64, 25, 5), float32] */;
  %52 = reshape(%51, newshape=[0, 8, -1]) /* ty=Tensor[(1, 8, 1000), float32] */;
  %53 = nn.instance_norm(%52, %param_39_train, %param_40_train) /* ty=Tensor[(1, 8, 1000), float32] */;
  %54 = reshape(%53, newshape=[1, 64, 25, 5]) /* ty=Tensor[(1, 64, 25, 5), float32] */;
  %55 = multiply(%54, %param_41_train) /* ty=Tensor[(1, 64, 25, 5), float32] */;
  %56 = add(%55, %param_42_train) /* ty=Tensor[(1, 64, 25, 5), float32] */;
  %57 = nn.relu(%56) /* ty=Tensor[(1, 64, 25, 5), float32] */;
  %58 = nn.conv2d(%57, %param_43_train, padding=[1, 1, 1, 1], groups=64, channels=64, kernel_size=[3, 3]) /* ty=Tensor[(1, 64, 25, 5), float32] */;
  %59 = nn.bias_add(%58, %param_44_train) /* ty=Tensor[(1, 64, 25, 5), float32] */;
  %60 = reshape(%59, newshape=[0, 8, -1]) /* ty=Tensor[(1, 8, 1000), float32] */;
  %61 = nn.instance_norm(%60, %param_45_train, %param_46_train) /* ty=Tensor[(1, 8, 1000), float32] */;
  %62 = reshape(%61, newshape=[1, 64, 25, 5]) /* ty=Tensor[(1, 64, 25, 5), float32] */;
  %63 = multiply(%62, %param_47_train) /* ty=Tensor[(1, 64, 25, 5), float32] */;
  %64 = add(%63, %param_48_train) /* ty=Tensor[(1, 64, 25, 5), float32] */;
  %65 = nn.relu(%64) /* ty=Tensor[(1, 64, 25, 5), float32] */;
  %66 = nn.conv2d(%65, %param_49_train, padding=[0, 0, 0, 0], channels=64, kernel_size=[1, 1]) /* ty=Tensor[(1, 64, 25, 5), float32] */;
  %67 = nn.bias_add(%66, %param_50_train) /* ty=Tensor[(1, 64, 25, 5), float32] */;
  %68 = reshape(%67, newshape=[0, 8, -1]) /* ty=Tensor[(1, 8, 1000), float32] */;
  %69 = nn.instance_norm(%68, %param_51_train, %param_52_train) /* ty=Tensor[(1, 8, 1000), float32] */;
  %70 = reshape(%69, newshape=[1, 64, 25, 5]) /* ty=Tensor[(1, 64, 25, 5), float32] */;
  %71 = multiply(%70, %param_53_train) /* ty=Tensor[(1, 64, 25, 5), float32] */;
  %72 = add(%71, %param_54_train) /* ty=Tensor[(1, 64, 25, 5), float32] */;
  %73 = nn.relu(%72) /* ty=Tensor[(1, 64, 25, 5), float32] */;
  %74 = nn.dropout(%73, rate=0.4f) /* ty=(Tensor[(1, 64, 25, 5), float32], Tensor[(1, 64, 25, 5), float32]) */;
  %75 = %74.0;
  %76 = nn.pad(%75, 0f /* ty=float32 */, pad_width=[[0, 0], [0, 0], [0, 0], [0, 0]]) /* ty=Tensor[(1, 64, 25, 5), float32] */;
  %77 = nn.avg_pool2d(%76, pool_size=[25, 5], strides=[25, 5], padding=[0, 0, 0, 0]) /* ty=Tensor[(1, 64, 1, 1), float32] */;
  %78 = nn.batch_flatten(%77) /* ty=Tensor[(1, 64), float32] */;
  %79 = nn.dense(%78, %param_55_train, units=12) /* ty=Tensor[(1, 12), float32] */;
  %80 = add(%79, %param_56_train) /* ty=Tensor[(1, 12), float32] */;
  %81 = reshape(%80, newshape=[0, 0]) /* ty=Tensor[(1, 12), float32] */;
  %82 = nn.log_softmax(%81) /* ty=Tensor[(1, 12), float32] */;
  %83 = nn.cross_entropy_with_logits(%82, %label) /* ty=float32 */;
  %84 = copy(%data_0) /* ty=Tensor[(1, 1, 49, 10), float32] */;
  (%83, %82, %82, %78, %77, %76, %73, %72, %70, %68, %65, %64, %62, %60, %57, %56, %54, %52, %49, %48, %46, %44, %41, %40, %38, %36, %33, %32, %30, %28, %25, %24, %22, %20, %17, %16, %14, %12, %9, %7, %6, %4, %2, %84)
}
