def @main(%nn_cross_entropy_with_logits_0_pred: Tensor[(1, 12), float32], %nn_log_softmax_1_y: Tensor[(1, 12), float32], %nn_dense_5_x: Tensor[(1, 64), float32], %nn_batch_flatten_6_x: Tensor[(1, 64, 1, 1), float32], %nn_avg_pool2d_7_x: Tensor[(1, 64, 25, 5), float32], %nn_relu_10_x: Tensor[(1, 64, 25, 5), float32], %multiply_12_x: Tensor[(1, 64, 25, 5), float32], %nn_instance_norm_14_x: Tensor[(1, 8, 1000), float32], %nn_conv2d_17_x: Tensor[(1, 64, 25, 5), float32], %nn_relu_18_x: Tensor[(1, 64, 25, 5), float32], %multiply_20_x: Tensor[(1, 64, 25, 5), float32], %nn_instance_norm_22_x: Tensor[(1, 8, 1000), float32], %nn_conv2d_25_x: Tensor[(1, 64, 25, 5), float32], %nn_relu_26_x: Tensor[(1, 64, 25, 5), float32], %multiply_28_x: Tensor[(1, 64, 25, 5), float32], %nn_instance_norm_30_x: Tensor[(1, 8, 1000), float32], %nn_conv2d_33_x: Tensor[(1, 64, 25, 5), float32], %nn_relu_34_x: Tensor[(1, 64, 25, 5), float32], %multiply_36_x: Tensor[(1, 64, 25, 5), float32], %nn_instance_norm_38_x: Tensor[(1, 8, 1000), float32], %nn_conv2d_41_x: Tensor[(1, 64, 25, 5), float32], %nn_relu_42_x: Tensor[(1, 64, 25, 5), float32], %multiply_44_x: Tensor[(1, 64, 25, 5), float32], %nn_instance_norm_46_x: Tensor[(1, 8, 1000), float32], %nn_conv2d_49_x: Tensor[(1, 64, 25, 5), float32], %nn_relu_50_x: Tensor[(1, 64, 25, 5), float32], %multiply_52_x: Tensor[(1, 64, 25, 5), float32], %nn_instance_norm_54_x: Tensor[(1, 8, 1000), float32], %nn_conv2d_57_x: Tensor[(1, 64, 25, 5), float32], %nn_relu_58_x: Tensor[(1, 64, 25, 5), float32], %multiply_60_x: Tensor[(1, 64, 25, 5), float32], %nn_instance_norm_62_x: Tensor[(1, 8, 1000), float32], %nn_conv2d_65_x: Tensor[(1, 64, 25, 5), float32], %nn_relu_66_x: Tensor[(1, 64, 25, 5), float32], %multiply_68_x: Tensor[(1, 64, 25, 5), float32], %nn_instance_norm_70_x: Tensor[(1, 8, 1000), float32], %nn_conv2d_73_x: Tensor[(1, 64, 25, 5), float32], %nn_relu_75_x: Tensor[(1, 64, 25, 5), float32], %multiply_77_x: Tensor[(1, 64, 25, 5), float32], %nn_instance_norm_79_x: Tensor[(1, 8, 1000), float32], %nn_conv2d_82_x: Tensor[(1, 1, 49, 10), float32], %data_0: Tensor[(1, 1, 49, 10), float32], %param1_weight: Tensor[(64, 1, 10, 4), float32], %param2_bias: Tensor[(64), float32], %param3_bias: Tensor[(8), float32], %param4_bias: Tensor[(8), float32], %param5_weight: Tensor[(64, 1, 1), float32], %param6_weight: Tensor[(64, 1, 1), float32], %param7_weight: Tensor[(64, 1, 3, 3), float32], %param8_bias: Tensor[(64), float32], %param9_bias: Tensor[(8), float32], %param10_bias: Tensor[(8), float32], %param11_weight: Tensor[(64, 1, 1), float32], %param12_weight: Tensor[(64, 1, 1), float32], %param13_weight: Tensor[(64, 64, 1, 1), float32], %param14_bias: Tensor[(64), float32], %param15_bias: Tensor[(8), float32], %param16_bias: Tensor[(8), float32], %param17_weight: Tensor[(64, 1, 1), float32], %param18_weight: Tensor[(64, 1, 1), float32], %param19_weight: Tensor[(64, 1, 3, 3), float32], %param20_bias: Tensor[(64), float32], %param21_bias: Tensor[(8), float32], %param22_bias: Tensor[(8), float32], %param23_weight: Tensor[(64, 1, 1), float32], %param24_weight: Tensor[(64, 1, 1), float32], %param25_weight: Tensor[(64, 64, 1, 1), float32], %param26_bias: Tensor[(64), float32], %param27_bias: Tensor[(8), float32], %param28_bias: Tensor[(8), float32], %param29_weight: Tensor[(64, 1, 1), float32], %param30_weight: Tensor[(64, 1, 1), float32], %param31_weight: Tensor[(64, 1, 3, 3), float32], %param32_bias: Tensor[(64), float32], %param33_bias: Tensor[(8), float32], %param34_bias: Tensor[(8), float32], %param35_weight: Tensor[(64, 1, 1), float32], %param36_weight: Tensor[(64, 1, 1), float32], %param37_weight: Tensor[(64, 64, 1, 1), float32], %param38_bias: Tensor[(64), float32], %param39_bias: Tensor[(8), float32], %param40_bias: Tensor[(8), float32], %param41_weight: Tensor[(64, 1, 1), float32], %param42_weight: Tensor[(64, 1, 1), float32], %param43_weight: Tensor[(64, 1, 3, 3), float32], %param44_bias: Tensor[(64), float32], %param45_bias: Tensor[(8), float32], %param46_bias: Tensor[(8), float32], %param47_weight: Tensor[(64, 1, 1), float32], %param48_weight: Tensor[(64, 1, 1), float32], %param49_weight: Tensor[(64, 64, 1, 1), float32], %param50_bias: Tensor[(64), float32], %param51_bias: Tensor[(8), float32], %param52_bias: Tensor[(8), float32], %param53_weight: Tensor[(64, 1, 1), float32], %param54_weight: Tensor[(64, 1, 1), float32], %param55_weight: Tensor[(12, 64), float32], %param56_bias: Tensor[(12), float32], %label: Tensor[(1, 12), float32]) -> (Tensor[(1, 12), float32], Tensor[(12, 64), float32], Tensor[(1, 64, 25, 5), float32], Tensor[(1, 64, 25, 5), float32], Tensor[(8), float32], Tensor[(8), float32], Tensor[(64), float32], Tensor[(64, 64, 1, 1), float32], Tensor[(1, 64, 25, 5), float32], Tensor[(1, 64, 25, 5), float32], Tensor[(8), float32], Tensor[(8), float32], Tensor[(64), float32], Tensor[(64, 1, 3, 3), float32], Tensor[(1, 64, 25, 5), float32], Tensor[(1, 64, 25, 5), float32], Tensor[(8), float32], Tensor[(8), float32], Tensor[(64), float32], Tensor[(64, 64, 1, 1), float32], Tensor[(1, 64, 25, 5), float32], Tensor[(1, 64, 25, 5), float32], Tensor[(8), float32], Tensor[(8), float32], Tensor[(64), float32], Tensor[(64, 1, 3, 3), float32], Tensor[(1, 64, 25, 5), float32], Tensor[(1, 64, 25, 5), float32], Tensor[(8), float32], Tensor[(8), float32], Tensor[(64), float32], Tensor[(64, 64, 1, 1), float32], Tensor[(1, 64, 25, 5), float32], Tensor[(1, 64, 25, 5), float32], Tensor[(8), float32], Tensor[(8), float32], Tensor[(64), float32], Tensor[(64, 1, 3, 3), float32], Tensor[(1, 64, 25, 5), float32], Tensor[(1, 64, 25, 5), float32], Tensor[(8), float32], Tensor[(8), float32], Tensor[(64), float32], Tensor[(64, 64, 1, 1), float32], Tensor[(1, 64, 25, 5), float32], Tensor[(1, 64, 25, 5), float32], Tensor[(8), float32], Tensor[(8), float32], Tensor[(64), float32], Tensor[(64, 1, 3, 3), float32], Tensor[(1, 64, 25, 5), float32], Tensor[(1, 64, 25, 5), float32], Tensor[(8), float32], Tensor[(8), float32], Tensor[(64), float32], Tensor[(64, 1, 10, 4), float32]) {
  %0 = ones(shape=[], dtype="float32") /* ty=float32 */;
  %1 = negative(%0) /* ty=float32 */;
  %2 = multiply(%1, %label) /* ty=Tensor[(1, 12), float32] */;
  %3 = sum(%2, axis=[-1], keepdims=True) /* ty=Tensor[(1, 1), float32] */;
  %4 = exp(%nn_log_softmax_1_y) /* ty=Tensor[(1, 12), float32] */;
  %5 = multiply(%3, %4) /* ty=Tensor[(1, 12), float32] */;
  %6 = subtract(%2, %5) /* ty=Tensor[(1, 12), float32] */;
  %7 = reshape(%6, newshape=[1, 12]) /* ty=Tensor[(1, 12), float32] */;
  %8 = transpose(%7, axes=None) /* ty=Tensor[(12, 1), float32] */;
  %9 = zeros(shape=[1, 64, 25, 5], dtype="float32") /* ty=Tensor[(1, 64, 25, 5), float32] */;
  %10 = nn.matmul(%7, %param55_weight, units=None) /* ty=Tensor[(1, 64), float32] */;
  %11 = reshape(%10, newshape=[1, 64, 1, 1]) /* ty=Tensor[(1, 64, 1, 1), float32] */;
  %12 = nn.avg_pool2d_grad(%11, %nn_avg_pool2d_7_x, pool_size=[25, 5], strides=[25, 5], dilation=[], padding=[0, 0, 0, 0]) /* ty=Tensor[(1, 64, 25, 5), float32] */;
  %13 = less(%nn_relu_10_x, %9) /* ty=Tensor[(1, 64, 25, 5), bool] */;
  %14 = strided_slice(%12, begin=[0, 0, 0, 0], end=[None, None, None, None], strides=[1], axes=None) /* ty=Tensor[(1, 64, 25, 5), float32] */;
  %15 = where(%13, %9, %14) /* ty=Tensor[(1, 64, 25, 5), float32] */;
  %16 = multiply(%15, %param53_weight) /* ty=Tensor[(1, 64, 25, 5), float32] */;
  %17 = reshape(%16, newshape=[1, 64, 25, 5]) /* ty=Tensor[(1, 64, 25, 5), float32] */;
  %18 = tile(%17, reps=[1, 64, 1, 1]) /* ty=Tensor[(1, 4096, 25, 5), float32] */;
  %19 = reshape(%nn_conv2d_17_x, newshape=[1, -1, 0, 0]) /* ty=Tensor[(1, 64, 25, 5), float32] */;
  %20 = reshape(%18, newshape=[-1, 1, 0, 0]) /* ty=Tensor[(4096, 1, 25, 5), float32] */;
  %21 = nn.conv2d(%19, %20, padding=[0, 0, 0, 0], groups=64, channels=4096, kernel_size=[25, 5]) /* ty=Tensor[(1, 4096, 1, 1), float32] */;
  %22 = reshape(%21, newshape=[1, 64, 64, 1, 1]) /* ty=Tensor[(1, 64, 64, 1, 1), float32] */;
  %23 = sum(%22, axis=[0]) /* ty=Tensor[(64, 64, 1, 1), float32] */;
  %24 = zeros(shape=[1, 64, 25, 5], dtype="float32") /* ty=Tensor[(1, 64, 25, 5), float32] */;
  %25 = less(%nn_relu_18_x, %24) /* ty=Tensor[(1, 64, 25, 5), bool] */;
  %26 = nn.conv2d_transpose(%17, %param49_weight, channels=64, kernel_size=[1, 1], padding=[0, 0, 0, 0], kernel_layout="IOHW") /* ty=Tensor[(1, 64, 25, 5), float32] */;
  %27 = where(%25, %24, %26) /* ty=Tensor[(1, 64, 25, 5), float32] */;
  %28 = multiply(%27, %param47_weight) /* ty=Tensor[(1, 64, 25, 5), float32] */;
  %29 = reshape(%28, newshape=[1, 64, 25, 5]) /* ty=Tensor[(1, 64, 25, 5), float32] */;
  %30 = tile(%29, reps=[1, 1, 1, 1]) /* ty=Tensor[(1, 64, 25, 5), float32] */;
  %31 = reshape(%nn_conv2d_25_x, newshape=[1, -1, 0, 0]) /* ty=Tensor[(1, 64, 25, 5), float32] */;
  %32 = reshape(%30, newshape=[-1, 1, 0, 0]) /* ty=Tensor[(64, 1, 25, 5), float32] */;
  %33 = nn.conv2d(%31, %32, padding=[1, 1, 1, 1], groups=64, channels=64, kernel_size=[25, 5]) /* ty=Tensor[(1, 64, 3, 3), float32] */;
  %34 = reshape(%33, newshape=[1, 1, 64, 3, 3]) /* ty=Tensor[(1, 1, 64, 3, 3), float32] */;
  %35 = sum(%34, axis=[0]) /* ty=Tensor[(1, 64, 3, 3), float32] */;
  %36 = zeros(shape=[1, 64, 25, 5], dtype="float32") /* ty=Tensor[(1, 64, 25, 5), float32] */;
  %37 = less(%nn_relu_26_x, %36) /* ty=Tensor[(1, 64, 25, 5), bool] */;
  %38 = nn.conv2d_transpose(%29, %param43_weight, channels=64, kernel_size=[3, 3], padding=[1, 1, 1, 1], groups=64, kernel_layout="IOHW") /* ty=Tensor[(1, 64, 25, 5), float32] */;
  %39 = where(%37, %36, %38) /* ty=Tensor[(1, 64, 25, 5), float32] */;
  %40 = multiply(%39, %param41_weight) /* ty=Tensor[(1, 64, 25, 5), float32] */;
  %41 = reshape(%40, newshape=[1, 64, 25, 5]) /* ty=Tensor[(1, 64, 25, 5), float32] */;
  %42 = tile(%41, reps=[1, 64, 1, 1]) /* ty=Tensor[(1, 4096, 25, 5), float32] */;
  %43 = reshape(%nn_conv2d_33_x, newshape=[1, -1, 0, 0]) /* ty=Tensor[(1, 64, 25, 5), float32] */;
  %44 = reshape(%42, newshape=[-1, 1, 0, 0]) /* ty=Tensor[(4096, 1, 25, 5), float32] */;
  %45 = nn.conv2d(%43, %44, padding=[0, 0, 0, 0], groups=64, channels=4096, kernel_size=[25, 5]) /* ty=Tensor[(1, 4096, 1, 1), float32] */;
  %46 = reshape(%45, newshape=[1, 64, 64, 1, 1]) /* ty=Tensor[(1, 64, 64, 1, 1), float32] */;
  %47 = sum(%46, axis=[0]) /* ty=Tensor[(64, 64, 1, 1), float32] */;
  %48 = zeros(shape=[1, 64, 25, 5], dtype="float32") /* ty=Tensor[(1, 64, 25, 5), float32] */;
  %49 = less(%nn_relu_34_x, %48) /* ty=Tensor[(1, 64, 25, 5), bool] */;
  %50 = nn.conv2d_transpose(%41, %param37_weight, channels=64, kernel_size=[1, 1], padding=[0, 0, 0, 0], kernel_layout="IOHW") /* ty=Tensor[(1, 64, 25, 5), float32] */;
  %51 = where(%49, %48, %50) /* ty=Tensor[(1, 64, 25, 5), float32] */;
  %52 = multiply(%51, %param35_weight) /* ty=Tensor[(1, 64, 25, 5), float32] */;
  %53 = reshape(%52, newshape=[1, 64, 25, 5]) /* ty=Tensor[(1, 64, 25, 5), float32] */;
  %54 = tile(%53, reps=[1, 1, 1, 1]) /* ty=Tensor[(1, 64, 25, 5), float32] */;
  %55 = reshape(%nn_conv2d_41_x, newshape=[1, -1, 0, 0]) /* ty=Tensor[(1, 64, 25, 5), float32] */;
  %56 = reshape(%54, newshape=[-1, 1, 0, 0]) /* ty=Tensor[(64, 1, 25, 5), float32] */;
  %57 = nn.conv2d(%55, %56, padding=[1, 1, 1, 1], groups=64, channels=64, kernel_size=[25, 5]) /* ty=Tensor[(1, 64, 3, 3), float32] */;
  %58 = reshape(%57, newshape=[1, 1, 64, 3, 3]) /* ty=Tensor[(1, 1, 64, 3, 3), float32] */;
  %59 = sum(%58, axis=[0]) /* ty=Tensor[(1, 64, 3, 3), float32] */;
  %60 = zeros(shape=[1, 64, 25, 5], dtype="float32") /* ty=Tensor[(1, 64, 25, 5), float32] */;
  %61 = less(%nn_relu_42_x, %60) /* ty=Tensor[(1, 64, 25, 5), bool] */;
  %62 = nn.conv2d_transpose(%53, %param31_weight, channels=64, kernel_size=[3, 3], padding=[1, 1, 1, 1], groups=64, kernel_layout="IOHW") /* ty=Tensor[(1, 64, 25, 5), float32] */;
  %63 = where(%61, %60, %62) /* ty=Tensor[(1, 64, 25, 5), float32] */;
  %64 = multiply(%63, %param29_weight) /* ty=Tensor[(1, 64, 25, 5), float32] */;
  %65 = reshape(%64, newshape=[1, 64, 25, 5]) /* ty=Tensor[(1, 64, 25, 5), float32] */;
  %66 = tile(%65, reps=[1, 64, 1, 1]) /* ty=Tensor[(1, 4096, 25, 5), float32] */;
  %67 = reshape(%nn_conv2d_49_x, newshape=[1, -1, 0, 0]) /* ty=Tensor[(1, 64, 25, 5), float32] */;
  %68 = reshape(%66, newshape=[-1, 1, 0, 0]) /* ty=Tensor[(4096, 1, 25, 5), float32] */;
  %69 = nn.conv2d(%67, %68, padding=[0, 0, 0, 0], groups=64, channels=4096, kernel_size=[25, 5]) /* ty=Tensor[(1, 4096, 1, 1), float32] */;
  %70 = reshape(%69, newshape=[1, 64, 64, 1, 1]) /* ty=Tensor[(1, 64, 64, 1, 1), float32] */;
  %71 = sum(%70, axis=[0]) /* ty=Tensor[(64, 64, 1, 1), float32] */;
  %72 = zeros(shape=[1, 64, 25, 5], dtype="float32") /* ty=Tensor[(1, 64, 25, 5), float32] */;
  %73 = less(%nn_relu_50_x, %72) /* ty=Tensor[(1, 64, 25, 5), bool] */;
  %74 = nn.conv2d_transpose(%65, %param25_weight, channels=64, kernel_size=[1, 1], padding=[0, 0, 0, 0], kernel_layout="IOHW") /* ty=Tensor[(1, 64, 25, 5), float32] */;
  %75 = where(%73, %72, %74) /* ty=Tensor[(1, 64, 25, 5), float32] */;
  %76 = multiply(%75, %param23_weight) /* ty=Tensor[(1, 64, 25, 5), float32] */;
  %77 = reshape(%76, newshape=[1, 64, 25, 5]) /* ty=Tensor[(1, 64, 25, 5), float32] */;
  %78 = tile(%77, reps=[1, 1, 1, 1]) /* ty=Tensor[(1, 64, 25, 5), float32] */;
  %79 = reshape(%nn_conv2d_57_x, newshape=[1, -1, 0, 0]) /* ty=Tensor[(1, 64, 25, 5), float32] */;
  %80 = reshape(%78, newshape=[-1, 1, 0, 0]) /* ty=Tensor[(64, 1, 25, 5), float32] */;
  %81 = nn.conv2d(%79, %80, padding=[1, 1, 1, 1], groups=64, channels=64, kernel_size=[25, 5]) /* ty=Tensor[(1, 64, 3, 3), float32] */;
  %82 = reshape(%81, newshape=[1, 1, 64, 3, 3]) /* ty=Tensor[(1, 1, 64, 3, 3), float32] */;
  %83 = sum(%82, axis=[0]) /* ty=Tensor[(1, 64, 3, 3), float32] */;
  %84 = zeros(shape=[1, 64, 25, 5], dtype="float32") /* ty=Tensor[(1, 64, 25, 5), float32] */;
  %85 = less(%nn_relu_58_x, %84) /* ty=Tensor[(1, 64, 25, 5), bool] */;
  %86 = nn.conv2d_transpose(%77, %param19_weight, channels=64, kernel_size=[3, 3], padding=[1, 1, 1, 1], groups=64, kernel_layout="IOHW") /* ty=Tensor[(1, 64, 25, 5), float32] */;
  %87 = where(%85, %84, %86) /* ty=Tensor[(1, 64, 25, 5), float32] */;
  %88 = multiply(%87, %param17_weight) /* ty=Tensor[(1, 64, 25, 5), float32] */;
  %89 = reshape(%88, newshape=[1, 64, 25, 5]) /* ty=Tensor[(1, 64, 25, 5), float32] */;
  %90 = tile(%89, reps=[1, 64, 1, 1]) /* ty=Tensor[(1, 4096, 25, 5), float32] */;
  %91 = reshape(%nn_conv2d_65_x, newshape=[1, -1, 0, 0]) /* ty=Tensor[(1, 64, 25, 5), float32] */;
  %92 = reshape(%90, newshape=[-1, 1, 0, 0]) /* ty=Tensor[(4096, 1, 25, 5), float32] */;
  %93 = nn.conv2d(%91, %92, padding=[0, 0, 0, 0], groups=64, channels=4096, kernel_size=[25, 5]) /* ty=Tensor[(1, 4096, 1, 1), float32] */;
  %94 = reshape(%93, newshape=[1, 64, 64, 1, 1]) /* ty=Tensor[(1, 64, 64, 1, 1), float32] */;
  %95 = sum(%94, axis=[0]) /* ty=Tensor[(64, 64, 1, 1), float32] */;
  %96 = zeros(shape=[1, 64, 25, 5], dtype="float32") /* ty=Tensor[(1, 64, 25, 5), float32] */;
  %97 = less(%nn_relu_66_x, %96) /* ty=Tensor[(1, 64, 25, 5), bool] */;
  %98 = nn.conv2d_transpose(%89, %param13_weight, channels=64, kernel_size=[1, 1], padding=[0, 0, 0, 0], kernel_layout="IOHW") /* ty=Tensor[(1, 64, 25, 5), float32] */;
  %99 = where(%97, %96, %98) /* ty=Tensor[(1, 64, 25, 5), float32] */;
  %100 = multiply(%99, %param11_weight) /* ty=Tensor[(1, 64, 25, 5), float32] */;
  %101 = reshape(%100, newshape=[1, 64, 25, 5]) /* ty=Tensor[(1, 64, 25, 5), float32] */;
  %102 = tile(%101, reps=[1, 1, 1, 1]) /* ty=Tensor[(1, 64, 25, 5), float32] */;
  %103 = reshape(%nn_conv2d_73_x, newshape=[1, -1, 0, 0]) /* ty=Tensor[(1, 64, 25, 5), float32] */;
  %104 = reshape(%102, newshape=[-1, 1, 0, 0]) /* ty=Tensor[(64, 1, 25, 5), float32] */;
  %105 = nn.conv2d(%103, %104, padding=[1, 1, 1, 1], groups=64, channels=64, kernel_size=[25, 5]) /* ty=Tensor[(1, 64, 3, 3), float32] */;
  %106 = reshape(%105, newshape=[1, 1, 64, 3, 3]) /* ty=Tensor[(1, 1, 64, 3, 3), float32] */;
  %107 = sum(%106, axis=[0]) /* ty=Tensor[(1, 64, 3, 3), float32] */;
  %108 = zeros(shape=[1, 64, 25, 5], dtype="float32") /* ty=Tensor[(1, 64, 25, 5), float32] */;
  %109 = less(%nn_relu_75_x, %108) /* ty=Tensor[(1, 64, 25, 5), bool] */;
  %110 = nn.conv2d_transpose(%101, %param7_weight, channels=64, kernel_size=[3, 3], padding=[1, 1, 1, 1], groups=64, kernel_layout="IOHW") /* ty=Tensor[(1, 64, 25, 5), float32] */;
  %111 = where(%109, %108, %110) /* ty=Tensor[(1, 64, 25, 5), float32] */;
  %112 = multiply(%111, %param5_weight) /* ty=Tensor[(1, 64, 25, 5), float32] */;
  %113 = reshape(%112, newshape=[1, 64, 25, 5]) /* ty=Tensor[(1, 64, 25, 5), float32] */;
  %114 = tile(%113, reps=[1, 1, 1, 1]) /* ty=Tensor[(1, 64, 25, 5), float32] */;
  %115 = reshape(%nn_conv2d_82_x, newshape=[1, -1, 0, 0]) /* ty=Tensor[(1, 1, 49, 10), float32] */;
  %116 = reshape(%114, newshape=[-1, 1, 0, 0]) /* ty=Tensor[(64, 1, 25, 5), float32] */;
  %117 = nn.conv2d(%115, %116, padding=[5, 1, 5, 1], dilation=[2, 2], channels=64, kernel_size=[25, 5]) /* ty=Tensor[(1, 64, 11, 4), float32] */;
  %118 = reshape(%117, newshape=[1, 1, 64, 11, 4]) /* ty=Tensor[(1, 1, 64, 11, 4), float32] */;
  %119 = sum(%118, axis=[0]) /* ty=Tensor[(1, 64, 11, 4), float32] */;
  %120 = transpose(%119, axes=[1, 0, 2, 3]) /* ty=Tensor[(64, 1, 11, 4), float32] */;
  %121 = nn.matmul(%8, %nn_dense_5_x, units=None) /* ty=Tensor[(12, 64), float32] */;
  %122 = multiply(%15, %multiply_12_x) /* ty=Tensor[(1, 64, 25, 5), float32] */;
  %123 = zeros(shape=[8], dtype="float32") /* ty=Tensor[(8), float32] */;
  %124 = zeros(shape=[8], dtype="float32") /* ty=Tensor[(8), float32] */;
  %125 = sum(%17, axis=[1], exclude=True) /* ty=Tensor[(64), float32] */;
  %126 = transpose(%23, axes=[1, 0, 2, 3]) /* ty=Tensor[(64, 64, 1, 1), float32] */;
  %127 = multiply(%27, %multiply_20_x) /* ty=Tensor[(1, 64, 25, 5), float32] */;
  %128 = zeros(shape=[8], dtype="float32") /* ty=Tensor[(8), float32] */;
  %129 = zeros(shape=[8], dtype="float32") /* ty=Tensor[(8), float32] */;
  %130 = sum(%29, axis=[1], exclude=True) /* ty=Tensor[(64), float32] */;
  %131 = transpose(%35, axes=[1, 0, 2, 3]) /* ty=Tensor[(64, 1, 3, 3), float32] */;
  %132 = multiply(%39, %multiply_28_x) /* ty=Tensor[(1, 64, 25, 5), float32] */;
  %133 = zeros(shape=[8], dtype="float32") /* ty=Tensor[(8), float32] */;
  %134 = zeros(shape=[8], dtype="float32") /* ty=Tensor[(8), float32] */;
  %135 = sum(%41, axis=[1], exclude=True) /* ty=Tensor[(64), float32] */;
  %136 = transpose(%47, axes=[1, 0, 2, 3]) /* ty=Tensor[(64, 64, 1, 1), float32] */;
  %137 = multiply(%51, %multiply_36_x) /* ty=Tensor[(1, 64, 25, 5), float32] */;
  %138 = zeros(shape=[8], dtype="float32") /* ty=Tensor[(8), float32] */;
  %139 = zeros(shape=[8], dtype="float32") /* ty=Tensor[(8), float32] */;
  %140 = sum(%53, axis=[1], exclude=True) /* ty=Tensor[(64), float32] */;
  %141 = transpose(%59, axes=[1, 0, 2, 3]) /* ty=Tensor[(64, 1, 3, 3), float32] */;
  %142 = multiply(%63, %multiply_44_x) /* ty=Tensor[(1, 64, 25, 5), float32] */;
  %143 = zeros(shape=[8], dtype="float32") /* ty=Tensor[(8), float32] */;
  %144 = zeros(shape=[8], dtype="float32") /* ty=Tensor[(8), float32] */;
  %145 = sum(%65, axis=[1], exclude=True) /* ty=Tensor[(64), float32] */;
  %146 = transpose(%71, axes=[1, 0, 2, 3]) /* ty=Tensor[(64, 64, 1, 1), float32] */;
  %147 = multiply(%75, %multiply_52_x) /* ty=Tensor[(1, 64, 25, 5), float32] */;
  %148 = zeros(shape=[8], dtype="float32") /* ty=Tensor[(8), float32] */;
  %149 = zeros(shape=[8], dtype="float32") /* ty=Tensor[(8), float32] */;
  %150 = sum(%77, axis=[1], exclude=True) /* ty=Tensor[(64), float32] */;
  %151 = transpose(%83, axes=[1, 0, 2, 3]) /* ty=Tensor[(64, 1, 3, 3), float32] */;
  %152 = multiply(%87, %multiply_60_x) /* ty=Tensor[(1, 64, 25, 5), float32] */;
  %153 = zeros(shape=[8], dtype="float32") /* ty=Tensor[(8), float32] */;
  %154 = zeros(shape=[8], dtype="float32") /* ty=Tensor[(8), float32] */;
  %155 = sum(%89, axis=[1], exclude=True) /* ty=Tensor[(64), float32] */;
  %156 = transpose(%95, axes=[1, 0, 2, 3]) /* ty=Tensor[(64, 64, 1, 1), float32] */;
  %157 = multiply(%99, %multiply_68_x) /* ty=Tensor[(1, 64, 25, 5), float32] */;
  %158 = zeros(shape=[8], dtype="float32") /* ty=Tensor[(8), float32] */;
  %159 = zeros(shape=[8], dtype="float32") /* ty=Tensor[(8), float32] */;
  %160 = sum(%101, axis=[1], exclude=True) /* ty=Tensor[(64), float32] */;
  %161 = transpose(%107, axes=[1, 0, 2, 3]) /* ty=Tensor[(64, 1, 3, 3), float32] */;
  %162 = multiply(%111, %multiply_77_x) /* ty=Tensor[(1, 64, 25, 5), float32] */;
  %163 = zeros(shape=[8], dtype="float32") /* ty=Tensor[(8), float32] */;
  %164 = zeros(shape=[8], dtype="float32") /* ty=Tensor[(8), float32] */;
  %165 = sum(%113, axis=[1], exclude=True) /* ty=Tensor[(64), float32] */;
  %166 = strided_slice(%120, begin=[0, 0, 0, 0], end=[64, 1, 10, 4], strides=[1], axes=None) /* ty=Tensor[(64, 1, 10, 4), float32] */;
  (%7, %121, %15, %122, %123, %124, %125, %126, %27, %127, %128, %129, %130, %131, %39, %132, %133, %134, %135, %136, %51, %137, %138, %139, %140, %141, %63, %142, %143, %144, %145, %146, %75, %147, %148, %149, %150, %151, %87, %152, %153, %154, %155, %156, %99, %157, %158, %159, %160, %161, %111, %162, %163, %164, %165, %166)
}
