def @main(%data_0: Tensor[(1, 1, 49, 10), float32], %param1_weight: Tensor[(64, 1, 10, 4), float32], %param2_bias: Tensor[(64), float32], %param3_bias: Tensor[(8), float32], %param4_bias: Tensor[(8), float32], %param5_weight: Tensor[(64, 1, 1), float32], %param6_weight: Tensor[(64, 1, 1), float32], %param7_weight: Tensor[(64, 1, 3, 3), float32], %param8_bias: Tensor[(64), float32], %param9_bias: Tensor[(8), float32], %param10_bias: Tensor[(8), float32], %param11_weight: Tensor[(64, 1, 1), float32], %param12_weight: Tensor[(64, 1, 1), float32], %param13_weight: Tensor[(64, 64, 1, 1), float32], %param14_bias: Tensor[(64), float32], %param15_bias: Tensor[(8), float32], %param16_bias: Tensor[(8), float32], %param17_weight: Tensor[(64, 1, 1), float32], %param18_weight: Tensor[(64, 1, 1), float32], %param19_weight: Tensor[(64, 1, 3, 3), float32], %param20_bias: Tensor[(64), float32], %param21_bias: Tensor[(8), float32], %param22_bias: Tensor[(8), float32], %param23_weight: Tensor[(64, 1, 1), float32], %param24_weight: Tensor[(64, 1, 1), float32], %param25_weight: Tensor[(64, 64, 1, 1), float32], %param26_bias: Tensor[(64), float32], %param27_bias: Tensor[(8), float32], %param28_bias: Tensor[(8), float32], %param29_weight: Tensor[(64, 1, 1), float32], %param30_weight: Tensor[(64, 1, 1), float32], %param31_weight: Tensor[(64, 1, 3, 3), float32], %param32_bias: Tensor[(64), float32], %param33_bias: Tensor[(8), float32], %param34_bias: Tensor[(8), float32], %param35_weight: Tensor[(64, 1, 1), float32], %param36_weight: Tensor[(64, 1, 1), float32], %param37_weight: Tensor[(64, 64, 1, 1), float32], %param38_bias: Tensor[(64), float32], %param39_bias: Tensor[(8), float32], %param40_bias: Tensor[(8), float32], %param41_weight: Tensor[(64, 1, 1), float32], %param42_weight: Tensor[(64, 1, 1), float32], %param43_weight: Tensor[(64, 1, 3, 3), float32], %param44_bias: Tensor[(64), float32], %param45_bias: Tensor[(8), float32], %param46_bias: Tensor[(8), float32], %param47_weight: Tensor[(64, 1, 1), float32], %param48_weight: Tensor[(64, 1, 1), float32], %param49_weight: Tensor[(64, 64, 1, 1), float32], %param50_bias: Tensor[(64), float32], %param51_bias: Tensor[(8), float32], %param52_bias: Tensor[(8), float32], %param53_weight: Tensor[(64, 1, 1), float32], %param54_weight: Tensor[(64, 1, 1), float32], %param55_weight: Tensor[(12, 64), float32], %param56_bias: Tensor[(12), float32], %label: Tensor[(1, 12), float32]) -> (float32, Tensor[(1, 12), float32], Tensor[(1, 12), float32], Tensor[(1, 64), float32], Tensor[(1, 64, 1, 1), float32], Tensor[(1, 64, 25, 5), float32], Tensor[(1, 64, 25, 5), float32], Tensor[(1, 64, 25, 5), float32], Tensor[(1, 8, 1000), float32], Tensor[(1, 64, 25, 5), float32], Tensor[(1, 64, 25, 5), float32], Tensor[(1, 64, 25, 5), float32], Tensor[(1, 8, 1000), float32], Tensor[(1, 64, 25, 5), float32], Tensor[(1, 64, 25, 5), float32], Tensor[(1, 64, 25, 5), float32], Tensor[(1, 8, 1000), float32], Tensor[(1, 64, 25, 5), float32], Tensor[(1, 64, 25, 5), float32], Tensor[(1, 64, 25, 5), float32], Tensor[(1, 8, 1000), float32], Tensor[(1, 64, 25, 5), float32], Tensor[(1, 64, 25, 5), float32], Tensor[(1, 64, 25, 5), float32], Tensor[(1, 8, 1000), float32], Tensor[(1, 64, 25, 5), float32], Tensor[(1, 64, 25, 5), float32], Tensor[(1, 64, 25, 5), float32], Tensor[(1, 8, 1000), float32], Tensor[(1, 64, 25, 5), float32], Tensor[(1, 64, 25, 5), float32], Tensor[(1, 64, 25, 5), float32], Tensor[(1, 8, 1000), float32], Tensor[(1, 64, 25, 5), float32], Tensor[(1, 64, 25, 5), float32], Tensor[(1, 64, 25, 5), float32], Tensor[(1, 8, 1000), float32], Tensor[(1, 64, 25, 5), float32], Tensor[(1, 64, 25, 5), float32], Tensor[(1, 64, 25, 5), float32], Tensor[(1, 8, 1000), float32], Tensor[(1, 1, 49, 10), float32]) {
  %0 = nn.conv2d(%data_0, %param1_weight, strides=[2, 2], padding=[5, 1, 5, 1], channels=64, kernel_size=[10, 4]) /* ty=Tensor[(1, 64, 25, 5), float32] */;
  %1 = nn.bias_add(%0, %param2_bias) /* ty=Tensor[(1, 64, 25, 5), float32] */;
  %2 = reshape(%1, newshape=[0, 8, -1]) /* ty=Tensor[(1, 8, 1000), float32] */;
  %3 = nn.instance_norm(%2, %param3_bias, %param4_bias) /* ty=Tensor[(1, 8, 1000), float32] */;
  %4 = reshape(%3, newshape=[1, 64, 25, 5]) /* ty=Tensor[(1, 64, 25, 5), float32] */;
  %5 = multiply(%4, %param5_weight) /* ty=Tensor[(1, 64, 25, 5), float32] */;
  %6 = add(%5, %param6_weight) /* ty=Tensor[(1, 64, 25, 5), float32] */;
  %7 = nn.relu(%6) /* ty=Tensor[(1, 64, 25, 5), float32] */;
  %8 = nn.dropout(%7, rate=0.2f) /* ty=(Tensor[(1, 64, 25, 5), float32], Tensor[(1, 64, 25, 5), float32]) */;
  %9 = %8.0;
  %10 = nn.conv2d(%9, %param7_weight, padding=[1, 1, 1, 1], groups=64, channels=64, kernel_size=[3, 3]) /* ty=Tensor[(1, 64, 25, 5), float32] */;
  %11 = nn.bias_add(%10, %param8_bias) /* ty=Tensor[(1, 64, 25, 5), float32] */;
  %12 = reshape(%11, newshape=[0, 8, -1]) /* ty=Tensor[(1, 8, 1000), float32] */;
  %13 = nn.instance_norm(%12, %param9_bias, %param10_bias) /* ty=Tensor[(1, 8, 1000), float32] */;
  %14 = reshape(%13, newshape=[1, 64, 25, 5]) /* ty=Tensor[(1, 64, 25, 5), float32] */;
  %15 = multiply(%14, %param11_weight) /* ty=Tensor[(1, 64, 25, 5), float32] */;
  %16 = add(%15, %param12_weight) /* ty=Tensor[(1, 64, 25, 5), float32] */;
  %17 = nn.relu(%16) /* ty=Tensor[(1, 64, 25, 5), float32] */;
  %18 = nn.conv2d(%17, %param13_weight, padding=[0, 0, 0, 0], channels=64, kernel_size=[1, 1]) /* ty=Tensor[(1, 64, 25, 5), float32] */;
  %19 = nn.bias_add(%18, %param14_bias) /* ty=Tensor[(1, 64, 25, 5), float32] */;
  %20 = reshape(%19, newshape=[0, 8, -1]) /* ty=Tensor[(1, 8, 1000), float32] */;
  %21 = nn.instance_norm(%20, %param15_bias, %param16_bias) /* ty=Tensor[(1, 8, 1000), float32] */;
  %22 = reshape(%21, newshape=[1, 64, 25, 5]) /* ty=Tensor[(1, 64, 25, 5), float32] */;
  %23 = multiply(%22, %param17_weight) /* ty=Tensor[(1, 64, 25, 5), float32] */;
  %24 = add(%23, %param18_weight) /* ty=Tensor[(1, 64, 25, 5), float32] */;
  %25 = nn.relu(%24) /* ty=Tensor[(1, 64, 25, 5), float32] */;
  %26 = nn.conv2d(%25, %param19_weight, padding=[1, 1, 1, 1], groups=64, channels=64, kernel_size=[3, 3]) /* ty=Tensor[(1, 64, 25, 5), float32] */;
  %27 = nn.bias_add(%26, %param20_bias) /* ty=Tensor[(1, 64, 25, 5), float32] */;
  %28 = reshape(%27, newshape=[0, 8, -1]) /* ty=Tensor[(1, 8, 1000), float32] */;
  %29 = nn.instance_norm(%28, %param21_bias, %param22_bias) /* ty=Tensor[(1, 8, 1000), float32] */;
  %30 = reshape(%29, newshape=[1, 64, 25, 5]) /* ty=Tensor[(1, 64, 25, 5), float32] */;
  %31 = multiply(%30, %param23_weight) /* ty=Tensor[(1, 64, 25, 5), float32] */;
  %32 = add(%31, %param24_weight) /* ty=Tensor[(1, 64, 25, 5), float32] */;
  %33 = nn.relu(%32) /* ty=Tensor[(1, 64, 25, 5), float32] */;
  %34 = nn.conv2d(%33, %param25_weight, padding=[0, 0, 0, 0], channels=64, kernel_size=[1, 1]) /* ty=Tensor[(1, 64, 25, 5), float32] */;
  %35 = nn.bias_add(%34, %param26_bias) /* ty=Tensor[(1, 64, 25, 5), float32] */;
  %36 = reshape(%35, newshape=[0, 8, -1]) /* ty=Tensor[(1, 8, 1000), float32] */;
  %37 = nn.instance_norm(%36, %param27_bias, %param28_bias) /* ty=Tensor[(1, 8, 1000), float32] */;
  %38 = reshape(%37, newshape=[1, 64, 25, 5]) /* ty=Tensor[(1, 64, 25, 5), float32] */;
  %39 = multiply(%38, %param29_weight) /* ty=Tensor[(1, 64, 25, 5), float32] */;
  %40 = add(%39, %param30_weight) /* ty=Tensor[(1, 64, 25, 5), float32] */;
  %41 = nn.relu(%40) /* ty=Tensor[(1, 64, 25, 5), float32] */;
  %42 = nn.conv2d(%41, %param31_weight, padding=[1, 1, 1, 1], groups=64, channels=64, kernel_size=[3, 3]) /* ty=Tensor[(1, 64, 25, 5), float32] */;
  %43 = nn.bias_add(%42, %param32_bias) /* ty=Tensor[(1, 64, 25, 5), float32] */;
  %44 = reshape(%43, newshape=[0, 8, -1]) /* ty=Tensor[(1, 8, 1000), float32] */;
  %45 = nn.instance_norm(%44, %param33_bias, %param34_bias) /* ty=Tensor[(1, 8, 1000), float32] */;
  %46 = reshape(%45, newshape=[1, 64, 25, 5]) /* ty=Tensor[(1, 64, 25, 5), float32] */;
  %47 = multiply(%46, %param35_weight) /* ty=Tensor[(1, 64, 25, 5), float32] */;
  %48 = add(%47, %param36_weight) /* ty=Tensor[(1, 64, 25, 5), float32] */;
  %49 = nn.relu(%48) /* ty=Tensor[(1, 64, 25, 5), float32] */;
  %50 = nn.conv2d(%49, %param37_weight, padding=[0, 0, 0, 0], channels=64, kernel_size=[1, 1]) /* ty=Tensor[(1, 64, 25, 5), float32] */;
  %51 = nn.bias_add(%50, %param38_bias) /* ty=Tensor[(1, 64, 25, 5), float32] */;
  %52 = reshape(%51, newshape=[0, 8, -1]) /* ty=Tensor[(1, 8, 1000), float32] */;
  %53 = nn.instance_norm(%52, %param39_bias, %param40_bias) /* ty=Tensor[(1, 8, 1000), float32] */;
  %54 = reshape(%53, newshape=[1, 64, 25, 5]) /* ty=Tensor[(1, 64, 25, 5), float32] */;
  %55 = multiply(%54, %param41_weight) /* ty=Tensor[(1, 64, 25, 5), float32] */;
  %56 = add(%55, %param42_weight) /* ty=Tensor[(1, 64, 25, 5), float32] */;
  %57 = nn.relu(%56) /* ty=Tensor[(1, 64, 25, 5), float32] */;
  %58 = nn.conv2d(%57, %param43_weight, padding=[1, 1, 1, 1], groups=64, channels=64, kernel_size=[3, 3]) /* ty=Tensor[(1, 64, 25, 5), float32] */;
  %59 = nn.bias_add(%58, %param44_bias) /* ty=Tensor[(1, 64, 25, 5), float32] */;
  %60 = reshape(%59, newshape=[0, 8, -1]) /* ty=Tensor[(1, 8, 1000), float32] */;
  %61 = nn.instance_norm(%60, %param45_bias, %param46_bias) /* ty=Tensor[(1, 8, 1000), float32] */;
  %62 = reshape(%61, newshape=[1, 64, 25, 5]) /* ty=Tensor[(1, 64, 25, 5), float32] */;
  %63 = multiply(%62, %param47_weight) /* ty=Tensor[(1, 64, 25, 5), float32] */;
  %64 = add(%63, %param48_weight) /* ty=Tensor[(1, 64, 25, 5), float32] */;
  %65 = nn.relu(%64) /* ty=Tensor[(1, 64, 25, 5), float32] */;
  %66 = nn.conv2d(%65, %param49_weight, padding=[0, 0, 0, 0], channels=64, kernel_size=[1, 1]) /* ty=Tensor[(1, 64, 25, 5), float32] */;
  %67 = nn.bias_add(%66, %param50_bias) /* ty=Tensor[(1, 64, 25, 5), float32] */;
  %68 = reshape(%67, newshape=[0, 8, -1]) /* ty=Tensor[(1, 8, 1000), float32] */;
  %69 = nn.instance_norm(%68, %param51_bias, %param52_bias) /* ty=Tensor[(1, 8, 1000), float32] */;
  %70 = reshape(%69, newshape=[1, 64, 25, 5]) /* ty=Tensor[(1, 64, 25, 5), float32] */;
  %71 = multiply(%70, %param53_weight) /* ty=Tensor[(1, 64, 25, 5), float32] */;
  %72 = add(%71, %param54_weight) /* ty=Tensor[(1, 64, 25, 5), float32] */;
  %73 = nn.relu(%72) /* ty=Tensor[(1, 64, 25, 5), float32] */;
  %74 = nn.dropout(%73, rate=0.4f) /* ty=(Tensor[(1, 64, 25, 5), float32], Tensor[(1, 64, 25, 5), float32]) */;
  %75 = %74.0;
  %76 = nn.pad(%75, 0f /* ty=float32 */, pad_width=[[0, 0], [0, 0], [0, 0], [0, 0]]) /* ty=Tensor[(1, 64, 25, 5), float32] */;
  %77 = nn.avg_pool2d(%76, pool_size=[25, 5], strides=[25, 5], padding=[0, 0, 0, 0]) /* ty=Tensor[(1, 64, 1, 1), float32] */;
  %78 = nn.batch_flatten(%77) /* ty=Tensor[(1, 64), float32] */;
  %79 = nn.dense(%78, %param55_weight, units=12) /* ty=Tensor[(1, 12), float32] */;
  %80 = add(%79, %param56_bias) /* ty=Tensor[(1, 12), float32] */;
  %81 = reshape(%80, newshape=[0, 0]) /* ty=Tensor[(1, 12), float32] */;
  %82 = nn.log_softmax(%81) /* ty=Tensor[(1, 12), float32] */;
  %83 = nn.cross_entropy_with_logits(%82, %label) /* ty=float32 */;
  %84 = copy(%data_0) /* ty=Tensor[(1, 1, 49, 10), float32] */;
  (%83, %82, %82, %78, %77, %76, %72, %70, %68, %65, %64, %62, %60, %57, %56, %54, %52, %49, %48, %46, %44, %41, %40, %38, %36, %33, %32, %30, %28, %25, %24, %22, %20, %17, %16, %14, %12, %9, %6, %4, %2, %84)
}
