def @main(%grad_output: float32, %nn_cross_entropy_with_logits_0_pred: Tensor[(1, 12), float32], %nn_log_softmax_1_y: Tensor[(1, 12), float32], %nn_dense_5_x: Tensor[(1, 64), float32], %nn_batch_flatten_6_x: Tensor[(1, 64, 1, 1), float32], %nn_avg_pool2d_7_x: Tensor[(1, 64, 25, 5), float32], %nn_dropout_9_y: Tensor[(1, 64, 25, 5), float32], %nn_relu_10_x: Tensor[(1, 64, 25, 5), float32], %multiply_12_x: Tensor[(1, 64, 25, 5), float32], %nn_instance_norm_14_x: Tensor[(1, 8, 1000), float32], %nn_conv2d_17_x: Tensor[(1, 64, 25, 5), float32], %nn_relu_18_x: Tensor[(1, 64, 25, 5), float32], %multiply_20_x: Tensor[(1, 64, 25, 5), float32], %nn_instance_norm_22_x: Tensor[(1, 8, 1000), float32], %nn_conv2d_25_x: Tensor[(1, 64, 25, 5), float32], %nn_relu_26_x: Tensor[(1, 64, 25, 5), float32], %multiply_28_x: Tensor[(1, 64, 25, 5), float32], %nn_instance_norm_30_x: Tensor[(1, 8, 1000), float32], %nn_conv2d_33_x: Tensor[(1, 64, 25, 5), float32], %nn_relu_34_x: Tensor[(1, 64, 25, 5), float32], %multiply_36_x: Tensor[(1, 64, 25, 5), float32], %nn_instance_norm_38_x: Tensor[(1, 8, 1000), float32], %nn_conv2d_41_x: Tensor[(1, 64, 25, 5), float32], %nn_relu_42_x: Tensor[(1, 64, 25, 5), float32], %multiply_44_x: Tensor[(1, 64, 25, 5), float32], %nn_instance_norm_46_x: Tensor[(1, 8, 1000), float32], %nn_conv2d_49_x: Tensor[(1, 64, 25, 5), float32], %nn_relu_50_x: Tensor[(1, 64, 25, 5), float32], %multiply_52_x: Tensor[(1, 64, 25, 5), float32], %nn_instance_norm_54_x: Tensor[(1, 8, 1000), float32], %nn_conv2d_57_x: Tensor[(1, 64, 25, 5), float32], %nn_relu_58_x: Tensor[(1, 64, 25, 5), float32], %multiply_60_x: Tensor[(1, 64, 25, 5), float32], %nn_instance_norm_62_x: Tensor[(1, 8, 1000), float32], %nn_conv2d_65_x: Tensor[(1, 64, 25, 5), float32], %nn_relu_66_x: Tensor[(1, 64, 25, 5), float32], %multiply_68_x: Tensor[(1, 64, 25, 5), float32], %nn_instance_norm_70_x: Tensor[(1, 8, 1000), float32], %nn_conv2d_73_x: Tensor[(1, 64, 25, 5), float32], %nn_dropout_74_y: Tensor[(1, 64, 25, 5), float32], %nn_relu_75_x: Tensor[(1, 64, 25, 5), float32], %multiply_77_x: Tensor[(1, 64, 25, 5), float32], %nn_instance_norm_79_x: Tensor[(1, 8, 1000), float32], %nn_conv2d_82_x: Tensor[(1, 1, 49, 10), float32], %data_0: Tensor[(1, 1, 49, 10), float32], %param_1_train: Tensor[(64, 1, 10, 4), float32], %param_2_train: Tensor[(64), float32], %param_3_train: Tensor[(8), float32], %param_4_train: Tensor[(8), float32], %param_5_train: Tensor[(64, 1, 1), float32], %param_6_train: Tensor[(64, 1, 1), float32], %param_7_train: Tensor[(64, 1, 3, 3), float32], %param_8_train: Tensor[(64), float32], %param_9_train: Tensor[(8), float32], %param_10_train: Tensor[(8), float32], %param_11_train: Tensor[(64, 1, 1), float32], %param_12_train: Tensor[(64, 1, 1), float32], %param_13_train: Tensor[(64, 64, 1, 1), float32], %param_14_train: Tensor[(64), float32], %param_15_train: Tensor[(8), float32], %param_16_train: Tensor[(8), float32], %param_17_train: Tensor[(64, 1, 1), float32], %param_18_train: Tensor[(64, 1, 1), float32], %param_19_train: Tensor[(64, 1, 3, 3), float32], %param_20_train: Tensor[(64), float32], %param_21_train: Tensor[(8), float32], %param_22_train: Tensor[(8), float32], %param_23_train: Tensor[(64, 1, 1), float32], %param_24_train: Tensor[(64, 1, 1), float32], %param_25_train: Tensor[(64, 64, 1, 1), float32], %param_26_train: Tensor[(64), float32], %param_27_train: Tensor[(8), float32], %param_28_train: Tensor[(8), float32], %param_29_train: Tensor[(64, 1, 1), float32], %param_30_train: Tensor[(64, 1, 1), float32], %param_31_train: Tensor[(64, 1, 3, 3), float32], %param_32_train: Tensor[(64), float32], %param_33_train: Tensor[(8), float32], %param_34_train: Tensor[(8), float32], %param_35_train: Tensor[(64, 1, 1), float32], %param_36_train: Tensor[(64, 1, 1), float32], %param_37_train: Tensor[(64, 64, 1, 1), float32], %param_38_train: Tensor[(64), float32], %param_39_train: Tensor[(8), float32], %param_40_train: Tensor[(8), float32], %param_41_train: Tensor[(64, 1, 1), float32], %param_42_train: Tensor[(64, 1, 1), float32], %param_43_train: Tensor[(64, 1, 3, 3), float32], %param_44_train: Tensor[(64), float32], %param_45_train: Tensor[(8), float32], %param_46_train: Tensor[(8), float32], %param_47_train: Tensor[(64, 1, 1), float32], %param_48_train: Tensor[(64, 1, 1), float32], %param_49_train: Tensor[(64, 64, 1, 1), float32], %param_50_train: Tensor[(64), float32], %param_51_train: Tensor[(8), float32], %param_52_train: Tensor[(8), float32], %param_53_train: Tensor[(64, 1, 1), float32], %param_54_train: Tensor[(64, 1, 1), float32], %param_55_train: Tensor[(12, 64), float32], %param_56_train: Tensor[(12), float32], %label: Tensor[(1, 12), float32]) -> (Tensor[(1, 12), float32], Tensor[(12, 64), float32], Tensor[(1, 64, 1, 1), float32], Tensor[(1, 64, 1, 1), float32], Tensor[(8, 1), float32], Tensor[(8, 1), float32], Tensor[(64), float32], Tensor[(64, 64, 1, 1), float32], Tensor[(1, 64, 1, 1), float32], Tensor[(1, 64, 1, 1), float32], Tensor[(8, 1), float32], Tensor[(8, 1), float32], Tensor[(64), float32], Tensor[(64, 1, 3, 3), float32], Tensor[(1, 64, 1, 1), float32], Tensor[(1, 64, 1, 1), float32], Tensor[(8, 1), float32], Tensor[(8, 1), float32], Tensor[(64), float32], Tensor[(64, 64, 1, 1), float32], Tensor[(1, 64, 1, 1), float32], Tensor[(1, 64, 1, 1), float32], Tensor[(8, 1), float32], Tensor[(8, 1), float32], Tensor[(64), float32], Tensor[(64, 1, 3, 3), float32], Tensor[(1, 64, 1, 1), float32], Tensor[(1, 64, 1, 1), float32], Tensor[(8, 1), float32], Tensor[(8, 1), float32], Tensor[(64), float32], Tensor[(64, 64, 1, 1), float32], Tensor[(1, 64, 1, 1), float32], Tensor[(1, 64, 1, 1), float32], Tensor[(8, 1), float32], Tensor[(8, 1), float32], Tensor[(64), float32], Tensor[(64, 1, 3, 3), float32], Tensor[(1, 64, 1, 1), float32], Tensor[(1, 64, 1, 1), float32], Tensor[(8, 1), float32], Tensor[(8, 1), float32], Tensor[(64), float32], Tensor[(64, 64, 1, 1), float32], Tensor[(1, 64, 1, 1), float32], Tensor[(1, 64, 1, 1), float32], Tensor[(8, 1), float32], Tensor[(8, 1), float32], Tensor[(64), float32], Tensor[(64, 1, 3, 3), float32], Tensor[(1, 64, 1, 1), float32], Tensor[(1, 64, 1, 1), float32], Tensor[(8, 1), float32], Tensor[(8, 1), float32], Tensor[(64), float32], Tensor[(64, 1, 10, 4), float32]) {
  %0 = negative(%grad_output) /* ty=float32 */;
  %1 = multiply(%0, %label) /* ty=Tensor[(1, 12), float32] */;
  %2 = sum(%1, axis=[-1], keepdims=True) /* ty=Tensor[(1, 1), float32] */;
  %3 = exp(%nn_log_softmax_1_y) /* ty=Tensor[(1, 12), float32] */;
  %4 = multiply(%2, %3) /* ty=Tensor[(1, 12), float32] */;
  %5 = subtract(%1, %4) /* ty=Tensor[(1, 12), float32] */;
  %6 = reshape(%5, newshape=[1, 12]) /* ty=Tensor[(1, 12), float32] */;
  %7 = transpose(%6, axes=None) /* ty=Tensor[(12, 1), float32] */;
  %8 = zeros(shape=[1, 64, 25, 5], dtype="float32") /* ty=Tensor[(1, 64, 25, 5), float32] */;
  %9 = nn.matmul(%6, %param_55_train, units=None) /* ty=Tensor[(1, 64), float32] */;
  %10 = reshape(%9, newshape=[1, 64, 1, 1]) /* ty=Tensor[(1, 64, 1, 1), float32] */;
  %11 = nn.avg_pool2d_grad(%10, %nn_avg_pool2d_7_x, pool_size=[25, 5], strides=[25, 5], dilation=[], padding=[0, 0, 0, 0]) /* ty=Tensor[(1, 64, 25, 5), float32] */;
  %12 = strided_slice(%11, begin=[0, 0, 0, 0], end=[None, None, None, None], strides=[1], axes=None) /* ty=Tensor[(1, 64, 25, 5), float32] */;
  %13 = less(%nn_relu_10_x, %8) /* ty=Tensor[(1, 64, 25, 5), bool] */;
  %14 = multiply(%12, %nn_dropout_9_y) /* ty=Tensor[(1, 64, 25, 5), float32] */;
  %15 = where(%13, %8, %14) /* ty=Tensor[(1, 64, 25, 5), float32] */;
  %16 = multiply(%15, %multiply_12_x) /* ty=Tensor[(1, 64, 25, 5), float32] */;
  %17 = multiply(%15, %param_53_train) /* ty=Tensor[(1, 64, 25, 5), float32] */;
  %18 = reshape(%nn_instance_norm_14_x, newshape=[8, 1000]) /* ty=Tensor[(8, 1000), float32] */;
  %19 = mean(%18, axis=[1], keepdims=True) /* ty=Tensor[(8, 1), float32] */;
  %20 = subtract(%18, %19) /* ty=Tensor[(8, 1000), float32] */;
  %21 = multiply(%20, %20) /* ty=Tensor[(8, 1000), float32] */;
  %22 = mean(%21, axis=[1], keepdims=True) /* ty=Tensor[(8, 1), float32] */;
  %23 = add(%22, 1e-05f /* ty=float32 */) /* ty=Tensor[(8, 1), float32] */;
  %24 = sqrt(%23) /* ty=Tensor[(8, 1), float32] */;
  %25 = divide(1f /* ty=float32 */, %24) /* ty=Tensor[(8, 1), float32] */;
  %26 = repeat(%25, repeats=1, axis=0) /* ty=Tensor[(8, 1), float32] */;
  %27 = reshape(%17, newshape=[8, 1000]) /* ty=Tensor[(8, 1000), float32] */;
  %28 = reshape(%26, newshape=[8, 1]) /* ty=Tensor[(8, 1), float32] */;
  %29 = multiply(%27, %20) /* ty=Tensor[(8, 1000), float32] */;
  %30 = sum(%29, axis=[1], keepdims=True) /* ty=Tensor[(8, 1), float32] */;
  %31 = multiply(%28, %28) /* ty=Tensor[(8, 1), float32] */;
  %32 = multiply(-0.5f /* ty=float32 */, %30) /* ty=Tensor[(8, 1), float32] */;
  %33 = multiply(%31, %28) /* ty=Tensor[(8, 1), float32] */;
  %34 = multiply(%32, %33) /* ty=Tensor[(8, 1), float32] */;
  %35 = multiply(%34, 0.001f /* ty=float32 */) /* ty=Tensor[(8, 1), float32] */;
  %36 = multiply(%20, %35) /* ty=Tensor[(8, 1000), float32] */;
  %37 = multiply(%27, %28) /* ty=Tensor[(8, 1000), float32] */;
  %38 = multiply(%36, 2f /* ty=float32 */) /* ty=Tensor[(8, 1000), float32] */;
  %39 = add(%37, %38) /* ty=Tensor[(8, 1000), float32] */;
  %40 = sum(%39, axis=[1], keepdims=True) /* ty=Tensor[(8, 1), float32] */;
  %41 = negative(%40) /* ty=Tensor[(8, 1), float32] */;
  %42 = multiply(%41, 0.001f /* ty=float32 */) /* ty=Tensor[(8, 1), float32] */;
  %43 = add(%39, %42) /* ty=Tensor[(8, 1000), float32] */;
  %44 = reshape(%43, newshape=[1, 64, 25, 5]) /* ty=Tensor[(1, 64, 25, 5), float32] */;
  %45 = transpose(%nn_conv2d_17_x, axes=[1, 0, 2, 3]) /* ty=Tensor[(64, 1, 25, 5), float32] */;
  %46 = transpose(%44, axes=[1, 0, 2, 3]) /* ty=Tensor[(64, 1, 25, 5), float32] */;
  %47 = reshape(%45, newshape=[64, 1, 25, 5]) /* ty=Tensor[(64, 1, 25, 5), float32] */;
  %48 = reshape(%46, newshape=[64, 1, 25, 5]) /* ty=Tensor[(64, 1, 25, 5), float32] */;
  %49 = nn.conv2d(%47, %48, padding=[0, 0, 0, 0], channels=64, kernel_size=[25, 5]) /* ty=Tensor[(64, 64, 1, 1), float32] */;
  %50 = transpose(%49, axes=[1, 0, 2, 3]) /* ty=Tensor[(64, 64, 1, 1), float32] */;
  %51 = reshape(%50, newshape=[64, 1, 64, 1, 1]) /* ty=Tensor[(64, 1, 64, 1, 1), float32] */;
  %52 = sum(%51, axis=[1]) /* ty=Tensor[(64, 64, 1, 1), float32] */;
  %53 = zeros(shape=[1, 64, 25, 5], dtype="float32") /* ty=Tensor[(1, 64, 25, 5), float32] */;
  %54 = less(%nn_relu_18_x, %53) /* ty=Tensor[(1, 64, 25, 5), bool] */;
  %55 = nn.conv2d_transpose(%44, %param_49_train, channels=64, kernel_size=[1, 1], padding=[0, 0, 0, 0], kernel_layout="IOHW") /* ty=Tensor[(1, 64, 25, 5), float32] */;
  %56 = where(%54, %53, %55) /* ty=Tensor[(1, 64, 25, 5), float32] */;
  %57 = multiply(%56, %multiply_20_x) /* ty=Tensor[(1, 64, 25, 5), float32] */;
  %58 = multiply(%56, %param_47_train) /* ty=Tensor[(1, 64, 25, 5), float32] */;
  %59 = reshape(%nn_instance_norm_22_x, newshape=[8, 1000]) /* ty=Tensor[(8, 1000), float32] */;
  %60 = mean(%59, axis=[1], keepdims=True) /* ty=Tensor[(8, 1), float32] */;
  %61 = subtract(%59, %60) /* ty=Tensor[(8, 1000), float32] */;
  %62 = multiply(%61, %61) /* ty=Tensor[(8, 1000), float32] */;
  %63 = mean(%62, axis=[1], keepdims=True) /* ty=Tensor[(8, 1), float32] */;
  %64 = add(%63, 1e-05f /* ty=float32 */) /* ty=Tensor[(8, 1), float32] */;
  %65 = sqrt(%64) /* ty=Tensor[(8, 1), float32] */;
  %66 = divide(1f /* ty=float32 */, %65) /* ty=Tensor[(8, 1), float32] */;
  %67 = repeat(%66, repeats=1, axis=0) /* ty=Tensor[(8, 1), float32] */;
  %68 = reshape(%58, newshape=[8, 1000]) /* ty=Tensor[(8, 1000), float32] */;
  %69 = reshape(%67, newshape=[8, 1]) /* ty=Tensor[(8, 1), float32] */;
  %70 = multiply(%68, %61) /* ty=Tensor[(8, 1000), float32] */;
  %71 = sum(%70, axis=[1], keepdims=True) /* ty=Tensor[(8, 1), float32] */;
  %72 = multiply(%69, %69) /* ty=Tensor[(8, 1), float32] */;
  %73 = multiply(-0.5f /* ty=float32 */, %71) /* ty=Tensor[(8, 1), float32] */;
  %74 = multiply(%72, %69) /* ty=Tensor[(8, 1), float32] */;
  %75 = multiply(%73, %74) /* ty=Tensor[(8, 1), float32] */;
  %76 = multiply(%75, 0.001f /* ty=float32 */) /* ty=Tensor[(8, 1), float32] */;
  %77 = multiply(%61, %76) /* ty=Tensor[(8, 1000), float32] */;
  %78 = multiply(%68, %69) /* ty=Tensor[(8, 1000), float32] */;
  %79 = multiply(%77, 2f /* ty=float32 */) /* ty=Tensor[(8, 1000), float32] */;
  %80 = add(%78, %79) /* ty=Tensor[(8, 1000), float32] */;
  %81 = sum(%80, axis=[1], keepdims=True) /* ty=Tensor[(8, 1), float32] */;
  %82 = negative(%81) /* ty=Tensor[(8, 1), float32] */;
  %83 = multiply(%82, 0.001f /* ty=float32 */) /* ty=Tensor[(8, 1), float32] */;
  %84 = add(%80, %83) /* ty=Tensor[(8, 1000), float32] */;
  %85 = reshape(%84, newshape=[1, 64, 25, 5]) /* ty=Tensor[(1, 64, 25, 5), float32] */;
  %86 = tile(%85, reps=[1, 1, 1, 1]) /* ty=Tensor[(1, 64, 25, 5), float32] */;
  %87 = reshape(%nn_conv2d_25_x, newshape=[1, -1, 0, 0]) /* ty=Tensor[(1, 64, 25, 5), float32] */;
  %88 = reshape(%86, newshape=[-1, 1, 0, 0]) /* ty=Tensor[(64, 1, 25, 5), float32] */;
  %89 = nn.conv2d(%87, %88, padding=[1, 1, 1, 1], groups=64, channels=64, kernel_size=[25, 5]) /* ty=Tensor[(1, 64, 3, 3), float32] */;
  %90 = reshape(%89, newshape=[1, 1, 64, 3, 3]) /* ty=Tensor[(1, 1, 64, 3, 3), float32] */;
  %91 = sum(%90, axis=[0]) /* ty=Tensor[(1, 64, 3, 3), float32] */;
  %92 = zeros(shape=[1, 64, 25, 5], dtype="float32") /* ty=Tensor[(1, 64, 25, 5), float32] */;
  %93 = less(%nn_relu_26_x, %92) /* ty=Tensor[(1, 64, 25, 5), bool] */;
  %94 = nn.conv2d_transpose(%85, %param_43_train, channels=64, kernel_size=[3, 3], padding=[1, 1, 1, 1], groups=64, kernel_layout="IOHW") /* ty=Tensor[(1, 64, 25, 5), float32] */;
  %95 = where(%93, %92, %94) /* ty=Tensor[(1, 64, 25, 5), float32] */;
  %96 = multiply(%95, %multiply_28_x) /* ty=Tensor[(1, 64, 25, 5), float32] */;
  %97 = multiply(%95, %param_41_train) /* ty=Tensor[(1, 64, 25, 5), float32] */;
  %98 = reshape(%nn_instance_norm_30_x, newshape=[8, 1000]) /* ty=Tensor[(8, 1000), float32] */;
  %99 = mean(%98, axis=[1], keepdims=True) /* ty=Tensor[(8, 1), float32] */;
  %100 = subtract(%98, %99) /* ty=Tensor[(8, 1000), float32] */;
  %101 = multiply(%100, %100) /* ty=Tensor[(8, 1000), float32] */;
  %102 = mean(%101, axis=[1], keepdims=True) /* ty=Tensor[(8, 1), float32] */;
  %103 = add(%102, 1e-05f /* ty=float32 */) /* ty=Tensor[(8, 1), float32] */;
  %104 = sqrt(%103) /* ty=Tensor[(8, 1), float32] */;
  %105 = divide(1f /* ty=float32 */, %104) /* ty=Tensor[(8, 1), float32] */;
  %106 = repeat(%105, repeats=1, axis=0) /* ty=Tensor[(8, 1), float32] */;
  %107 = reshape(%97, newshape=[8, 1000]) /* ty=Tensor[(8, 1000), float32] */;
  %108 = reshape(%106, newshape=[8, 1]) /* ty=Tensor[(8, 1), float32] */;
  %109 = multiply(%107, %100) /* ty=Tensor[(8, 1000), float32] */;
  %110 = sum(%109, axis=[1], keepdims=True) /* ty=Tensor[(8, 1), float32] */;
  %111 = multiply(%108, %108) /* ty=Tensor[(8, 1), float32] */;
  %112 = multiply(-0.5f /* ty=float32 */, %110) /* ty=Tensor[(8, 1), float32] */;
  %113 = multiply(%111, %108) /* ty=Tensor[(8, 1), float32] */;
  %114 = multiply(%112, %113) /* ty=Tensor[(8, 1), float32] */;
  %115 = multiply(%114, 0.001f /* ty=float32 */) /* ty=Tensor[(8, 1), float32] */;
  %116 = multiply(%100, %115) /* ty=Tensor[(8, 1000), float32] */;
  %117 = multiply(%107, %108) /* ty=Tensor[(8, 1000), float32] */;
  %118 = multiply(%116, 2f /* ty=float32 */) /* ty=Tensor[(8, 1000), float32] */;
  %119 = add(%117, %118) /* ty=Tensor[(8, 1000), float32] */;
  %120 = sum(%119, axis=[1], keepdims=True) /* ty=Tensor[(8, 1), float32] */;
  %121 = negative(%120) /* ty=Tensor[(8, 1), float32] */;
  %122 = multiply(%121, 0.001f /* ty=float32 */) /* ty=Tensor[(8, 1), float32] */;
  %123 = add(%119, %122) /* ty=Tensor[(8, 1000), float32] */;
  %124 = reshape(%123, newshape=[1, 64, 25, 5]) /* ty=Tensor[(1, 64, 25, 5), float32] */;
  %125 = transpose(%nn_conv2d_33_x, axes=[1, 0, 2, 3]) /* ty=Tensor[(64, 1, 25, 5), float32] */;
  %126 = transpose(%124, axes=[1, 0, 2, 3]) /* ty=Tensor[(64, 1, 25, 5), float32] */;
  %127 = reshape(%125, newshape=[64, 1, 25, 5]) /* ty=Tensor[(64, 1, 25, 5), float32] */;
  %128 = reshape(%126, newshape=[64, 1, 25, 5]) /* ty=Tensor[(64, 1, 25, 5), float32] */;
  %129 = nn.conv2d(%127, %128, padding=[0, 0, 0, 0], channels=64, kernel_size=[25, 5]) /* ty=Tensor[(64, 64, 1, 1), float32] */;
  %130 = transpose(%129, axes=[1, 0, 2, 3]) /* ty=Tensor[(64, 64, 1, 1), float32] */;
  %131 = reshape(%130, newshape=[64, 1, 64, 1, 1]) /* ty=Tensor[(64, 1, 64, 1, 1), float32] */;
  %132 = sum(%131, axis=[1]) /* ty=Tensor[(64, 64, 1, 1), float32] */;
  %133 = zeros(shape=[1, 64, 25, 5], dtype="float32") /* ty=Tensor[(1, 64, 25, 5), float32] */;
  %134 = less(%nn_relu_34_x, %133) /* ty=Tensor[(1, 64, 25, 5), bool] */;
  %135 = nn.conv2d_transpose(%124, %param_37_train, channels=64, kernel_size=[1, 1], padding=[0, 0, 0, 0], kernel_layout="IOHW") /* ty=Tensor[(1, 64, 25, 5), float32] */;
  %136 = where(%134, %133, %135) /* ty=Tensor[(1, 64, 25, 5), float32] */;
  %137 = multiply(%136, %multiply_36_x) /* ty=Tensor[(1, 64, 25, 5), float32] */;
  %138 = multiply(%136, %param_35_train) /* ty=Tensor[(1, 64, 25, 5), float32] */;
  %139 = reshape(%nn_instance_norm_38_x, newshape=[8, 1000]) /* ty=Tensor[(8, 1000), float32] */;
  %140 = mean(%139, axis=[1], keepdims=True) /* ty=Tensor[(8, 1), float32] */;
  %141 = subtract(%139, %140) /* ty=Tensor[(8, 1000), float32] */;
  %142 = multiply(%141, %141) /* ty=Tensor[(8, 1000), float32] */;
  %143 = mean(%142, axis=[1], keepdims=True) /* ty=Tensor[(8, 1), float32] */;
  %144 = add(%143, 1e-05f /* ty=float32 */) /* ty=Tensor[(8, 1), float32] */;
  %145 = sqrt(%144) /* ty=Tensor[(8, 1), float32] */;
  %146 = divide(1f /* ty=float32 */, %145) /* ty=Tensor[(8, 1), float32] */;
  %147 = repeat(%146, repeats=1, axis=0) /* ty=Tensor[(8, 1), float32] */;
  %148 = reshape(%138, newshape=[8, 1000]) /* ty=Tensor[(8, 1000), float32] */;
  %149 = reshape(%147, newshape=[8, 1]) /* ty=Tensor[(8, 1), float32] */;
  %150 = multiply(%148, %141) /* ty=Tensor[(8, 1000), float32] */;
  %151 = sum(%150, axis=[1], keepdims=True) /* ty=Tensor[(8, 1), float32] */;
  %152 = multiply(%149, %149) /* ty=Tensor[(8, 1), float32] */;
  %153 = multiply(-0.5f /* ty=float32 */, %151) /* ty=Tensor[(8, 1), float32] */;
  %154 = multiply(%152, %149) /* ty=Tensor[(8, 1), float32] */;
  %155 = multiply(%153, %154) /* ty=Tensor[(8, 1), float32] */;
  %156 = multiply(%155, 0.001f /* ty=float32 */) /* ty=Tensor[(8, 1), float32] */;
  %157 = multiply(%141, %156) /* ty=Tensor[(8, 1000), float32] */;
  %158 = multiply(%148, %149) /* ty=Tensor[(8, 1000), float32] */;
  %159 = multiply(%157, 2f /* ty=float32 */) /* ty=Tensor[(8, 1000), float32] */;
  %160 = add(%158, %159) /* ty=Tensor[(8, 1000), float32] */;
  %161 = sum(%160, axis=[1], keepdims=True) /* ty=Tensor[(8, 1), float32] */;
  %162 = negative(%161) /* ty=Tensor[(8, 1), float32] */;
  %163 = multiply(%162, 0.001f /* ty=float32 */) /* ty=Tensor[(8, 1), float32] */;
  %164 = add(%160, %163) /* ty=Tensor[(8, 1000), float32] */;
  %165 = reshape(%164, newshape=[1, 64, 25, 5]) /* ty=Tensor[(1, 64, 25, 5), float32] */;
  %166 = tile(%165, reps=[1, 1, 1, 1]) /* ty=Tensor[(1, 64, 25, 5), float32] */;
  %167 = reshape(%nn_conv2d_41_x, newshape=[1, -1, 0, 0]) /* ty=Tensor[(1, 64, 25, 5), float32] */;
  %168 = reshape(%166, newshape=[-1, 1, 0, 0]) /* ty=Tensor[(64, 1, 25, 5), float32] */;
  %169 = nn.conv2d(%167, %168, padding=[1, 1, 1, 1], groups=64, channels=64, kernel_size=[25, 5]) /* ty=Tensor[(1, 64, 3, 3), float32] */;
  %170 = reshape(%169, newshape=[1, 1, 64, 3, 3]) /* ty=Tensor[(1, 1, 64, 3, 3), float32] */;
  %171 = sum(%170, axis=[0]) /* ty=Tensor[(1, 64, 3, 3), float32] */;
  %172 = zeros(shape=[1, 64, 25, 5], dtype="float32") /* ty=Tensor[(1, 64, 25, 5), float32] */;
  %173 = less(%nn_relu_42_x, %172) /* ty=Tensor[(1, 64, 25, 5), bool] */;
  %174 = nn.conv2d_transpose(%165, %param_31_train, channels=64, kernel_size=[3, 3], padding=[1, 1, 1, 1], groups=64, kernel_layout="IOHW") /* ty=Tensor[(1, 64, 25, 5), float32] */;
  %175 = where(%173, %172, %174) /* ty=Tensor[(1, 64, 25, 5), float32] */;
  %176 = multiply(%175, %multiply_44_x) /* ty=Tensor[(1, 64, 25, 5), float32] */;
  %177 = multiply(%175, %param_29_train) /* ty=Tensor[(1, 64, 25, 5), float32] */;
  %178 = reshape(%nn_instance_norm_46_x, newshape=[8, 1000]) /* ty=Tensor[(8, 1000), float32] */;
  %179 = mean(%178, axis=[1], keepdims=True) /* ty=Tensor[(8, 1), float32] */;
  %180 = subtract(%178, %179) /* ty=Tensor[(8, 1000), float32] */;
  %181 = multiply(%180, %180) /* ty=Tensor[(8, 1000), float32] */;
  %182 = mean(%181, axis=[1], keepdims=True) /* ty=Tensor[(8, 1), float32] */;
  %183 = add(%182, 1e-05f /* ty=float32 */) /* ty=Tensor[(8, 1), float32] */;
  %184 = sqrt(%183) /* ty=Tensor[(8, 1), float32] */;
  %185 = divide(1f /* ty=float32 */, %184) /* ty=Tensor[(8, 1), float32] */;
  %186 = repeat(%185, repeats=1, axis=0) /* ty=Tensor[(8, 1), float32] */;
  %187 = reshape(%177, newshape=[8, 1000]) /* ty=Tensor[(8, 1000), float32] */;
  %188 = reshape(%186, newshape=[8, 1]) /* ty=Tensor[(8, 1), float32] */;
  %189 = multiply(%187, %180) /* ty=Tensor[(8, 1000), float32] */;
  %190 = sum(%189, axis=[1], keepdims=True) /* ty=Tensor[(8, 1), float32] */;
  %191 = multiply(%188, %188) /* ty=Tensor[(8, 1), float32] */;
  %192 = multiply(-0.5f /* ty=float32 */, %190) /* ty=Tensor[(8, 1), float32] */;
  %193 = multiply(%191, %188) /* ty=Tensor[(8, 1), float32] */;
  %194 = multiply(%192, %193) /* ty=Tensor[(8, 1), float32] */;
  %195 = multiply(%194, 0.001f /* ty=float32 */) /* ty=Tensor[(8, 1), float32] */;
  %196 = multiply(%180, %195) /* ty=Tensor[(8, 1000), float32] */;
  %197 = multiply(%187, %188) /* ty=Tensor[(8, 1000), float32] */;
  %198 = multiply(%196, 2f /* ty=float32 */) /* ty=Tensor[(8, 1000), float32] */;
  %199 = add(%197, %198) /* ty=Tensor[(8, 1000), float32] */;
  %200 = sum(%199, axis=[1], keepdims=True) /* ty=Tensor[(8, 1), float32] */;
  %201 = negative(%200) /* ty=Tensor[(8, 1), float32] */;
  %202 = multiply(%201, 0.001f /* ty=float32 */) /* ty=Tensor[(8, 1), float32] */;
  %203 = add(%199, %202) /* ty=Tensor[(8, 1000), float32] */;
  %204 = reshape(%203, newshape=[1, 64, 25, 5]) /* ty=Tensor[(1, 64, 25, 5), float32] */;
  %205 = transpose(%nn_conv2d_49_x, axes=[1, 0, 2, 3]) /* ty=Tensor[(64, 1, 25, 5), float32] */;
  %206 = transpose(%204, axes=[1, 0, 2, 3]) /* ty=Tensor[(64, 1, 25, 5), float32] */;
  %207 = reshape(%205, newshape=[64, 1, 25, 5]) /* ty=Tensor[(64, 1, 25, 5), float32] */;
  %208 = reshape(%206, newshape=[64, 1, 25, 5]) /* ty=Tensor[(64, 1, 25, 5), float32] */;
  %209 = nn.conv2d(%207, %208, padding=[0, 0, 0, 0], channels=64, kernel_size=[25, 5]) /* ty=Tensor[(64, 64, 1, 1), float32] */;
  %210 = transpose(%209, axes=[1, 0, 2, 3]) /* ty=Tensor[(64, 64, 1, 1), float32] */;
  %211 = reshape(%210, newshape=[64, 1, 64, 1, 1]) /* ty=Tensor[(64, 1, 64, 1, 1), float32] */;
  %212 = sum(%211, axis=[1]) /* ty=Tensor[(64, 64, 1, 1), float32] */;
  %213 = zeros(shape=[1, 64, 25, 5], dtype="float32") /* ty=Tensor[(1, 64, 25, 5), float32] */;
  %214 = less(%nn_relu_50_x, %213) /* ty=Tensor[(1, 64, 25, 5), bool] */;
  %215 = nn.conv2d_transpose(%204, %param_25_train, channels=64, kernel_size=[1, 1], padding=[0, 0, 0, 0], kernel_layout="IOHW") /* ty=Tensor[(1, 64, 25, 5), float32] */;
  %216 = where(%214, %213, %215) /* ty=Tensor[(1, 64, 25, 5), float32] */;
  %217 = multiply(%216, %multiply_52_x) /* ty=Tensor[(1, 64, 25, 5), float32] */;
  %218 = multiply(%216, %param_23_train) /* ty=Tensor[(1, 64, 25, 5), float32] */;
  %219 = reshape(%nn_instance_norm_54_x, newshape=[8, 1000]) /* ty=Tensor[(8, 1000), float32] */;
  %220 = mean(%219, axis=[1], keepdims=True) /* ty=Tensor[(8, 1), float32] */;
  %221 = subtract(%219, %220) /* ty=Tensor[(8, 1000), float32] */;
  %222 = multiply(%221, %221) /* ty=Tensor[(8, 1000), float32] */;
  %223 = mean(%222, axis=[1], keepdims=True) /* ty=Tensor[(8, 1), float32] */;
  %224 = add(%223, 1e-05f /* ty=float32 */) /* ty=Tensor[(8, 1), float32] */;
  %225 = sqrt(%224) /* ty=Tensor[(8, 1), float32] */;
  %226 = divide(1f /* ty=float32 */, %225) /* ty=Tensor[(8, 1), float32] */;
  %227 = repeat(%226, repeats=1, axis=0) /* ty=Tensor[(8, 1), float32] */;
  %228 = reshape(%218, newshape=[8, 1000]) /* ty=Tensor[(8, 1000), float32] */;
  %229 = reshape(%227, newshape=[8, 1]) /* ty=Tensor[(8, 1), float32] */;
  %230 = multiply(%228, %221) /* ty=Tensor[(8, 1000), float32] */;
  %231 = sum(%230, axis=[1], keepdims=True) /* ty=Tensor[(8, 1), float32] */;
  %232 = multiply(%229, %229) /* ty=Tensor[(8, 1), float32] */;
  %233 = multiply(-0.5f /* ty=float32 */, %231) /* ty=Tensor[(8, 1), float32] */;
  %234 = multiply(%232, %229) /* ty=Tensor[(8, 1), float32] */;
  %235 = multiply(%233, %234) /* ty=Tensor[(8, 1), float32] */;
  %236 = multiply(%235, 0.001f /* ty=float32 */) /* ty=Tensor[(8, 1), float32] */;
  %237 = multiply(%221, %236) /* ty=Tensor[(8, 1000), float32] */;
  %238 = multiply(%228, %229) /* ty=Tensor[(8, 1000), float32] */;
  %239 = multiply(%237, 2f /* ty=float32 */) /* ty=Tensor[(8, 1000), float32] */;
  %240 = add(%238, %239) /* ty=Tensor[(8, 1000), float32] */;
  %241 = sum(%240, axis=[1], keepdims=True) /* ty=Tensor[(8, 1), float32] */;
  %242 = negative(%241) /* ty=Tensor[(8, 1), float32] */;
  %243 = multiply(%242, 0.001f /* ty=float32 */) /* ty=Tensor[(8, 1), float32] */;
  %244 = add(%240, %243) /* ty=Tensor[(8, 1000), float32] */;
  %245 = reshape(%244, newshape=[1, 64, 25, 5]) /* ty=Tensor[(1, 64, 25, 5), float32] */;
  %246 = tile(%245, reps=[1, 1, 1, 1]) /* ty=Tensor[(1, 64, 25, 5), float32] */;
  %247 = reshape(%nn_conv2d_57_x, newshape=[1, -1, 0, 0]) /* ty=Tensor[(1, 64, 25, 5), float32] */;
  %248 = reshape(%246, newshape=[-1, 1, 0, 0]) /* ty=Tensor[(64, 1, 25, 5), float32] */;
  %249 = nn.conv2d(%247, %248, padding=[1, 1, 1, 1], groups=64, channels=64, kernel_size=[25, 5]) /* ty=Tensor[(1, 64, 3, 3), float32] */;
  %250 = reshape(%249, newshape=[1, 1, 64, 3, 3]) /* ty=Tensor[(1, 1, 64, 3, 3), float32] */;
  %251 = sum(%250, axis=[0]) /* ty=Tensor[(1, 64, 3, 3), float32] */;
  %252 = zeros(shape=[1, 64, 25, 5], dtype="float32") /* ty=Tensor[(1, 64, 25, 5), float32] */;
  %253 = less(%nn_relu_58_x, %252) /* ty=Tensor[(1, 64, 25, 5), bool] */;
  %254 = nn.conv2d_transpose(%245, %param_19_train, channels=64, kernel_size=[3, 3], padding=[1, 1, 1, 1], groups=64, kernel_layout="IOHW") /* ty=Tensor[(1, 64, 25, 5), float32] */;
  %255 = where(%253, %252, %254) /* ty=Tensor[(1, 64, 25, 5), float32] */;
  %256 = multiply(%255, %multiply_60_x) /* ty=Tensor[(1, 64, 25, 5), float32] */;
  %257 = multiply(%255, %param_17_train) /* ty=Tensor[(1, 64, 25, 5), float32] */;
  %258 = reshape(%nn_instance_norm_62_x, newshape=[8, 1000]) /* ty=Tensor[(8, 1000), float32] */;
  %259 = mean(%258, axis=[1], keepdims=True) /* ty=Tensor[(8, 1), float32] */;
  %260 = subtract(%258, %259) /* ty=Tensor[(8, 1000), float32] */;
  %261 = multiply(%260, %260) /* ty=Tensor[(8, 1000), float32] */;
  %262 = mean(%261, axis=[1], keepdims=True) /* ty=Tensor[(8, 1), float32] */;
  %263 = add(%262, 1e-05f /* ty=float32 */) /* ty=Tensor[(8, 1), float32] */;
  %264 = sqrt(%263) /* ty=Tensor[(8, 1), float32] */;
  %265 = divide(1f /* ty=float32 */, %264) /* ty=Tensor[(8, 1), float32] */;
  %266 = repeat(%265, repeats=1, axis=0) /* ty=Tensor[(8, 1), float32] */;
  %267 = reshape(%257, newshape=[8, 1000]) /* ty=Tensor[(8, 1000), float32] */;
  %268 = reshape(%266, newshape=[8, 1]) /* ty=Tensor[(8, 1), float32] */;
  %269 = multiply(%267, %260) /* ty=Tensor[(8, 1000), float32] */;
  %270 = sum(%269, axis=[1], keepdims=True) /* ty=Tensor[(8, 1), float32] */;
  %271 = multiply(%268, %268) /* ty=Tensor[(8, 1), float32] */;
  %272 = multiply(-0.5f /* ty=float32 */, %270) /* ty=Tensor[(8, 1), float32] */;
  %273 = multiply(%271, %268) /* ty=Tensor[(8, 1), float32] */;
  %274 = multiply(%272, %273) /* ty=Tensor[(8, 1), float32] */;
  %275 = multiply(%274, 0.001f /* ty=float32 */) /* ty=Tensor[(8, 1), float32] */;
  %276 = multiply(%260, %275) /* ty=Tensor[(8, 1000), float32] */;
  %277 = multiply(%267, %268) /* ty=Tensor[(8, 1000), float32] */;
  %278 = multiply(%276, 2f /* ty=float32 */) /* ty=Tensor[(8, 1000), float32] */;
  %279 = add(%277, %278) /* ty=Tensor[(8, 1000), float32] */;
  %280 = sum(%279, axis=[1], keepdims=True) /* ty=Tensor[(8, 1), float32] */;
  %281 = negative(%280) /* ty=Tensor[(8, 1), float32] */;
  %282 = multiply(%281, 0.001f /* ty=float32 */) /* ty=Tensor[(8, 1), float32] */;
  %283 = add(%279, %282) /* ty=Tensor[(8, 1000), float32] */;
  %284 = reshape(%283, newshape=[1, 64, 25, 5]) /* ty=Tensor[(1, 64, 25, 5), float32] */;
  %285 = transpose(%nn_conv2d_65_x, axes=[1, 0, 2, 3]) /* ty=Tensor[(64, 1, 25, 5), float32] */;
  %286 = transpose(%284, axes=[1, 0, 2, 3]) /* ty=Tensor[(64, 1, 25, 5), float32] */;
  %287 = reshape(%285, newshape=[64, 1, 25, 5]) /* ty=Tensor[(64, 1, 25, 5), float32] */;
  %288 = reshape(%286, newshape=[64, 1, 25, 5]) /* ty=Tensor[(64, 1, 25, 5), float32] */;
  %289 = nn.conv2d(%287, %288, padding=[0, 0, 0, 0], channels=64, kernel_size=[25, 5]) /* ty=Tensor[(64, 64, 1, 1), float32] */;
  %290 = transpose(%289, axes=[1, 0, 2, 3]) /* ty=Tensor[(64, 64, 1, 1), float32] */;
  %291 = reshape(%290, newshape=[64, 1, 64, 1, 1]) /* ty=Tensor[(64, 1, 64, 1, 1), float32] */;
  %292 = sum(%291, axis=[1]) /* ty=Tensor[(64, 64, 1, 1), float32] */;
  %293 = zeros(shape=[1, 64, 25, 5], dtype="float32") /* ty=Tensor[(1, 64, 25, 5), float32] */;
  %294 = less(%nn_relu_66_x, %293) /* ty=Tensor[(1, 64, 25, 5), bool] */;
  %295 = nn.conv2d_transpose(%284, %param_13_train, channels=64, kernel_size=[1, 1], padding=[0, 0, 0, 0], kernel_layout="IOHW") /* ty=Tensor[(1, 64, 25, 5), float32] */;
  %296 = where(%294, %293, %295) /* ty=Tensor[(1, 64, 25, 5), float32] */;
  %297 = multiply(%296, %multiply_68_x) /* ty=Tensor[(1, 64, 25, 5), float32] */;
  %298 = multiply(%296, %param_11_train) /* ty=Tensor[(1, 64, 25, 5), float32] */;
  %299 = reshape(%nn_instance_norm_70_x, newshape=[8, 1000]) /* ty=Tensor[(8, 1000), float32] */;
  %300 = mean(%299, axis=[1], keepdims=True) /* ty=Tensor[(8, 1), float32] */;
  %301 = subtract(%299, %300) /* ty=Tensor[(8, 1000), float32] */;
  %302 = multiply(%301, %301) /* ty=Tensor[(8, 1000), float32] */;
  %303 = mean(%302, axis=[1], keepdims=True) /* ty=Tensor[(8, 1), float32] */;
  %304 = add(%303, 1e-05f /* ty=float32 */) /* ty=Tensor[(8, 1), float32] */;
  %305 = sqrt(%304) /* ty=Tensor[(8, 1), float32] */;
  %306 = divide(1f /* ty=float32 */, %305) /* ty=Tensor[(8, 1), float32] */;
  %307 = repeat(%306, repeats=1, axis=0) /* ty=Tensor[(8, 1), float32] */;
  %308 = reshape(%298, newshape=[8, 1000]) /* ty=Tensor[(8, 1000), float32] */;
  %309 = reshape(%307, newshape=[8, 1]) /* ty=Tensor[(8, 1), float32] */;
  %310 = multiply(%308, %301) /* ty=Tensor[(8, 1000), float32] */;
  %311 = sum(%310, axis=[1], keepdims=True) /* ty=Tensor[(8, 1), float32] */;
  %312 = multiply(%309, %309) /* ty=Tensor[(8, 1), float32] */;
  %313 = multiply(-0.5f /* ty=float32 */, %311) /* ty=Tensor[(8, 1), float32] */;
  %314 = multiply(%312, %309) /* ty=Tensor[(8, 1), float32] */;
  %315 = multiply(%313, %314) /* ty=Tensor[(8, 1), float32] */;
  %316 = multiply(%315, 0.001f /* ty=float32 */) /* ty=Tensor[(8, 1), float32] */;
  %317 = multiply(%301, %316) /* ty=Tensor[(8, 1000), float32] */;
  %318 = multiply(%308, %309) /* ty=Tensor[(8, 1000), float32] */;
  %319 = multiply(%317, 2f /* ty=float32 */) /* ty=Tensor[(8, 1000), float32] */;
  %320 = add(%318, %319) /* ty=Tensor[(8, 1000), float32] */;
  %321 = sum(%320, axis=[1], keepdims=True) /* ty=Tensor[(8, 1), float32] */;
  %322 = negative(%321) /* ty=Tensor[(8, 1), float32] */;
  %323 = multiply(%322, 0.001f /* ty=float32 */) /* ty=Tensor[(8, 1), float32] */;
  %324 = add(%320, %323) /* ty=Tensor[(8, 1000), float32] */;
  %325 = reshape(%324, newshape=[1, 64, 25, 5]) /* ty=Tensor[(1, 64, 25, 5), float32] */;
  %326 = tile(%325, reps=[1, 1, 1, 1]) /* ty=Tensor[(1, 64, 25, 5), float32] */;
  %327 = reshape(%nn_conv2d_73_x, newshape=[1, -1, 0, 0]) /* ty=Tensor[(1, 64, 25, 5), float32] */;
  %328 = reshape(%326, newshape=[-1, 1, 0, 0]) /* ty=Tensor[(64, 1, 25, 5), float32] */;
  %329 = nn.conv2d(%327, %328, padding=[1, 1, 1, 1], groups=64, channels=64, kernel_size=[25, 5]) /* ty=Tensor[(1, 64, 3, 3), float32] */;
  %330 = reshape(%329, newshape=[1, 1, 64, 3, 3]) /* ty=Tensor[(1, 1, 64, 3, 3), float32] */;
  %331 = sum(%330, axis=[0]) /* ty=Tensor[(1, 64, 3, 3), float32] */;
  %332 = zeros(shape=[1, 64, 25, 5], dtype="float32") /* ty=Tensor[(1, 64, 25, 5), float32] */;
  %333 = nn.conv2d_transpose(%325, %param_7_train, channels=64, kernel_size=[3, 3], padding=[1, 1, 1, 1], groups=64, kernel_layout="IOHW") /* ty=Tensor[(1, 64, 25, 5), float32] */;
  %334 = less(%nn_relu_75_x, %332) /* ty=Tensor[(1, 64, 25, 5), bool] */;
  %335 = multiply(%333, %nn_dropout_74_y) /* ty=Tensor[(1, 64, 25, 5), float32] */;
  %336 = where(%334, %332, %335) /* ty=Tensor[(1, 64, 25, 5), float32] */;
  %337 = multiply(%336, %multiply_77_x) /* ty=Tensor[(1, 64, 25, 5), float32] */;
  %338 = multiply(%336, %param_5_train) /* ty=Tensor[(1, 64, 25, 5), float32] */;
  %339 = reshape(%nn_instance_norm_79_x, newshape=[8, 1000]) /* ty=Tensor[(8, 1000), float32] */;
  %340 = mean(%339, axis=[1], keepdims=True) /* ty=Tensor[(8, 1), float32] */;
  %341 = subtract(%339, %340) /* ty=Tensor[(8, 1000), float32] */;
  %342 = multiply(%341, %341) /* ty=Tensor[(8, 1000), float32] */;
  %343 = mean(%342, axis=[1], keepdims=True) /* ty=Tensor[(8, 1), float32] */;
  %344 = add(%343, 1e-05f /* ty=float32 */) /* ty=Tensor[(8, 1), float32] */;
  %345 = sqrt(%344) /* ty=Tensor[(8, 1), float32] */;
  %346 = divide(1f /* ty=float32 */, %345) /* ty=Tensor[(8, 1), float32] */;
  %347 = repeat(%346, repeats=1, axis=0) /* ty=Tensor[(8, 1), float32] */;
  %348 = reshape(%338, newshape=[8, 1000]) /* ty=Tensor[(8, 1000), float32] */;
  %349 = reshape(%347, newshape=[8, 1]) /* ty=Tensor[(8, 1), float32] */;
  %350 = multiply(%348, %341) /* ty=Tensor[(8, 1000), float32] */;
  %351 = sum(%350, axis=[1], keepdims=True) /* ty=Tensor[(8, 1), float32] */;
  %352 = multiply(%349, %349) /* ty=Tensor[(8, 1), float32] */;
  %353 = multiply(-0.5f /* ty=float32 */, %351) /* ty=Tensor[(8, 1), float32] */;
  %354 = multiply(%352, %349) /* ty=Tensor[(8, 1), float32] */;
  %355 = multiply(%353, %354) /* ty=Tensor[(8, 1), float32] */;
  %356 = multiply(%355, 0.001f /* ty=float32 */) /* ty=Tensor[(8, 1), float32] */;
  %357 = multiply(%341, %356) /* ty=Tensor[(8, 1000), float32] */;
  %358 = multiply(%348, %349) /* ty=Tensor[(8, 1000), float32] */;
  %359 = multiply(%357, 2f /* ty=float32 */) /* ty=Tensor[(8, 1000), float32] */;
  %360 = add(%358, %359) /* ty=Tensor[(8, 1000), float32] */;
  %361 = sum(%360, axis=[1], keepdims=True) /* ty=Tensor[(8, 1), float32] */;
  %362 = negative(%361) /* ty=Tensor[(8, 1), float32] */;
  %363 = multiply(%362, 0.001f /* ty=float32 */) /* ty=Tensor[(8, 1), float32] */;
  %364 = add(%360, %363) /* ty=Tensor[(8, 1000), float32] */;
  %365 = reshape(%364, newshape=[1, 64, 25, 5]) /* ty=Tensor[(1, 64, 25, 5), float32] */;
  %366 = transpose(%nn_conv2d_82_x, axes=[1, 0, 2, 3]) /* ty=Tensor[(1, 1, 49, 10), float32] */;
  %367 = transpose(%365, axes=[1, 0, 2, 3]) /* ty=Tensor[(64, 1, 25, 5), float32] */;
  %368 = reshape(%366, newshape=[1, 1, 49, 10]) /* ty=Tensor[(1, 1, 49, 10), float32] */;
  %369 = reshape(%367, newshape=[64, 1, 25, 5]) /* ty=Tensor[(64, 1, 25, 5), float32] */;
  %370 = nn.conv2d(%368, %369, padding=[5, 1, 5, 1], dilation=[2, 2], channels=64, kernel_size=[25, 5]) /* ty=Tensor[(1, 64, 11, 4), float32] */;
  %371 = reshape(%370, newshape=[1, 1, 64, 11, 4]) /* ty=Tensor[(1, 1, 64, 11, 4), float32] */;
  %372 = sum(%371, axis=[0]) /* ty=Tensor[(1, 64, 11, 4), float32] */;
  %373 = transpose(%372, axes=[1, 0, 2, 3]) /* ty=Tensor[(64, 1, 11, 4), float32] */;
  %374 = nn.matmul(%7, %nn_dense_5_x, units=None) /* ty=Tensor[(12, 64), float32] */;
  %375 = sum(%15, axis=[2, 3], keepdims=True) /* ty=Tensor[(1, 64, 1, 1), float32] */;
  %376 = sum(%16, axis=[2, 3], keepdims=True) /* ty=Tensor[(1, 64, 1, 1), float32] */;
  %377 = zeros(shape=[8, 1], dtype="float32") /* ty=Tensor[(8, 1), float32] */;
  %378 = zeros(shape=[8, 1], dtype="float32") /* ty=Tensor[(8, 1), float32] */;
  %379 = sum(%44, axis=[1], exclude=True) /* ty=Tensor[(64), float32] */;
  %380 = reshape(%52, newshape=[64, 64, 1, 1]) /* ty=Tensor[(64, 64, 1, 1), float32] */;
  %381 = sum(%56, axis=[2, 3], keepdims=True) /* ty=Tensor[(1, 64, 1, 1), float32] */;
  %382 = sum(%57, axis=[2, 3], keepdims=True) /* ty=Tensor[(1, 64, 1, 1), float32] */;
  %383 = zeros(shape=[8, 1], dtype="float32") /* ty=Tensor[(8, 1), float32] */;
  %384 = zeros(shape=[8, 1], dtype="float32") /* ty=Tensor[(8, 1), float32] */;
  %385 = sum(%85, axis=[1], exclude=True) /* ty=Tensor[(64), float32] */;
  %386 = transpose(%91, axes=[1, 0, 2, 3]) /* ty=Tensor[(64, 1, 3, 3), float32] */;
  %387 = sum(%95, axis=[2, 3], keepdims=True) /* ty=Tensor[(1, 64, 1, 1), float32] */;
  %388 = sum(%96, axis=[2, 3], keepdims=True) /* ty=Tensor[(1, 64, 1, 1), float32] */;
  %389 = zeros(shape=[8, 1], dtype="float32") /* ty=Tensor[(8, 1), float32] */;
  %390 = zeros(shape=[8, 1], dtype="float32") /* ty=Tensor[(8, 1), float32] */;
  %391 = sum(%124, axis=[1], exclude=True) /* ty=Tensor[(64), float32] */;
  %392 = reshape(%132, newshape=[64, 64, 1, 1]) /* ty=Tensor[(64, 64, 1, 1), float32] */;
  %393 = sum(%136, axis=[2, 3], keepdims=True) /* ty=Tensor[(1, 64, 1, 1), float32] */;
  %394 = sum(%137, axis=[2, 3], keepdims=True) /* ty=Tensor[(1, 64, 1, 1), float32] */;
  %395 = zeros(shape=[8, 1], dtype="float32") /* ty=Tensor[(8, 1), float32] */;
  %396 = zeros(shape=[8, 1], dtype="float32") /* ty=Tensor[(8, 1), float32] */;
  %397 = sum(%165, axis=[1], exclude=True) /* ty=Tensor[(64), float32] */;
  %398 = transpose(%171, axes=[1, 0, 2, 3]) /* ty=Tensor[(64, 1, 3, 3), float32] */;
  %399 = sum(%175, axis=[2, 3], keepdims=True) /* ty=Tensor[(1, 64, 1, 1), float32] */;
  %400 = sum(%176, axis=[2, 3], keepdims=True) /* ty=Tensor[(1, 64, 1, 1), float32] */;
  %401 = zeros(shape=[8, 1], dtype="float32") /* ty=Tensor[(8, 1), float32] */;
  %402 = zeros(shape=[8, 1], dtype="float32") /* ty=Tensor[(8, 1), float32] */;
  %403 = sum(%204, axis=[1], exclude=True) /* ty=Tensor[(64), float32] */;
  %404 = reshape(%212, newshape=[64, 64, 1, 1]) /* ty=Tensor[(64, 64, 1, 1), float32] */;
  %405 = sum(%216, axis=[2, 3], keepdims=True) /* ty=Tensor[(1, 64, 1, 1), float32] */;
  %406 = sum(%217, axis=[2, 3], keepdims=True) /* ty=Tensor[(1, 64, 1, 1), float32] */;
  %407 = zeros(shape=[8, 1], dtype="float32") /* ty=Tensor[(8, 1), float32] */;
  %408 = zeros(shape=[8, 1], dtype="float32") /* ty=Tensor[(8, 1), float32] */;
  %409 = sum(%245, axis=[1], exclude=True) /* ty=Tensor[(64), float32] */;
  %410 = transpose(%251, axes=[1, 0, 2, 3]) /* ty=Tensor[(64, 1, 3, 3), float32] */;
  %411 = sum(%255, axis=[2, 3], keepdims=True) /* ty=Tensor[(1, 64, 1, 1), float32] */;
  %412 = sum(%256, axis=[2, 3], keepdims=True) /* ty=Tensor[(1, 64, 1, 1), float32] */;
  %413 = zeros(shape=[8, 1], dtype="float32") /* ty=Tensor[(8, 1), float32] */;
  %414 = zeros(shape=[8, 1], dtype="float32") /* ty=Tensor[(8, 1), float32] */;
  %415 = sum(%284, axis=[1], exclude=True) /* ty=Tensor[(64), float32] */;
  %416 = reshape(%292, newshape=[64, 64, 1, 1]) /* ty=Tensor[(64, 64, 1, 1), float32] */;
  %417 = sum(%296, axis=[2, 3], keepdims=True) /* ty=Tensor[(1, 64, 1, 1), float32] */;
  %418 = sum(%297, axis=[2, 3], keepdims=True) /* ty=Tensor[(1, 64, 1, 1), float32] */;
  %419 = zeros(shape=[8, 1], dtype="float32") /* ty=Tensor[(8, 1), float32] */;
  %420 = zeros(shape=[8, 1], dtype="float32") /* ty=Tensor[(8, 1), float32] */;
  %421 = sum(%325, axis=[1], exclude=True) /* ty=Tensor[(64), float32] */;
  %422 = transpose(%331, axes=[1, 0, 2, 3]) /* ty=Tensor[(64, 1, 3, 3), float32] */;
  %423 = sum(%336, axis=[2, 3], keepdims=True) /* ty=Tensor[(1, 64, 1, 1), float32] */;
  %424 = sum(%337, axis=[2, 3], keepdims=True) /* ty=Tensor[(1, 64, 1, 1), float32] */;
  %425 = zeros(shape=[8, 1], dtype="float32") /* ty=Tensor[(8, 1), float32] */;
  %426 = zeros(shape=[8, 1], dtype="float32") /* ty=Tensor[(8, 1), float32] */;
  %427 = sum(%365, axis=[1], exclude=True) /* ty=Tensor[(64), float32] */;
  %428 = strided_slice(%373, begin=[0, 0, 0, 0], end=[64, 1, 10, 4], strides=[1], axes=None) /* ty=Tensor[(64, 1, 10, 4), float32] */;
  (%6, %374, %375, %376, %377, %378, %379, %380, %381, %382, %383, %384, %385, %386, %387, %388, %389, %390, %391, %392, %393, %394, %395, %396, %397, %398, %399, %400, %401, %402, %403, %404, %405, %406, %407, %408, %409, %410, %411, %412, %413, %414, %415, %416, %417, %418, %419, %420, %421, %422, %423, %424, %425, %426, %427, %428)
}
