def @main(%grad_output: float32, %nn_cross_entropy_with_logits_0_pred: Tensor[(1, 2), float32], %nn_log_softmax_1_y: Tensor[(1, 2), float32], %nn_dense_5_x: Tensor[(1, 256), float32], %nn_batch_flatten_6_x: Tensor[(1, 256, 1, 1), float32], %nn_avg_pool2d_7_x: Tensor[(1, 256, 3, 3), float32], %nn_relu_9_x: Tensor[(1, 256, 3, 3), float32], %multiply_11_x: Tensor[(1, 256, 3, 3), float32], %nn_instance_norm_13_x: Tensor[(1, 32, 72), float32], %nn_conv2d_15_x: Tensor[(1, 256, 3, 3), float32], %nn_relu_16_x: Tensor[(1, 256, 3, 3), float32], %multiply_18_x: Tensor[(1, 256, 3, 3), float32], %nn_instance_norm_20_x: Tensor[(1, 32, 72), float32], %nn_conv2d_22_x: Tensor[(1, 256, 3, 3), float32], %nn_relu_23_x: Tensor[(1, 256, 3, 3), float32], %multiply_25_x: Tensor[(1, 256, 3, 3), float32], %nn_instance_norm_27_x: Tensor[(1, 32, 72), float32], %nn_conv2d_29_x: Tensor[(1, 128, 3, 3), float32], %nn_relu_30_x: Tensor[(1, 128, 3, 3), float32], %multiply_32_x: Tensor[(1, 128, 3, 3), float32], %nn_instance_norm_34_x: Tensor[(1, 16, 72), float32], %nn_conv2d_36_x: Tensor[(1, 128, 6, 6), float32], %nn_relu_37_x: Tensor[(1, 128, 6, 6), float32], %multiply_39_x: Tensor[(1, 128, 6, 6), float32], %nn_instance_norm_41_x: Tensor[(1, 16, 288), float32], %nn_conv2d_43_x: Tensor[(1, 128, 6, 6), float32], %nn_relu_44_x: Tensor[(1, 128, 6, 6), float32], %multiply_46_x: Tensor[(1, 128, 6, 6), float32], %nn_instance_norm_48_x: Tensor[(1, 16, 288), float32], %nn_conv2d_50_x: Tensor[(1, 128, 6, 6), float32], %nn_relu_51_x: Tensor[(1, 128, 6, 6), float32], %multiply_53_x: Tensor[(1, 128, 6, 6), float32], %nn_instance_norm_55_x: Tensor[(1, 16, 288), float32], %nn_conv2d_57_x: Tensor[(1, 128, 6, 6), float32], %nn_relu_58_x: Tensor[(1, 128, 6, 6), float32], %multiply_60_x: Tensor[(1, 128, 6, 6), float32], %nn_instance_norm_62_x: Tensor[(1, 16, 288), float32], %nn_conv2d_64_x: Tensor[(1, 128, 6, 6), float32], %nn_relu_65_x: Tensor[(1, 128, 6, 6), float32], %multiply_67_x: Tensor[(1, 128, 6, 6), float32], %nn_instance_norm_69_x: Tensor[(1, 16, 288), float32], %nn_conv2d_71_x: Tensor[(1, 128, 6, 6), float32], %nn_relu_72_x: Tensor[(1, 128, 6, 6), float32], %multiply_74_x: Tensor[(1, 128, 6, 6), float32], %nn_instance_norm_76_x: Tensor[(1, 16, 288), float32], %nn_conv2d_78_x: Tensor[(1, 128, 6, 6), float32], %nn_relu_79_x: Tensor[(1, 128, 6, 6), float32], %multiply_81_x: Tensor[(1, 128, 6, 6), float32], %nn_instance_norm_83_x: Tensor[(1, 16, 288), float32], %nn_conv2d_85_x: Tensor[(1, 128, 6, 6), float32], %nn_relu_86_x: Tensor[(1, 128, 6, 6), float32], %multiply_88_x: Tensor[(1, 128, 6, 6), float32], %nn_instance_norm_90_x: Tensor[(1, 16, 288), float32], %nn_conv2d_92_x: Tensor[(1, 128, 6, 6), float32], %nn_relu_93_x: Tensor[(1, 128, 6, 6), float32], %multiply_95_x: Tensor[(1, 128, 6, 6), float32], %nn_instance_norm_97_x: Tensor[(1, 16, 288), float32], %nn_conv2d_99_x: Tensor[(1, 128, 6, 6), float32], %nn_relu_100_x: Tensor[(1, 128, 6, 6), float32], %multiply_102_x: Tensor[(1, 128, 6, 6), float32], %nn_instance_norm_104_x: Tensor[(1, 16, 288), float32], %nn_conv2d_106_x: Tensor[(1, 128, 6, 6), float32], %nn_relu_107_x: Tensor[(1, 128, 6, 6), float32], %multiply_109_x: Tensor[(1, 128, 6, 6), float32], %nn_instance_norm_111_x: Tensor[(1, 16, 288), float32], %nn_conv2d_113_x: Tensor[(1, 64, 6, 6), float32], %nn_relu_114_x: Tensor[(1, 64, 6, 6), float32], %multiply_116_x: Tensor[(1, 64, 6, 6), float32], %nn_instance_norm_118_x: Tensor[(1, 8, 288), float32], %nn_conv2d_120_x: Tensor[(1, 64, 12, 12), float32], %nn_relu_121_x: Tensor[(1, 64, 12, 12), float32], %multiply_123_x: Tensor[(1, 64, 12, 12), float32], %nn_instance_norm_125_x: Tensor[(1, 8, 1152), float32], %nn_conv2d_127_x: Tensor[(1, 64, 12, 12), float32], %nn_relu_128_x: Tensor[(1, 64, 12, 12), float32], %multiply_130_x: Tensor[(1, 64, 12, 12), float32], %nn_instance_norm_132_x: Tensor[(1, 8, 1152), float32], %nn_conv2d_134_x: Tensor[(1, 64, 12, 12), float32], %nn_relu_135_x: Tensor[(1, 64, 12, 12), float32], %multiply_137_x: Tensor[(1, 64, 12, 12), float32], %nn_instance_norm_139_x: Tensor[(1, 8, 1152), float32], %nn_conv2d_141_x: Tensor[(1, 32, 12, 12), float32], %nn_relu_142_x: Tensor[(1, 32, 12, 12), float32], %multiply_144_x: Tensor[(1, 32, 12, 12), float32], %nn_instance_norm_146_x: Tensor[(1, 4, 1152), float32], %nn_conv2d_148_x: Tensor[(1, 32, 24, 24), float32], %nn_relu_149_x: Tensor[(1, 32, 24, 24), float32], %multiply_151_x: Tensor[(1, 32, 24, 24), float32], %nn_instance_norm_153_x: Tensor[(1, 4, 4608), float32], %nn_conv2d_155_x: Tensor[(1, 32, 24, 24), float32], %nn_relu_156_x: Tensor[(1, 32, 24, 24), float32], %multiply_158_x: Tensor[(1, 32, 24, 24), float32], %nn_instance_norm_160_x: Tensor[(1, 4, 4608), float32], %nn_conv2d_162_x: Tensor[(1, 32, 24, 24), float32], %nn_relu_163_x: Tensor[(1, 32, 24, 24), float32], %multiply_165_x: Tensor[(1, 32, 24, 24), float32], %nn_instance_norm_167_x: Tensor[(1, 4, 4608), float32], %nn_conv2d_169_x: Tensor[(1, 16, 24, 24), float32], %nn_relu_170_x: Tensor[(1, 16, 24, 24), float32], %multiply_172_x: Tensor[(1, 16, 24, 24), float32], %nn_instance_norm_174_x: Tensor[(1, 2, 4608), float32], %nn_conv2d_176_x: Tensor[(1, 16, 48, 48), float32], %nn_relu_177_x: Tensor[(1, 16, 48, 48), float32], %multiply_179_x: Tensor[(1, 16, 48, 48), float32], %nn_instance_norm_181_x: Tensor[(1, 2, 18432), float32], %nn_conv2d_183_x: Tensor[(1, 8, 48, 48), float32], %nn_relu_184_x: Tensor[(1, 8, 48, 48), float32], %multiply_186_x: Tensor[(1, 8, 48, 48), float32], %nn_instance_norm_188_x: Tensor[(1, 1, 18432), float32], %nn_conv2d_190_x: Tensor[(1, 8, 48, 48), float32], %nn_relu_191_x: Tensor[(1, 8, 48, 48), float32], %multiply_193_x: Tensor[(1, 8, 48, 48), float32], %nn_instance_norm_195_x: Tensor[(1, 1, 18432), float32], %nn_conv2d_197_x: Tensor[(1, 3, 96, 96), float32], %data_0: Tensor[(1, 3, 96, 96), float32], %param_1_train: Tensor[(8, 3, 3, 3), float32], %param_2_train: Tensor[(1), float32], %param_3_train: Tensor[(1), float32], %param_4_train: Tensor[(8, 1, 1), float32], %param_5_train: Tensor[(8, 1, 1), float32], %param_6_train: Tensor[(8, 1, 3, 3), float32], %param_7_train: Tensor[(1), float32], %param_8_train: Tensor[(1), float32], %param_9_train: Tensor[(8, 1, 1), float32], %param_10_train: Tensor[(8, 1, 1), float32], %param_11_train: Tensor[(16, 8, 1, 1), float32], %param_12_train: Tensor[(2), float32], %param_13_train: Tensor[(2), float32], %param_14_train: Tensor[(16, 1, 1), float32], %param_15_train: Tensor[(16, 1, 1), float32], %param_16_train: Tensor[(16, 1, 3, 3), float32], %param_17_train: Tensor[(2), float32], %param_18_train: Tensor[(2), float32], %param_19_train: Tensor[(16, 1, 1), float32], %param_20_train: Tensor[(16, 1, 1), float32], %param_21_train: Tensor[(32, 16, 1, 1), float32], %param_22_train: Tensor[(4), float32], %param_23_train: Tensor[(4), float32], %param_24_train: Tensor[(32, 1, 1), float32], %param_25_train: Tensor[(32, 1, 1), float32], %param_26_train: Tensor[(32, 1, 3, 3), float32], %param_27_train: Tensor[(4), float32], %param_28_train: Tensor[(4), float32], %param_29_train: Tensor[(32, 1, 1), float32], %param_30_train: Tensor[(32, 1, 1), float32], %param_31_train: Tensor[(32, 32, 1, 1), float32], %param_32_train: Tensor[(4), float32], %param_33_train: Tensor[(4), float32], %param_34_train: Tensor[(32, 1, 1), float32], %param_35_train: Tensor[(32, 1, 1), float32], %param_36_train: Tensor[(32, 1, 3, 3), float32], %param_37_train: Tensor[(4), float32], %param_38_train: Tensor[(4), float32], %param_39_train: Tensor[(32, 1, 1), float32], %param_40_train: Tensor[(32, 1, 1), float32], %param_41_train: Tensor[(64, 32, 1, 1), float32], %param_42_train: Tensor[(8), float32], %param_43_train: Tensor[(8), float32], %param_44_train: Tensor[(64, 1, 1), float32], %param_45_train: Tensor[(64, 1, 1), float32], %param_46_train: Tensor[(64, 1, 3, 3), float32], %param_47_train: Tensor[(8), float32], %param_48_train: Tensor[(8), float32], %param_49_train: Tensor[(64, 1, 1), float32], %param_50_train: Tensor[(64, 1, 1), float32], %param_51_train: Tensor[(64, 64, 1, 1), float32], %param_52_train: Tensor[(8), float32], %param_53_train: Tensor[(8), float32], %param_54_train: Tensor[(64, 1, 1), float32], %param_55_train: Tensor[(64, 1, 1), float32], %param_56_train: Tensor[(64, 1, 3, 3), float32], %param_57_train: Tensor[(8), float32], %param_58_train: Tensor[(8), float32], %param_59_train: Tensor[(64, 1, 1), float32], %param_60_train: Tensor[(64, 1, 1), float32], %param_61_train: Tensor[(128, 64, 1, 1), float32], %param_62_train: Tensor[(16), float32], %param_63_train: Tensor[(16), float32], %param_64_train: Tensor[(128, 1, 1), float32], %param_65_train: Tensor[(128, 1, 1), float32], %param_66_train: Tensor[(128, 1, 3, 3), float32], %param_67_train: Tensor[(16), float32], %param_68_train: Tensor[(16), float32], %param_69_train: Tensor[(128, 1, 1), float32], %param_70_train: Tensor[(128, 1, 1), float32], %param_71_train: Tensor[(128, 128, 1, 1), float32], %param_72_train: Tensor[(16), float32], %param_73_train: Tensor[(16), float32], %param_74_train: Tensor[(128, 1, 1), float32], %param_75_train: Tensor[(128, 1, 1), float32], %param_76_train: Tensor[(128, 1, 3, 3), float32], %param_77_train: Tensor[(16), float32], %param_78_train: Tensor[(16), float32], %param_79_train: Tensor[(128, 1, 1), float32], %param_80_train: Tensor[(128, 1, 1), float32], %param_81_train: Tensor[(128, 128, 1, 1), float32], %param_82_train: Tensor[(16), float32], %param_83_train: Tensor[(16), float32], %param_84_train: Tensor[(128, 1, 1), float32], %param_85_train: Tensor[(128, 1, 1), float32], %param_86_train: Tensor[(128, 1, 3, 3), float32], %param_87_train: Tensor[(16), float32], %param_88_train: Tensor[(16), float32], %param_89_train: Tensor[(128, 1, 1), float32], %param_90_train: Tensor[(128, 1, 1), float32], %param_91_train: Tensor[(128, 128, 1, 1), float32], %param_92_train: Tensor[(16), float32], %param_93_train: Tensor[(16), float32], %param_94_train: Tensor[(128, 1, 1), float32], %param_95_train: Tensor[(128, 1, 1), float32], %param_96_train: Tensor[(128, 1, 3, 3), float32], %param_97_train: Tensor[(16), float32], %param_98_train: Tensor[(16), float32], %param_99_train: Tensor[(128, 1, 1), float32], %param_100_train: Tensor[(128, 1, 1), float32], %param_101_train: Tensor[(128, 128, 1, 1), float32], %param_102_train: Tensor[(16), float32], %param_103_train: Tensor[(16), float32], %param_104_train: Tensor[(128, 1, 1), float32], %param_105_train: Tensor[(128, 1, 1), float32], %param_106_train: Tensor[(128, 1, 3, 3), float32], %param_107_train: Tensor[(16), float32], %param_108_train: Tensor[(16), float32], %param_109_train: Tensor[(128, 1, 1), float32], %param_110_train: Tensor[(128, 1, 1), float32], %param_111_train: Tensor[(128, 128, 1, 1), float32], %param_112_train: Tensor[(16), float32], %param_113_train: Tensor[(16), float32], %param_114_train: Tensor[(128, 1, 1), float32], %param_115_train: Tensor[(128, 1, 1), float32], %param_116_train: Tensor[(128, 1, 3, 3), float32], %param_117_train: Tensor[(16), float32], %param_118_train: Tensor[(16), float32], %param_119_train: Tensor[(128, 1, 1), float32], %param_120_train: Tensor[(128, 1, 1), float32], %param_121_train: Tensor[(256, 128, 1, 1), float32], %param_122_train: Tensor[(32), float32], %param_123_train: Tensor[(32), float32], %param_124_train: Tensor[(256, 1, 1), float32], %param_125_train: Tensor[(256, 1, 1), float32], %param_126_train: Tensor[(256, 1, 3, 3), float32], %param_127_train: Tensor[(32), float32], %param_128_train: Tensor[(32), float32], %param_129_train: Tensor[(256, 1, 1), float32], %param_130_train: Tensor[(256, 1, 1), float32], %param_131_train: Tensor[(256, 256, 1, 1), float32], %param_132_train: Tensor[(32), float32], %param_133_train: Tensor[(32), float32], %param_134_train: Tensor[(256, 1, 1), float32], %param_135_train: Tensor[(256, 1, 1), float32], %param_136_train: Tensor[(2, 256), float32], %param_137_train: Tensor[(2), float32], %label: Tensor[(1, 2), float32]) -> (Tensor[(1, 2), float32], Tensor[(2, 256), float32], Tensor[(1, 256, 1, 1), float32], Tensor[(1, 256, 1, 1), float32], Tensor[(32, 1), float32], Tensor[(32, 1), float32], Tensor[(256, 256, 1, 1), float32], Tensor[(1, 256, 1, 1), float32], Tensor[(1, 256, 1, 1), float32], Tensor[(32, 1), float32], Tensor[(32, 1), float32], Tensor[(256, 1, 3, 3), float32], Tensor[(1, 256, 1, 1), float32], Tensor[(1, 256, 1, 1), float32], Tensor[(32, 1), float32], Tensor[(32, 1), float32], Tensor[(256, 128, 1, 1), float32], Tensor[(1, 128, 1, 1), float32], Tensor[(1, 128, 1, 1), float32], Tensor[(16, 1), float32], Tensor[(16, 1), float32], Tensor[(128, 1, 3, 3), float32], Tensor[(1, 128, 1, 1), float32], Tensor[(1, 128, 1, 1), float32], Tensor[(16, 1), float32], Tensor[(16, 1), float32], Tensor[(128, 128, 1, 1), float32], Tensor[(1, 128, 1, 1), float32], Tensor[(1, 128, 1, 1), float32], Tensor[(16, 1), float32], Tensor[(16, 1), float32], Tensor[(128, 1, 3, 3), float32], Tensor[(1, 128, 1, 1), float32], Tensor[(1, 128, 1, 1), float32], Tensor[(16, 1), float32], Tensor[(16, 1), float32], Tensor[(128, 128, 1, 1), float32], Tensor[(1, 128, 1, 1), float32], Tensor[(1, 128, 1, 1), float32], Tensor[(16, 1), float32], Tensor[(16, 1), float32], Tensor[(128, 1, 3, 3), float32], Tensor[(1, 128, 1, 1), float32], Tensor[(1, 128, 1, 1), float32], Tensor[(16, 1), float32], Tensor[(16, 1), float32], Tensor[(128, 128, 1, 1), float32], Tensor[(1, 128, 1, 1), float32], Tensor[(1, 128, 1, 1), float32], Tensor[(16, 1), float32], Tensor[(16, 1), float32], Tensor[(128, 1, 3, 3), float32], Tensor[(1, 128, 1, 1), float32], Tensor[(1, 128, 1, 1), float32], Tensor[(16, 1), float32], Tensor[(16, 1), float32], Tensor[(128, 128, 1, 1), float32], Tensor[(1, 128, 1, 1), float32], Tensor[(1, 128, 1, 1), float32], Tensor[(16, 1), float32], Tensor[(16, 1), float32], Tensor[(128, 1, 3, 3), float32], Tensor[(1, 128, 1, 1), float32], Tensor[(1, 128, 1, 1), float32], Tensor[(16, 1), float32], Tensor[(16, 1), float32], Tensor[(128, 128, 1, 1), float32], Tensor[(1, 128, 1, 1), float32], Tensor[(1, 128, 1, 1), float32], Tensor[(16, 1), float32], Tensor[(16, 1), float32], Tensor[(128, 1, 3, 3), float32], Tensor[(1, 128, 1, 1), float32], Tensor[(1, 128, 1, 1), float32], Tensor[(16, 1), float32], Tensor[(16, 1), float32], Tensor[(128, 64, 1, 1), float32], Tensor[(1, 64, 1, 1), float32], Tensor[(1, 64, 1, 1), float32], Tensor[(8, 1), float32], Tensor[(8, 1), float32], Tensor[(64, 1, 3, 3), float32], Tensor[(1, 64, 1, 1), float32], Tensor[(1, 64, 1, 1), float32], Tensor[(8, 1), float32], Tensor[(8, 1), float32], Tensor[(64, 64, 1, 1), float32], Tensor[(1, 64, 1, 1), float32], Tensor[(1, 64, 1, 1), float32], Tensor[(8, 1), float32], Tensor[(8, 1), float32], Tensor[(64, 1, 3, 3), float32], Tensor[(1, 64, 1, 1), float32], Tensor[(1, 64, 1, 1), float32], Tensor[(8, 1), float32], Tensor[(8, 1), float32], Tensor[(64, 32, 1, 1), float32], Tensor[(1, 32, 1, 1), float32], Tensor[(1, 32, 1, 1), float32], Tensor[(4, 1), float32], Tensor[(4, 1), float32], Tensor[(32, 1, 3, 3), float32], Tensor[(1, 32, 1, 1), float32], Tensor[(1, 32, 1, 1), float32], Tensor[(4, 1), float32], Tensor[(4, 1), float32], Tensor[(32, 32, 1, 1), float32], Tensor[(1, 32, 1, 1), float32], Tensor[(1, 32, 1, 1), float32], Tensor[(4, 1), float32], Tensor[(4, 1), float32], Tensor[(32, 1, 3, 3), float32], Tensor[(1, 32, 1, 1), float32], Tensor[(1, 32, 1, 1), float32], Tensor[(4, 1), float32], Tensor[(4, 1), float32], Tensor[(32, 16, 1, 1), float32], Tensor[(1, 16, 1, 1), float32], Tensor[(1, 16, 1, 1), float32], Tensor[(2, 1), float32], Tensor[(2, 1), float32], Tensor[(16, 1, 3, 3), float32], Tensor[(1, 16, 1, 1), float32], Tensor[(1, 16, 1, 1), float32], Tensor[(2, 1), float32], Tensor[(2, 1), float32], Tensor[(16, 8, 1, 1), float32], Tensor[(1, 8, 1, 1), float32], Tensor[(1, 8, 1, 1), float32], Tensor[(1, 1), float32], Tensor[(1, 1), float32], Tensor[(8, 1, 3, 3), float32], Tensor[(1, 8, 1, 1), float32], Tensor[(1, 8, 1, 1), float32], Tensor[(1, 1), float32], Tensor[(1, 1), float32], Tensor[(8, 3, 3, 3), float32]) {
  %0 = negative(%grad_output) /* ty=float32 */;
  %1 = multiply(%0, %label) /* ty=Tensor[(1, 2), float32] */;
  %2 = sum(%1, axis=[-1], keepdims=True) /* ty=Tensor[(1, 1), float32] */;
  %3 = exp(%nn_log_softmax_1_y) /* ty=Tensor[(1, 2), float32] */;
  %4 = multiply(%2, %3) /* ty=Tensor[(1, 2), float32] */;
  %5 = subtract(%1, %4) /* ty=Tensor[(1, 2), float32] */;
  %6 = reshape(%5, newshape=[1, 2]) /* ty=Tensor[(1, 2), float32] */;
  %7 = transpose(%6, axes=None) /* ty=Tensor[(2, 1), float32] */;
  %8 = zeros(shape=[1, 256, 3, 3], dtype="float32") /* ty=Tensor[(1, 256, 3, 3), float32] */;
  %9 = nn.matmul(%6, %param_136_train, units=None) /* ty=Tensor[(1, 256), float32] */;
  %10 = reshape(%9, newshape=[1, 256, 1, 1]) /* ty=Tensor[(1, 256, 1, 1), float32] */;
  %11 = nn.avg_pool2d_grad(%10, %nn_avg_pool2d_7_x, pool_size=[3, 3], strides=[3, 3], dilation=[], padding=[0, 0, 0, 0]) /* ty=Tensor[(1, 256, 3, 3), float32] */;
  %12 = less(%nn_relu_9_x, %8) /* ty=Tensor[(1, 256, 3, 3), bool] */;
  %13 = strided_slice(%11, begin=[0, 0, 0, 0], end=[None, None, None, None], strides=[1], axes=None) /* ty=Tensor[(1, 256, 3, 3), float32] */;
  %14 = where(%12, %8, %13) /* ty=Tensor[(1, 256, 3, 3), float32] */;
  %15 = multiply(%14, %multiply_11_x) /* ty=Tensor[(1, 256, 3, 3), float32] */;
  %16 = transpose(%nn_conv2d_15_x, axes=[1, 0, 2, 3]) /* ty=Tensor[(256, 1, 3, 3), float32] */;
  %17 = multiply(%14, %param_134_train) /* ty=Tensor[(1, 256, 3, 3), float32] */;
  %18 = reshape(%nn_instance_norm_13_x, newshape=[32, 72]) /* ty=Tensor[(32, 72), float32] */;
  %19 = mean(%18, axis=[1], keepdims=True) /* ty=Tensor[(32, 1), float32] */;
  %20 = subtract(%18, %19) /* ty=Tensor[(32, 72), float32] */;
  %21 = power(%20, 2f /* ty=float32 */) /* ty=Tensor[(32, 72), float32] */;
  %22 = mean(%21, axis=[1], keepdims=True) /* ty=Tensor[(32, 1), float32] */;
  %23 = add(%22, 1e-05f /* ty=float32 */) /* ty=Tensor[(32, 1), float32] */;
  %24 = sqrt(%23) /* ty=Tensor[(32, 1), float32] */;
  %25 = divide(1f /* ty=float32 */, %24) /* ty=Tensor[(32, 1), float32] */;
  %26 = repeat(%25, repeats=1, axis=0) /* ty=Tensor[(32, 1), float32] */;
  %27 = reshape(%17, newshape=[32, 72]) /* ty=Tensor[(32, 72), float32] */;
  %28 = reshape(%26, newshape=[32, 1]) /* ty=Tensor[(32, 1), float32] */;
  %29 = multiply(%27, %20) /* ty=Tensor[(32, 72), float32] */;
  %30 = sum(%29, axis=[1], keepdims=True) /* ty=Tensor[(32, 1), float32] */;
  %31 = multiply(-0.5f /* ty=float32 */, %30) /* ty=Tensor[(32, 1), float32] */;
  %32 = power(%28, 3f /* ty=float32 */) /* ty=Tensor[(32, 1), float32] */;
  %33 = multiply(%31, %32) /* ty=Tensor[(32, 1), float32] */;
  %34 = multiply(%33, 0.0138889f /* ty=float32 */) /* ty=Tensor[(32, 1), float32] */;
  %35 = multiply(%20, %34) /* ty=Tensor[(32, 72), float32] */;
  %36 = multiply(%27, %28) /* ty=Tensor[(32, 72), float32] */;
  %37 = multiply(%35, 2f /* ty=float32 */) /* ty=Tensor[(32, 72), float32] */;
  %38 = add(%36, %37) /* ty=Tensor[(32, 72), float32] */;
  %39 = sum(%38, axis=[1], keepdims=True) /* ty=Tensor[(32, 1), float32] */;
  %40 = negative(%39) /* ty=Tensor[(32, 1), float32] */;
  %41 = multiply(%40, 0.0138889f /* ty=float32 */) /* ty=Tensor[(32, 1), float32] */;
  %42 = add(%38, %41) /* ty=Tensor[(32, 72), float32] */;
  %43 = reshape(%42, newshape=[1, 256, 3, 3]) /* ty=Tensor[(1, 256, 3, 3), float32] */;
  %44 = transpose(%43, axes=[1, 0, 2, 3]) /* ty=Tensor[(256, 1, 3, 3), float32] */;
  %45 = reshape(%16, newshape=[256, 1, 3, 3]) /* ty=Tensor[(256, 1, 3, 3), float32] */;
  %46 = reshape(%44, newshape=[256, 1, 3, 3]) /* ty=Tensor[(256, 1, 3, 3), float32] */;
  %47 = nn.conv2d(%45, %46, padding=[0, 0, 0, 0], channels=256, kernel_size=[3, 3]) /* ty=Tensor[(256, 256, 1, 1), float32] */;
  %48 = transpose(%47, axes=[1, 0, 2, 3]) /* ty=Tensor[(256, 256, 1, 1), float32] */;
  %49 = reshape(%48, newshape=[256, 1, 256, 1, 1]) /* ty=Tensor[(256, 1, 256, 1, 1), float32] */;
  %50 = sum(%49, axis=[1]) /* ty=Tensor[(256, 256, 1, 1), float32] */;
  %51 = zeros(shape=[1, 256, 3, 3], dtype="float32") /* ty=Tensor[(1, 256, 3, 3), float32] */;
  %52 = less(%nn_relu_16_x, %51) /* ty=Tensor[(1, 256, 3, 3), bool] */;
  %53 = nn.conv2d_transpose(%43, %param_131_train, channels=256, kernel_size=[1, 1], padding=[0, 0, 0, 0], kernel_layout="IOHW") /* ty=Tensor[(1, 256, 3, 3), float32] */;
  %54 = where(%52, %51, %53) /* ty=Tensor[(1, 256, 3, 3), float32] */;
  %55 = multiply(%54, %multiply_18_x) /* ty=Tensor[(1, 256, 3, 3), float32] */;
  %56 = multiply(%54, %param_129_train) /* ty=Tensor[(1, 256, 3, 3), float32] */;
  %57 = reshape(%nn_instance_norm_20_x, newshape=[32, 72]) /* ty=Tensor[(32, 72), float32] */;
  %58 = mean(%57, axis=[1], keepdims=True) /* ty=Tensor[(32, 1), float32] */;
  %59 = subtract(%57, %58) /* ty=Tensor[(32, 72), float32] */;
  %60 = power(%59, 2f /* ty=float32 */) /* ty=Tensor[(32, 72), float32] */;
  %61 = mean(%60, axis=[1], keepdims=True) /* ty=Tensor[(32, 1), float32] */;
  %62 = add(%61, 1e-05f /* ty=float32 */) /* ty=Tensor[(32, 1), float32] */;
  %63 = sqrt(%62) /* ty=Tensor[(32, 1), float32] */;
  %64 = divide(1f /* ty=float32 */, %63) /* ty=Tensor[(32, 1), float32] */;
  %65 = repeat(%64, repeats=1, axis=0) /* ty=Tensor[(32, 1), float32] */;
  %66 = reshape(%56, newshape=[32, 72]) /* ty=Tensor[(32, 72), float32] */;
  %67 = reshape(%65, newshape=[32, 1]) /* ty=Tensor[(32, 1), float32] */;
  %68 = multiply(%66, %59) /* ty=Tensor[(32, 72), float32] */;
  %69 = sum(%68, axis=[1], keepdims=True) /* ty=Tensor[(32, 1), float32] */;
  %70 = multiply(-0.5f /* ty=float32 */, %69) /* ty=Tensor[(32, 1), float32] */;
  %71 = power(%67, 3f /* ty=float32 */) /* ty=Tensor[(32, 1), float32] */;
  %72 = multiply(%70, %71) /* ty=Tensor[(32, 1), float32] */;
  %73 = multiply(%72, 0.0138889f /* ty=float32 */) /* ty=Tensor[(32, 1), float32] */;
  %74 = multiply(%59, %73) /* ty=Tensor[(32, 72), float32] */;
  %75 = multiply(%66, %67) /* ty=Tensor[(32, 72), float32] */;
  %76 = multiply(%74, 2f /* ty=float32 */) /* ty=Tensor[(32, 72), float32] */;
  %77 = add(%75, %76) /* ty=Tensor[(32, 72), float32] */;
  %78 = sum(%77, axis=[1], keepdims=True) /* ty=Tensor[(32, 1), float32] */;
  %79 = negative(%78) /* ty=Tensor[(32, 1), float32] */;
  %80 = multiply(%79, 0.0138889f /* ty=float32 */) /* ty=Tensor[(32, 1), float32] */;
  %81 = add(%77, %80) /* ty=Tensor[(32, 72), float32] */;
  %82 = reshape(%81, newshape=[1, 256, 3, 3]) /* ty=Tensor[(1, 256, 3, 3), float32] */;
  %83 = tile(%82, reps=[1, 1, 1, 1]) /* ty=Tensor[(1, 256, 3, 3), float32] */;
  %84 = reshape(%nn_conv2d_22_x, newshape=[1, -1, 0, 0]) /* ty=Tensor[(1, 256, 3, 3), float32] */;
  %85 = reshape(%83, newshape=[-1, 1, 0, 0]) /* ty=Tensor[(256, 1, 3, 3), float32] */;
  %86 = nn.conv2d(%84, %85, padding=[1, 1, 1, 1], groups=256, channels=256, kernel_size=[3, 3]) /* ty=Tensor[(1, 256, 3, 3), float32] */;
  %87 = reshape(%86, newshape=[1, 1, 256, 3, 3]) /* ty=Tensor[(1, 1, 256, 3, 3), float32] */;
  %88 = sum(%87, axis=[0]) /* ty=Tensor[(1, 256, 3, 3), float32] */;
  %89 = zeros(shape=[1, 256, 3, 3], dtype="float32") /* ty=Tensor[(1, 256, 3, 3), float32] */;
  %90 = less(%nn_relu_23_x, %89) /* ty=Tensor[(1, 256, 3, 3), bool] */;
  %91 = nn.conv2d_transpose(%82, %param_126_train, channels=256, kernel_size=[3, 3], padding=[1, 1, 1, 1], groups=256, kernel_layout="IOHW") /* ty=Tensor[(1, 256, 3, 3), float32] */;
  %92 = where(%90, %89, %91) /* ty=Tensor[(1, 256, 3, 3), float32] */;
  %93 = multiply(%92, %multiply_25_x) /* ty=Tensor[(1, 256, 3, 3), float32] */;
  %94 = transpose(%nn_conv2d_29_x, axes=[1, 0, 2, 3]) /* ty=Tensor[(128, 1, 3, 3), float32] */;
  %95 = multiply(%92, %param_124_train) /* ty=Tensor[(1, 256, 3, 3), float32] */;
  %96 = reshape(%nn_instance_norm_27_x, newshape=[32, 72]) /* ty=Tensor[(32, 72), float32] */;
  %97 = mean(%96, axis=[1], keepdims=True) /* ty=Tensor[(32, 1), float32] */;
  %98 = subtract(%96, %97) /* ty=Tensor[(32, 72), float32] */;
  %99 = power(%98, 2f /* ty=float32 */) /* ty=Tensor[(32, 72), float32] */;
  %100 = mean(%99, axis=[1], keepdims=True) /* ty=Tensor[(32, 1), float32] */;
  %101 = add(%100, 1e-05f /* ty=float32 */) /* ty=Tensor[(32, 1), float32] */;
  %102 = sqrt(%101) /* ty=Tensor[(32, 1), float32] */;
  %103 = divide(1f /* ty=float32 */, %102) /* ty=Tensor[(32, 1), float32] */;
  %104 = repeat(%103, repeats=1, axis=0) /* ty=Tensor[(32, 1), float32] */;
  %105 = reshape(%95, newshape=[32, 72]) /* ty=Tensor[(32, 72), float32] */;
  %106 = reshape(%104, newshape=[32, 1]) /* ty=Tensor[(32, 1), float32] */;
  %107 = multiply(%105, %98) /* ty=Tensor[(32, 72), float32] */;
  %108 = sum(%107, axis=[1], keepdims=True) /* ty=Tensor[(32, 1), float32] */;
  %109 = multiply(-0.5f /* ty=float32 */, %108) /* ty=Tensor[(32, 1), float32] */;
  %110 = power(%106, 3f /* ty=float32 */) /* ty=Tensor[(32, 1), float32] */;
  %111 = multiply(%109, %110) /* ty=Tensor[(32, 1), float32] */;
  %112 = multiply(%111, 0.0138889f /* ty=float32 */) /* ty=Tensor[(32, 1), float32] */;
  %113 = multiply(%98, %112) /* ty=Tensor[(32, 72), float32] */;
  %114 = multiply(%105, %106) /* ty=Tensor[(32, 72), float32] */;
  %115 = multiply(%113, 2f /* ty=float32 */) /* ty=Tensor[(32, 72), float32] */;
  %116 = add(%114, %115) /* ty=Tensor[(32, 72), float32] */;
  %117 = sum(%116, axis=[1], keepdims=True) /* ty=Tensor[(32, 1), float32] */;
  %118 = negative(%117) /* ty=Tensor[(32, 1), float32] */;
  %119 = multiply(%118, 0.0138889f /* ty=float32 */) /* ty=Tensor[(32, 1), float32] */;
  %120 = add(%116, %119) /* ty=Tensor[(32, 72), float32] */;
  %121 = reshape(%120, newshape=[1, 256, 3, 3]) /* ty=Tensor[(1, 256, 3, 3), float32] */;
  %122 = transpose(%121, axes=[1, 0, 2, 3]) /* ty=Tensor[(256, 1, 3, 3), float32] */;
  %123 = reshape(%94, newshape=[128, 1, 3, 3]) /* ty=Tensor[(128, 1, 3, 3), float32] */;
  %124 = reshape(%122, newshape=[256, 1, 3, 3]) /* ty=Tensor[(256, 1, 3, 3), float32] */;
  %125 = nn.conv2d(%123, %124, padding=[0, 0, 0, 0], channels=256, kernel_size=[3, 3]) /* ty=Tensor[(128, 256, 1, 1), float32] */;
  %126 = transpose(%125, axes=[1, 0, 2, 3]) /* ty=Tensor[(256, 128, 1, 1), float32] */;
  %127 = reshape(%126, newshape=[128, 1, 256, 1, 1]) /* ty=Tensor[(128, 1, 256, 1, 1), float32] */;
  %128 = sum(%127, axis=[1]) /* ty=Tensor[(128, 256, 1, 1), float32] */;
  %129 = zeros(shape=[1, 128, 3, 3], dtype="float32") /* ty=Tensor[(1, 128, 3, 3), float32] */;
  %130 = less(%nn_relu_30_x, %129) /* ty=Tensor[(1, 128, 3, 3), bool] */;
  %131 = nn.conv2d_transpose(%121, %param_121_train, channels=128, kernel_size=[1, 1], padding=[0, 0, 0, 0], kernel_layout="IOHW") /* ty=Tensor[(1, 128, 3, 3), float32] */;
  %132 = where(%130, %129, %131) /* ty=Tensor[(1, 128, 3, 3), float32] */;
  %133 = multiply(%132, %multiply_32_x) /* ty=Tensor[(1, 128, 3, 3), float32] */;
  %134 = multiply(%132, %param_119_train) /* ty=Tensor[(1, 128, 3, 3), float32] */;
  %135 = reshape(%nn_instance_norm_34_x, newshape=[16, 72]) /* ty=Tensor[(16, 72), float32] */;
  %136 = mean(%135, axis=[1], keepdims=True) /* ty=Tensor[(16, 1), float32] */;
  %137 = subtract(%135, %136) /* ty=Tensor[(16, 72), float32] */;
  %138 = power(%137, 2f /* ty=float32 */) /* ty=Tensor[(16, 72), float32] */;
  %139 = mean(%138, axis=[1], keepdims=True) /* ty=Tensor[(16, 1), float32] */;
  %140 = add(%139, 1e-05f /* ty=float32 */) /* ty=Tensor[(16, 1), float32] */;
  %141 = sqrt(%140) /* ty=Tensor[(16, 1), float32] */;
  %142 = divide(1f /* ty=float32 */, %141) /* ty=Tensor[(16, 1), float32] */;
  %143 = repeat(%142, repeats=1, axis=0) /* ty=Tensor[(16, 1), float32] */;
  %144 = reshape(%134, newshape=[16, 72]) /* ty=Tensor[(16, 72), float32] */;
  %145 = reshape(%143, newshape=[16, 1]) /* ty=Tensor[(16, 1), float32] */;
  %146 = multiply(%144, %137) /* ty=Tensor[(16, 72), float32] */;
  %147 = sum(%146, axis=[1], keepdims=True) /* ty=Tensor[(16, 1), float32] */;
  %148 = multiply(-0.5f /* ty=float32 */, %147) /* ty=Tensor[(16, 1), float32] */;
  %149 = power(%145, 3f /* ty=float32 */) /* ty=Tensor[(16, 1), float32] */;
  %150 = multiply(%148, %149) /* ty=Tensor[(16, 1), float32] */;
  %151 = multiply(%150, 0.0138889f /* ty=float32 */) /* ty=Tensor[(16, 1), float32] */;
  %152 = multiply(%137, %151) /* ty=Tensor[(16, 72), float32] */;
  %153 = multiply(%144, %145) /* ty=Tensor[(16, 72), float32] */;
  %154 = multiply(%152, 2f /* ty=float32 */) /* ty=Tensor[(16, 72), float32] */;
  %155 = add(%153, %154) /* ty=Tensor[(16, 72), float32] */;
  %156 = sum(%155, axis=[1], keepdims=True) /* ty=Tensor[(16, 1), float32] */;
  %157 = negative(%156) /* ty=Tensor[(16, 1), float32] */;
  %158 = multiply(%157, 0.0138889f /* ty=float32 */) /* ty=Tensor[(16, 1), float32] */;
  %159 = add(%155, %158) /* ty=Tensor[(16, 72), float32] */;
  %160 = reshape(%159, newshape=[1, 128, 3, 3]) /* ty=Tensor[(1, 128, 3, 3), float32] */;
  %161 = tile(%160, reps=[1, 1, 1, 1]) /* ty=Tensor[(1, 128, 3, 3), float32] */;
  %162 = reshape(%nn_conv2d_36_x, newshape=[1, -1, 0, 0]) /* ty=Tensor[(1, 128, 6, 6), float32] */;
  %163 = reshape(%161, newshape=[-1, 1, 0, 0]) /* ty=Tensor[(128, 1, 3, 3), float32] */;
  %164 = nn.conv2d(%162, %163, padding=[1, 1, 1, 1], dilation=[2, 2], groups=128, channels=128, kernel_size=[3, 3]) /* ty=Tensor[(1, 128, 4, 4), float32] */;
  %165 = reshape(%164, newshape=[1, 1, 128, 4, 4]) /* ty=Tensor[(1, 1, 128, 4, 4), float32] */;
  %166 = sum(%165, axis=[0]) /* ty=Tensor[(1, 128, 4, 4), float32] */;
  %167 = transpose(%166, axes=[1, 0, 2, 3]) /* ty=Tensor[(128, 1, 4, 4), float32] */;
  %168 = zeros(shape=[1, 128, 6, 6], dtype="float32") /* ty=Tensor[(1, 128, 6, 6), float32] */;
  %169 = less(%nn_relu_37_x, %168) /* ty=Tensor[(1, 128, 6, 6), bool] */;
  %170 = nn.conv2d_transpose(%160, %param_116_train, channels=128, kernel_size=[3, 3], strides=[2, 2], output_padding=[1, 1], padding=[1, 1, 1, 1], groups=128, kernel_layout="IOHW") /* ty=Tensor[(1, 128, 6, 6), float32] */;
  %171 = where(%169, %168, %170) /* ty=Tensor[(1, 128, 6, 6), float32] */;
  %172 = multiply(%171, %multiply_39_x) /* ty=Tensor[(1, 128, 6, 6), float32] */;
  %173 = transpose(%nn_conv2d_43_x, axes=[1, 0, 2, 3]) /* ty=Tensor[(128, 1, 6, 6), float32] */;
  %174 = multiply(%171, %param_114_train) /* ty=Tensor[(1, 128, 6, 6), float32] */;
  %175 = reshape(%nn_instance_norm_41_x, newshape=[16, 288]) /* ty=Tensor[(16, 288), float32] */;
  %176 = mean(%175, axis=[1], keepdims=True) /* ty=Tensor[(16, 1), float32] */;
  %177 = subtract(%175, %176) /* ty=Tensor[(16, 288), float32] */;
  %178 = power(%177, 2f /* ty=float32 */) /* ty=Tensor[(16, 288), float32] */;
  %179 = mean(%178, axis=[1], keepdims=True) /* ty=Tensor[(16, 1), float32] */;
  %180 = add(%179, 1e-05f /* ty=float32 */) /* ty=Tensor[(16, 1), float32] */;
  %181 = sqrt(%180) /* ty=Tensor[(16, 1), float32] */;
  %182 = divide(1f /* ty=float32 */, %181) /* ty=Tensor[(16, 1), float32] */;
  %183 = repeat(%182, repeats=1, axis=0) /* ty=Tensor[(16, 1), float32] */;
  %184 = reshape(%174, newshape=[16, 288]) /* ty=Tensor[(16, 288), float32] */;
  %185 = reshape(%183, newshape=[16, 1]) /* ty=Tensor[(16, 1), float32] */;
  %186 = multiply(%184, %177) /* ty=Tensor[(16, 288), float32] */;
  %187 = sum(%186, axis=[1], keepdims=True) /* ty=Tensor[(16, 1), float32] */;
  %188 = multiply(-0.5f /* ty=float32 */, %187) /* ty=Tensor[(16, 1), float32] */;
  %189 = power(%185, 3f /* ty=float32 */) /* ty=Tensor[(16, 1), float32] */;
  %190 = multiply(%188, %189) /* ty=Tensor[(16, 1), float32] */;
  %191 = multiply(%190, 0.00347222f /* ty=float32 */) /* ty=Tensor[(16, 1), float32] */;
  %192 = multiply(%177, %191) /* ty=Tensor[(16, 288), float32] */;
  %193 = multiply(%184, %185) /* ty=Tensor[(16, 288), float32] */;
  %194 = multiply(%192, 2f /* ty=float32 */) /* ty=Tensor[(16, 288), float32] */;
  %195 = add(%193, %194) /* ty=Tensor[(16, 288), float32] */;
  %196 = sum(%195, axis=[1], keepdims=True) /* ty=Tensor[(16, 1), float32] */;
  %197 = negative(%196) /* ty=Tensor[(16, 1), float32] */;
  %198 = multiply(%197, 0.00347222f /* ty=float32 */) /* ty=Tensor[(16, 1), float32] */;
  %199 = add(%195, %198) /* ty=Tensor[(16, 288), float32] */;
  %200 = reshape(%199, newshape=[1, 128, 6, 6]) /* ty=Tensor[(1, 128, 6, 6), float32] */;
  %201 = transpose(%200, axes=[1, 0, 2, 3]) /* ty=Tensor[(128, 1, 6, 6), float32] */;
  %202 = reshape(%173, newshape=[128, 1, 6, 6]) /* ty=Tensor[(128, 1, 6, 6), float32] */;
  %203 = reshape(%201, newshape=[128, 1, 6, 6]) /* ty=Tensor[(128, 1, 6, 6), float32] */;
  %204 = nn.conv2d(%202, %203, padding=[0, 0, 0, 0], channels=128, kernel_size=[6, 6]) /* ty=Tensor[(128, 128, 1, 1), float32] */;
  %205 = transpose(%204, axes=[1, 0, 2, 3]) /* ty=Tensor[(128, 128, 1, 1), float32] */;
  %206 = reshape(%205, newshape=[128, 1, 128, 1, 1]) /* ty=Tensor[(128, 1, 128, 1, 1), float32] */;
  %207 = sum(%206, axis=[1]) /* ty=Tensor[(128, 128, 1, 1), float32] */;
  %208 = zeros(shape=[1, 128, 6, 6], dtype="float32") /* ty=Tensor[(1, 128, 6, 6), float32] */;
  %209 = less(%nn_relu_44_x, %208) /* ty=Tensor[(1, 128, 6, 6), bool] */;
  %210 = nn.conv2d_transpose(%200, %param_111_train, channels=128, kernel_size=[1, 1], padding=[0, 0, 0, 0], kernel_layout="IOHW") /* ty=Tensor[(1, 128, 6, 6), float32] */;
  %211 = where(%209, %208, %210) /* ty=Tensor[(1, 128, 6, 6), float32] */;
  %212 = multiply(%211, %multiply_46_x) /* ty=Tensor[(1, 128, 6, 6), float32] */;
  %213 = multiply(%211, %param_109_train) /* ty=Tensor[(1, 128, 6, 6), float32] */;
  %214 = reshape(%nn_instance_norm_48_x, newshape=[16, 288]) /* ty=Tensor[(16, 288), float32] */;
  %215 = mean(%214, axis=[1], keepdims=True) /* ty=Tensor[(16, 1), float32] */;
  %216 = subtract(%214, %215) /* ty=Tensor[(16, 288), float32] */;
  %217 = power(%216, 2f /* ty=float32 */) /* ty=Tensor[(16, 288), float32] */;
  %218 = mean(%217, axis=[1], keepdims=True) /* ty=Tensor[(16, 1), float32] */;
  %219 = add(%218, 1e-05f /* ty=float32 */) /* ty=Tensor[(16, 1), float32] */;
  %220 = sqrt(%219) /* ty=Tensor[(16, 1), float32] */;
  %221 = divide(1f /* ty=float32 */, %220) /* ty=Tensor[(16, 1), float32] */;
  %222 = repeat(%221, repeats=1, axis=0) /* ty=Tensor[(16, 1), float32] */;
  %223 = reshape(%213, newshape=[16, 288]) /* ty=Tensor[(16, 288), float32] */;
  %224 = reshape(%222, newshape=[16, 1]) /* ty=Tensor[(16, 1), float32] */;
  %225 = multiply(%223, %216) /* ty=Tensor[(16, 288), float32] */;
  %226 = sum(%225, axis=[1], keepdims=True) /* ty=Tensor[(16, 1), float32] */;
  %227 = multiply(-0.5f /* ty=float32 */, %226) /* ty=Tensor[(16, 1), float32] */;
  %228 = power(%224, 3f /* ty=float32 */) /* ty=Tensor[(16, 1), float32] */;
  %229 = multiply(%227, %228) /* ty=Tensor[(16, 1), float32] */;
  %230 = multiply(%229, 0.00347222f /* ty=float32 */) /* ty=Tensor[(16, 1), float32] */;
  %231 = multiply(%216, %230) /* ty=Tensor[(16, 288), float32] */;
  %232 = multiply(%223, %224) /* ty=Tensor[(16, 288), float32] */;
  %233 = multiply(%231, 2f /* ty=float32 */) /* ty=Tensor[(16, 288), float32] */;
  %234 = add(%232, %233) /* ty=Tensor[(16, 288), float32] */;
  %235 = sum(%234, axis=[1], keepdims=True) /* ty=Tensor[(16, 1), float32] */;
  %236 = negative(%235) /* ty=Tensor[(16, 1), float32] */;
  %237 = multiply(%236, 0.00347222f /* ty=float32 */) /* ty=Tensor[(16, 1), float32] */;
  %238 = add(%234, %237) /* ty=Tensor[(16, 288), float32] */;
  %239 = reshape(%238, newshape=[1, 128, 6, 6]) /* ty=Tensor[(1, 128, 6, 6), float32] */;
  %240 = tile(%239, reps=[1, 1, 1, 1]) /* ty=Tensor[(1, 128, 6, 6), float32] */;
  %241 = reshape(%nn_conv2d_50_x, newshape=[1, -1, 0, 0]) /* ty=Tensor[(1, 128, 6, 6), float32] */;
  %242 = reshape(%240, newshape=[-1, 1, 0, 0]) /* ty=Tensor[(128, 1, 6, 6), float32] */;
  %243 = nn.conv2d(%241, %242, padding=[1, 1, 1, 1], groups=128, channels=128, kernel_size=[6, 6]) /* ty=Tensor[(1, 128, 3, 3), float32] */;
  %244 = reshape(%243, newshape=[1, 1, 128, 3, 3]) /* ty=Tensor[(1, 1, 128, 3, 3), float32] */;
  %245 = sum(%244, axis=[0]) /* ty=Tensor[(1, 128, 3, 3), float32] */;
  %246 = zeros(shape=[1, 128, 6, 6], dtype="float32") /* ty=Tensor[(1, 128, 6, 6), float32] */;
  %247 = less(%nn_relu_51_x, %246) /* ty=Tensor[(1, 128, 6, 6), bool] */;
  %248 = nn.conv2d_transpose(%239, %param_106_train, channels=128, kernel_size=[3, 3], padding=[1, 1, 1, 1], groups=128, kernel_layout="IOHW") /* ty=Tensor[(1, 128, 6, 6), float32] */;
  %249 = where(%247, %246, %248) /* ty=Tensor[(1, 128, 6, 6), float32] */;
  %250 = multiply(%249, %multiply_53_x) /* ty=Tensor[(1, 128, 6, 6), float32] */;
  %251 = transpose(%nn_conv2d_57_x, axes=[1, 0, 2, 3]) /* ty=Tensor[(128, 1, 6, 6), float32] */;
  %252 = multiply(%249, %param_104_train) /* ty=Tensor[(1, 128, 6, 6), float32] */;
  %253 = reshape(%nn_instance_norm_55_x, newshape=[16, 288]) /* ty=Tensor[(16, 288), float32] */;
  %254 = mean(%253, axis=[1], keepdims=True) /* ty=Tensor[(16, 1), float32] */;
  %255 = subtract(%253, %254) /* ty=Tensor[(16, 288), float32] */;
  %256 = power(%255, 2f /* ty=float32 */) /* ty=Tensor[(16, 288), float32] */;
  %257 = mean(%256, axis=[1], keepdims=True) /* ty=Tensor[(16, 1), float32] */;
  %258 = add(%257, 1e-05f /* ty=float32 */) /* ty=Tensor[(16, 1), float32] */;
  %259 = sqrt(%258) /* ty=Tensor[(16, 1), float32] */;
  %260 = divide(1f /* ty=float32 */, %259) /* ty=Tensor[(16, 1), float32] */;
  %261 = repeat(%260, repeats=1, axis=0) /* ty=Tensor[(16, 1), float32] */;
  %262 = reshape(%252, newshape=[16, 288]) /* ty=Tensor[(16, 288), float32] */;
  %263 = reshape(%261, newshape=[16, 1]) /* ty=Tensor[(16, 1), float32] */;
  %264 = multiply(%262, %255) /* ty=Tensor[(16, 288), float32] */;
  %265 = sum(%264, axis=[1], keepdims=True) /* ty=Tensor[(16, 1), float32] */;
  %266 = multiply(-0.5f /* ty=float32 */, %265) /* ty=Tensor[(16, 1), float32] */;
  %267 = power(%263, 3f /* ty=float32 */) /* ty=Tensor[(16, 1), float32] */;
  %268 = multiply(%266, %267) /* ty=Tensor[(16, 1), float32] */;
  %269 = multiply(%268, 0.00347222f /* ty=float32 */) /* ty=Tensor[(16, 1), float32] */;
  %270 = multiply(%255, %269) /* ty=Tensor[(16, 288), float32] */;
  %271 = multiply(%262, %263) /* ty=Tensor[(16, 288), float32] */;
  %272 = multiply(%270, 2f /* ty=float32 */) /* ty=Tensor[(16, 288), float32] */;
  %273 = add(%271, %272) /* ty=Tensor[(16, 288), float32] */;
  %274 = sum(%273, axis=[1], keepdims=True) /* ty=Tensor[(16, 1), float32] */;
  %275 = negative(%274) /* ty=Tensor[(16, 1), float32] */;
  %276 = multiply(%275, 0.00347222f /* ty=float32 */) /* ty=Tensor[(16, 1), float32] */;
  %277 = add(%273, %276) /* ty=Tensor[(16, 288), float32] */;
  %278 = reshape(%277, newshape=[1, 128, 6, 6]) /* ty=Tensor[(1, 128, 6, 6), float32] */;
  %279 = transpose(%278, axes=[1, 0, 2, 3]) /* ty=Tensor[(128, 1, 6, 6), float32] */;
  %280 = reshape(%251, newshape=[128, 1, 6, 6]) /* ty=Tensor[(128, 1, 6, 6), float32] */;
  %281 = reshape(%279, newshape=[128, 1, 6, 6]) /* ty=Tensor[(128, 1, 6, 6), float32] */;
  %282 = nn.conv2d(%280, %281, padding=[0, 0, 0, 0], channels=128, kernel_size=[6, 6]) /* ty=Tensor[(128, 128, 1, 1), float32] */;
  %283 = transpose(%282, axes=[1, 0, 2, 3]) /* ty=Tensor[(128, 128, 1, 1), float32] */;
  %284 = reshape(%283, newshape=[128, 1, 128, 1, 1]) /* ty=Tensor[(128, 1, 128, 1, 1), float32] */;
  %285 = sum(%284, axis=[1]) /* ty=Tensor[(128, 128, 1, 1), float32] */;
  %286 = zeros(shape=[1, 128, 6, 6], dtype="float32") /* ty=Tensor[(1, 128, 6, 6), float32] */;
  %287 = less(%nn_relu_58_x, %286) /* ty=Tensor[(1, 128, 6, 6), bool] */;
  %288 = nn.conv2d_transpose(%278, %param_101_train, channels=128, kernel_size=[1, 1], padding=[0, 0, 0, 0], kernel_layout="IOHW") /* ty=Tensor[(1, 128, 6, 6), float32] */;
  %289 = where(%287, %286, %288) /* ty=Tensor[(1, 128, 6, 6), float32] */;
  %290 = multiply(%289, %multiply_60_x) /* ty=Tensor[(1, 128, 6, 6), float32] */;
  %291 = multiply(%289, %param_99_train) /* ty=Tensor[(1, 128, 6, 6), float32] */;
  %292 = reshape(%nn_instance_norm_62_x, newshape=[16, 288]) /* ty=Tensor[(16, 288), float32] */;
  %293 = mean(%292, axis=[1], keepdims=True) /* ty=Tensor[(16, 1), float32] */;
  %294 = subtract(%292, %293) /* ty=Tensor[(16, 288), float32] */;
  %295 = power(%294, 2f /* ty=float32 */) /* ty=Tensor[(16, 288), float32] */;
  %296 = mean(%295, axis=[1], keepdims=True) /* ty=Tensor[(16, 1), float32] */;
  %297 = add(%296, 1e-05f /* ty=float32 */) /* ty=Tensor[(16, 1), float32] */;
  %298 = sqrt(%297) /* ty=Tensor[(16, 1), float32] */;
  %299 = divide(1f /* ty=float32 */, %298) /* ty=Tensor[(16, 1), float32] */;
  %300 = repeat(%299, repeats=1, axis=0) /* ty=Tensor[(16, 1), float32] */;
  %301 = reshape(%291, newshape=[16, 288]) /* ty=Tensor[(16, 288), float32] */;
  %302 = reshape(%300, newshape=[16, 1]) /* ty=Tensor[(16, 1), float32] */;
  %303 = multiply(%301, %294) /* ty=Tensor[(16, 288), float32] */;
  %304 = sum(%303, axis=[1], keepdims=True) /* ty=Tensor[(16, 1), float32] */;
  %305 = multiply(-0.5f /* ty=float32 */, %304) /* ty=Tensor[(16, 1), float32] */;
  %306 = power(%302, 3f /* ty=float32 */) /* ty=Tensor[(16, 1), float32] */;
  %307 = multiply(%305, %306) /* ty=Tensor[(16, 1), float32] */;
  %308 = multiply(%307, 0.00347222f /* ty=float32 */) /* ty=Tensor[(16, 1), float32] */;
  %309 = multiply(%294, %308) /* ty=Tensor[(16, 288), float32] */;
  %310 = multiply(%301, %302) /* ty=Tensor[(16, 288), float32] */;
  %311 = multiply(%309, 2f /* ty=float32 */) /* ty=Tensor[(16, 288), float32] */;
  %312 = add(%310, %311) /* ty=Tensor[(16, 288), float32] */;
  %313 = sum(%312, axis=[1], keepdims=True) /* ty=Tensor[(16, 1), float32] */;
  %314 = negative(%313) /* ty=Tensor[(16, 1), float32] */;
  %315 = multiply(%314, 0.00347222f /* ty=float32 */) /* ty=Tensor[(16, 1), float32] */;
  %316 = add(%312, %315) /* ty=Tensor[(16, 288), float32] */;
  %317 = reshape(%316, newshape=[1, 128, 6, 6]) /* ty=Tensor[(1, 128, 6, 6), float32] */;
  %318 = tile(%317, reps=[1, 1, 1, 1]) /* ty=Tensor[(1, 128, 6, 6), float32] */;
  %319 = reshape(%nn_conv2d_64_x, newshape=[1, -1, 0, 0]) /* ty=Tensor[(1, 128, 6, 6), float32] */;
  %320 = reshape(%318, newshape=[-1, 1, 0, 0]) /* ty=Tensor[(128, 1, 6, 6), float32] */;
  %321 = nn.conv2d(%319, %320, padding=[1, 1, 1, 1], groups=128, channels=128, kernel_size=[6, 6]) /* ty=Tensor[(1, 128, 3, 3), float32] */;
  %322 = reshape(%321, newshape=[1, 1, 128, 3, 3]) /* ty=Tensor[(1, 1, 128, 3, 3), float32] */;
  %323 = sum(%322, axis=[0]) /* ty=Tensor[(1, 128, 3, 3), float32] */;
  %324 = zeros(shape=[1, 128, 6, 6], dtype="float32") /* ty=Tensor[(1, 128, 6, 6), float32] */;
  %325 = less(%nn_relu_65_x, %324) /* ty=Tensor[(1, 128, 6, 6), bool] */;
  %326 = nn.conv2d_transpose(%317, %param_96_train, channels=128, kernel_size=[3, 3], padding=[1, 1, 1, 1], groups=128, kernel_layout="IOHW") /* ty=Tensor[(1, 128, 6, 6), float32] */;
  %327 = where(%325, %324, %326) /* ty=Tensor[(1, 128, 6, 6), float32] */;
  %328 = multiply(%327, %multiply_67_x) /* ty=Tensor[(1, 128, 6, 6), float32] */;
  %329 = transpose(%nn_conv2d_71_x, axes=[1, 0, 2, 3]) /* ty=Tensor[(128, 1, 6, 6), float32] */;
  %330 = multiply(%327, %param_94_train) /* ty=Tensor[(1, 128, 6, 6), float32] */;
  %331 = reshape(%nn_instance_norm_69_x, newshape=[16, 288]) /* ty=Tensor[(16, 288), float32] */;
  %332 = mean(%331, axis=[1], keepdims=True) /* ty=Tensor[(16, 1), float32] */;
  %333 = subtract(%331, %332) /* ty=Tensor[(16, 288), float32] */;
  %334 = power(%333, 2f /* ty=float32 */) /* ty=Tensor[(16, 288), float32] */;
  %335 = mean(%334, axis=[1], keepdims=True) /* ty=Tensor[(16, 1), float32] */;
  %336 = add(%335, 1e-05f /* ty=float32 */) /* ty=Tensor[(16, 1), float32] */;
  %337 = sqrt(%336) /* ty=Tensor[(16, 1), float32] */;
  %338 = divide(1f /* ty=float32 */, %337) /* ty=Tensor[(16, 1), float32] */;
  %339 = repeat(%338, repeats=1, axis=0) /* ty=Tensor[(16, 1), float32] */;
  %340 = reshape(%330, newshape=[16, 288]) /* ty=Tensor[(16, 288), float32] */;
  %341 = reshape(%339, newshape=[16, 1]) /* ty=Tensor[(16, 1), float32] */;
  %342 = multiply(%340, %333) /* ty=Tensor[(16, 288), float32] */;
  %343 = sum(%342, axis=[1], keepdims=True) /* ty=Tensor[(16, 1), float32] */;
  %344 = multiply(-0.5f /* ty=float32 */, %343) /* ty=Tensor[(16, 1), float32] */;
  %345 = power(%341, 3f /* ty=float32 */) /* ty=Tensor[(16, 1), float32] */;
  %346 = multiply(%344, %345) /* ty=Tensor[(16, 1), float32] */;
  %347 = multiply(%346, 0.00347222f /* ty=float32 */) /* ty=Tensor[(16, 1), float32] */;
  %348 = multiply(%333, %347) /* ty=Tensor[(16, 288), float32] */;
  %349 = multiply(%340, %341) /* ty=Tensor[(16, 288), float32] */;
  %350 = multiply(%348, 2f /* ty=float32 */) /* ty=Tensor[(16, 288), float32] */;
  %351 = add(%349, %350) /* ty=Tensor[(16, 288), float32] */;
  %352 = sum(%351, axis=[1], keepdims=True) /* ty=Tensor[(16, 1), float32] */;
  %353 = negative(%352) /* ty=Tensor[(16, 1), float32] */;
  %354 = multiply(%353, 0.00347222f /* ty=float32 */) /* ty=Tensor[(16, 1), float32] */;
  %355 = add(%351, %354) /* ty=Tensor[(16, 288), float32] */;
  %356 = reshape(%355, newshape=[1, 128, 6, 6]) /* ty=Tensor[(1, 128, 6, 6), float32] */;
  %357 = transpose(%356, axes=[1, 0, 2, 3]) /* ty=Tensor[(128, 1, 6, 6), float32] */;
  %358 = reshape(%329, newshape=[128, 1, 6, 6]) /* ty=Tensor[(128, 1, 6, 6), float32] */;
  %359 = reshape(%357, newshape=[128, 1, 6, 6]) /* ty=Tensor[(128, 1, 6, 6), float32] */;
  %360 = nn.conv2d(%358, %359, padding=[0, 0, 0, 0], channels=128, kernel_size=[6, 6]) /* ty=Tensor[(128, 128, 1, 1), float32] */;
  %361 = transpose(%360, axes=[1, 0, 2, 3]) /* ty=Tensor[(128, 128, 1, 1), float32] */;
  %362 = reshape(%361, newshape=[128, 1, 128, 1, 1]) /* ty=Tensor[(128, 1, 128, 1, 1), float32] */;
  %363 = sum(%362, axis=[1]) /* ty=Tensor[(128, 128, 1, 1), float32] */;
  %364 = zeros(shape=[1, 128, 6, 6], dtype="float32") /* ty=Tensor[(1, 128, 6, 6), float32] */;
  %365 = less(%nn_relu_72_x, %364) /* ty=Tensor[(1, 128, 6, 6), bool] */;
  %366 = nn.conv2d_transpose(%356, %param_91_train, channels=128, kernel_size=[1, 1], padding=[0, 0, 0, 0], kernel_layout="IOHW") /* ty=Tensor[(1, 128, 6, 6), float32] */;
  %367 = where(%365, %364, %366) /* ty=Tensor[(1, 128, 6, 6), float32] */;
  %368 = multiply(%367, %multiply_74_x) /* ty=Tensor[(1, 128, 6, 6), float32] */;
  %369 = multiply(%367, %param_89_train) /* ty=Tensor[(1, 128, 6, 6), float32] */;
  %370 = reshape(%nn_instance_norm_76_x, newshape=[16, 288]) /* ty=Tensor[(16, 288), float32] */;
  %371 = mean(%370, axis=[1], keepdims=True) /* ty=Tensor[(16, 1), float32] */;
  %372 = subtract(%370, %371) /* ty=Tensor[(16, 288), float32] */;
  %373 = power(%372, 2f /* ty=float32 */) /* ty=Tensor[(16, 288), float32] */;
  %374 = mean(%373, axis=[1], keepdims=True) /* ty=Tensor[(16, 1), float32] */;
  %375 = add(%374, 1e-05f /* ty=float32 */) /* ty=Tensor[(16, 1), float32] */;
  %376 = sqrt(%375) /* ty=Tensor[(16, 1), float32] */;
  %377 = divide(1f /* ty=float32 */, %376) /* ty=Tensor[(16, 1), float32] */;
  %378 = repeat(%377, repeats=1, axis=0) /* ty=Tensor[(16, 1), float32] */;
  %379 = reshape(%369, newshape=[16, 288]) /* ty=Tensor[(16, 288), float32] */;
  %380 = reshape(%378, newshape=[16, 1]) /* ty=Tensor[(16, 1), float32] */;
  %381 = multiply(%379, %372) /* ty=Tensor[(16, 288), float32] */;
  %382 = sum(%381, axis=[1], keepdims=True) /* ty=Tensor[(16, 1), float32] */;
  %383 = multiply(-0.5f /* ty=float32 */, %382) /* ty=Tensor[(16, 1), float32] */;
  %384 = power(%380, 3f /* ty=float32 */) /* ty=Tensor[(16, 1), float32] */;
  %385 = multiply(%383, %384) /* ty=Tensor[(16, 1), float32] */;
  %386 = multiply(%385, 0.00347222f /* ty=float32 */) /* ty=Tensor[(16, 1), float32] */;
  %387 = multiply(%372, %386) /* ty=Tensor[(16, 288), float32] */;
  %388 = multiply(%379, %380) /* ty=Tensor[(16, 288), float32] */;
  %389 = multiply(%387, 2f /* ty=float32 */) /* ty=Tensor[(16, 288), float32] */;
  %390 = add(%388, %389) /* ty=Tensor[(16, 288), float32] */;
  %391 = sum(%390, axis=[1], keepdims=True) /* ty=Tensor[(16, 1), float32] */;
  %392 = negative(%391) /* ty=Tensor[(16, 1), float32] */;
  %393 = multiply(%392, 0.00347222f /* ty=float32 */) /* ty=Tensor[(16, 1), float32] */;
  %394 = add(%390, %393) /* ty=Tensor[(16, 288), float32] */;
  %395 = reshape(%394, newshape=[1, 128, 6, 6]) /* ty=Tensor[(1, 128, 6, 6), float32] */;
  %396 = tile(%395, reps=[1, 1, 1, 1]) /* ty=Tensor[(1, 128, 6, 6), float32] */;
  %397 = reshape(%nn_conv2d_78_x, newshape=[1, -1, 0, 0]) /* ty=Tensor[(1, 128, 6, 6), float32] */;
  %398 = reshape(%396, newshape=[-1, 1, 0, 0]) /* ty=Tensor[(128, 1, 6, 6), float32] */;
  %399 = nn.conv2d(%397, %398, padding=[1, 1, 1, 1], groups=128, channels=128, kernel_size=[6, 6]) /* ty=Tensor[(1, 128, 3, 3), float32] */;
  %400 = reshape(%399, newshape=[1, 1, 128, 3, 3]) /* ty=Tensor[(1, 1, 128, 3, 3), float32] */;
  %401 = sum(%400, axis=[0]) /* ty=Tensor[(1, 128, 3, 3), float32] */;
  %402 = zeros(shape=[1, 128, 6, 6], dtype="float32") /* ty=Tensor[(1, 128, 6, 6), float32] */;
  %403 = less(%nn_relu_79_x, %402) /* ty=Tensor[(1, 128, 6, 6), bool] */;
  %404 = nn.conv2d_transpose(%395, %param_86_train, channels=128, kernel_size=[3, 3], padding=[1, 1, 1, 1], groups=128, kernel_layout="IOHW") /* ty=Tensor[(1, 128, 6, 6), float32] */;
  %405 = where(%403, %402, %404) /* ty=Tensor[(1, 128, 6, 6), float32] */;
  %406 = multiply(%405, %multiply_81_x) /* ty=Tensor[(1, 128, 6, 6), float32] */;
  %407 = transpose(%nn_conv2d_85_x, axes=[1, 0, 2, 3]) /* ty=Tensor[(128, 1, 6, 6), float32] */;
  %408 = multiply(%405, %param_84_train) /* ty=Tensor[(1, 128, 6, 6), float32] */;
  %409 = reshape(%nn_instance_norm_83_x, newshape=[16, 288]) /* ty=Tensor[(16, 288), float32] */;
  %410 = mean(%409, axis=[1], keepdims=True) /* ty=Tensor[(16, 1), float32] */;
  %411 = subtract(%409, %410) /* ty=Tensor[(16, 288), float32] */;
  %412 = power(%411, 2f /* ty=float32 */) /* ty=Tensor[(16, 288), float32] */;
  %413 = mean(%412, axis=[1], keepdims=True) /* ty=Tensor[(16, 1), float32] */;
  %414 = add(%413, 1e-05f /* ty=float32 */) /* ty=Tensor[(16, 1), float32] */;
  %415 = sqrt(%414) /* ty=Tensor[(16, 1), float32] */;
  %416 = divide(1f /* ty=float32 */, %415) /* ty=Tensor[(16, 1), float32] */;
  %417 = repeat(%416, repeats=1, axis=0) /* ty=Tensor[(16, 1), float32] */;
  %418 = reshape(%408, newshape=[16, 288]) /* ty=Tensor[(16, 288), float32] */;
  %419 = reshape(%417, newshape=[16, 1]) /* ty=Tensor[(16, 1), float32] */;
  %420 = multiply(%418, %411) /* ty=Tensor[(16, 288), float32] */;
  %421 = sum(%420, axis=[1], keepdims=True) /* ty=Tensor[(16, 1), float32] */;
  %422 = multiply(-0.5f /* ty=float32 */, %421) /* ty=Tensor[(16, 1), float32] */;
  %423 = power(%419, 3f /* ty=float32 */) /* ty=Tensor[(16, 1), float32] */;
  %424 = multiply(%422, %423) /* ty=Tensor[(16, 1), float32] */;
  %425 = multiply(%424, 0.00347222f /* ty=float32 */) /* ty=Tensor[(16, 1), float32] */;
  %426 = multiply(%411, %425) /* ty=Tensor[(16, 288), float32] */;
  %427 = multiply(%418, %419) /* ty=Tensor[(16, 288), float32] */;
  %428 = multiply(%426, 2f /* ty=float32 */) /* ty=Tensor[(16, 288), float32] */;
  %429 = add(%427, %428) /* ty=Tensor[(16, 288), float32] */;
  %430 = sum(%429, axis=[1], keepdims=True) /* ty=Tensor[(16, 1), float32] */;
  %431 = negative(%430) /* ty=Tensor[(16, 1), float32] */;
  %432 = multiply(%431, 0.00347222f /* ty=float32 */) /* ty=Tensor[(16, 1), float32] */;
  %433 = add(%429, %432) /* ty=Tensor[(16, 288), float32] */;
  %434 = reshape(%433, newshape=[1, 128, 6, 6]) /* ty=Tensor[(1, 128, 6, 6), float32] */;
  %435 = transpose(%434, axes=[1, 0, 2, 3]) /* ty=Tensor[(128, 1, 6, 6), float32] */;
  %436 = reshape(%407, newshape=[128, 1, 6, 6]) /* ty=Tensor[(128, 1, 6, 6), float32] */;
  %437 = reshape(%435, newshape=[128, 1, 6, 6]) /* ty=Tensor[(128, 1, 6, 6), float32] */;
  %438 = nn.conv2d(%436, %437, padding=[0, 0, 0, 0], channels=128, kernel_size=[6, 6]) /* ty=Tensor[(128, 128, 1, 1), float32] */;
  %439 = transpose(%438, axes=[1, 0, 2, 3]) /* ty=Tensor[(128, 128, 1, 1), float32] */;
  %440 = reshape(%439, newshape=[128, 1, 128, 1, 1]) /* ty=Tensor[(128, 1, 128, 1, 1), float32] */;
  %441 = sum(%440, axis=[1]) /* ty=Tensor[(128, 128, 1, 1), float32] */;
  %442 = zeros(shape=[1, 128, 6, 6], dtype="float32") /* ty=Tensor[(1, 128, 6, 6), float32] */;
  %443 = less(%nn_relu_86_x, %442) /* ty=Tensor[(1, 128, 6, 6), bool] */;
  %444 = nn.conv2d_transpose(%434, %param_81_train, channels=128, kernel_size=[1, 1], padding=[0, 0, 0, 0], kernel_layout="IOHW") /* ty=Tensor[(1, 128, 6, 6), float32] */;
  %445 = where(%443, %442, %444) /* ty=Tensor[(1, 128, 6, 6), float32] */;
  %446 = multiply(%445, %multiply_88_x) /* ty=Tensor[(1, 128, 6, 6), float32] */;
  %447 = multiply(%445, %param_79_train) /* ty=Tensor[(1, 128, 6, 6), float32] */;
  %448 = reshape(%nn_instance_norm_90_x, newshape=[16, 288]) /* ty=Tensor[(16, 288), float32] */;
  %449 = mean(%448, axis=[1], keepdims=True) /* ty=Tensor[(16, 1), float32] */;
  %450 = subtract(%448, %449) /* ty=Tensor[(16, 288), float32] */;
  %451 = power(%450, 2f /* ty=float32 */) /* ty=Tensor[(16, 288), float32] */;
  %452 = mean(%451, axis=[1], keepdims=True) /* ty=Tensor[(16, 1), float32] */;
  %453 = add(%452, 1e-05f /* ty=float32 */) /* ty=Tensor[(16, 1), float32] */;
  %454 = sqrt(%453) /* ty=Tensor[(16, 1), float32] */;
  %455 = divide(1f /* ty=float32 */, %454) /* ty=Tensor[(16, 1), float32] */;
  %456 = repeat(%455, repeats=1, axis=0) /* ty=Tensor[(16, 1), float32] */;
  %457 = reshape(%447, newshape=[16, 288]) /* ty=Tensor[(16, 288), float32] */;
  %458 = reshape(%456, newshape=[16, 1]) /* ty=Tensor[(16, 1), float32] */;
  %459 = multiply(%457, %450) /* ty=Tensor[(16, 288), float32] */;
  %460 = sum(%459, axis=[1], keepdims=True) /* ty=Tensor[(16, 1), float32] */;
  %461 = multiply(-0.5f /* ty=float32 */, %460) /* ty=Tensor[(16, 1), float32] */;
  %462 = power(%458, 3f /* ty=float32 */) /* ty=Tensor[(16, 1), float32] */;
  %463 = multiply(%461, %462) /* ty=Tensor[(16, 1), float32] */;
  %464 = multiply(%463, 0.00347222f /* ty=float32 */) /* ty=Tensor[(16, 1), float32] */;
  %465 = multiply(%450, %464) /* ty=Tensor[(16, 288), float32] */;
  %466 = multiply(%457, %458) /* ty=Tensor[(16, 288), float32] */;
  %467 = multiply(%465, 2f /* ty=float32 */) /* ty=Tensor[(16, 288), float32] */;
  %468 = add(%466, %467) /* ty=Tensor[(16, 288), float32] */;
  %469 = sum(%468, axis=[1], keepdims=True) /* ty=Tensor[(16, 1), float32] */;
  %470 = negative(%469) /* ty=Tensor[(16, 1), float32] */;
  %471 = multiply(%470, 0.00347222f /* ty=float32 */) /* ty=Tensor[(16, 1), float32] */;
  %472 = add(%468, %471) /* ty=Tensor[(16, 288), float32] */;
  %473 = reshape(%472, newshape=[1, 128, 6, 6]) /* ty=Tensor[(1, 128, 6, 6), float32] */;
  %474 = tile(%473, reps=[1, 1, 1, 1]) /* ty=Tensor[(1, 128, 6, 6), float32] */;
  %475 = reshape(%nn_conv2d_92_x, newshape=[1, -1, 0, 0]) /* ty=Tensor[(1, 128, 6, 6), float32] */;
  %476 = reshape(%474, newshape=[-1, 1, 0, 0]) /* ty=Tensor[(128, 1, 6, 6), float32] */;
  %477 = nn.conv2d(%475, %476, padding=[1, 1, 1, 1], groups=128, channels=128, kernel_size=[6, 6]) /* ty=Tensor[(1, 128, 3, 3), float32] */;
  %478 = reshape(%477, newshape=[1, 1, 128, 3, 3]) /* ty=Tensor[(1, 1, 128, 3, 3), float32] */;
  %479 = sum(%478, axis=[0]) /* ty=Tensor[(1, 128, 3, 3), float32] */;
  %480 = zeros(shape=[1, 128, 6, 6], dtype="float32") /* ty=Tensor[(1, 128, 6, 6), float32] */;
  %481 = less(%nn_relu_93_x, %480) /* ty=Tensor[(1, 128, 6, 6), bool] */;
  %482 = nn.conv2d_transpose(%473, %param_76_train, channels=128, kernel_size=[3, 3], padding=[1, 1, 1, 1], groups=128, kernel_layout="IOHW") /* ty=Tensor[(1, 128, 6, 6), float32] */;
  %483 = where(%481, %480, %482) /* ty=Tensor[(1, 128, 6, 6), float32] */;
  %484 = multiply(%483, %multiply_95_x) /* ty=Tensor[(1, 128, 6, 6), float32] */;
  %485 = transpose(%nn_conv2d_99_x, axes=[1, 0, 2, 3]) /* ty=Tensor[(128, 1, 6, 6), float32] */;
  %486 = multiply(%483, %param_74_train) /* ty=Tensor[(1, 128, 6, 6), float32] */;
  %487 = reshape(%nn_instance_norm_97_x, newshape=[16, 288]) /* ty=Tensor[(16, 288), float32] */;
  %488 = mean(%487, axis=[1], keepdims=True) /* ty=Tensor[(16, 1), float32] */;
  %489 = subtract(%487, %488) /* ty=Tensor[(16, 288), float32] */;
  %490 = power(%489, 2f /* ty=float32 */) /* ty=Tensor[(16, 288), float32] */;
  %491 = mean(%490, axis=[1], keepdims=True) /* ty=Tensor[(16, 1), float32] */;
  %492 = add(%491, 1e-05f /* ty=float32 */) /* ty=Tensor[(16, 1), float32] */;
  %493 = sqrt(%492) /* ty=Tensor[(16, 1), float32] */;
  %494 = divide(1f /* ty=float32 */, %493) /* ty=Tensor[(16, 1), float32] */;
  %495 = repeat(%494, repeats=1, axis=0) /* ty=Tensor[(16, 1), float32] */;
  %496 = reshape(%486, newshape=[16, 288]) /* ty=Tensor[(16, 288), float32] */;
  %497 = reshape(%495, newshape=[16, 1]) /* ty=Tensor[(16, 1), float32] */;
  %498 = multiply(%496, %489) /* ty=Tensor[(16, 288), float32] */;
  %499 = sum(%498, axis=[1], keepdims=True) /* ty=Tensor[(16, 1), float32] */;
  %500 = multiply(-0.5f /* ty=float32 */, %499) /* ty=Tensor[(16, 1), float32] */;
  %501 = power(%497, 3f /* ty=float32 */) /* ty=Tensor[(16, 1), float32] */;
  %502 = multiply(%500, %501) /* ty=Tensor[(16, 1), float32] */;
  %503 = multiply(%502, 0.00347222f /* ty=float32 */) /* ty=Tensor[(16, 1), float32] */;
  %504 = multiply(%489, %503) /* ty=Tensor[(16, 288), float32] */;
  %505 = multiply(%496, %497) /* ty=Tensor[(16, 288), float32] */;
  %506 = multiply(%504, 2f /* ty=float32 */) /* ty=Tensor[(16, 288), float32] */;
  %507 = add(%505, %506) /* ty=Tensor[(16, 288), float32] */;
  %508 = sum(%507, axis=[1], keepdims=True) /* ty=Tensor[(16, 1), float32] */;
  %509 = negative(%508) /* ty=Tensor[(16, 1), float32] */;
  %510 = multiply(%509, 0.00347222f /* ty=float32 */) /* ty=Tensor[(16, 1), float32] */;
  %511 = add(%507, %510) /* ty=Tensor[(16, 288), float32] */;
  %512 = reshape(%511, newshape=[1, 128, 6, 6]) /* ty=Tensor[(1, 128, 6, 6), float32] */;
  %513 = transpose(%512, axes=[1, 0, 2, 3]) /* ty=Tensor[(128, 1, 6, 6), float32] */;
  %514 = reshape(%485, newshape=[128, 1, 6, 6]) /* ty=Tensor[(128, 1, 6, 6), float32] */;
  %515 = reshape(%513, newshape=[128, 1, 6, 6]) /* ty=Tensor[(128, 1, 6, 6), float32] */;
  %516 = nn.conv2d(%514, %515, padding=[0, 0, 0, 0], channels=128, kernel_size=[6, 6]) /* ty=Tensor[(128, 128, 1, 1), float32] */;
  %517 = transpose(%516, axes=[1, 0, 2, 3]) /* ty=Tensor[(128, 128, 1, 1), float32] */;
  %518 = reshape(%517, newshape=[128, 1, 128, 1, 1]) /* ty=Tensor[(128, 1, 128, 1, 1), float32] */;
  %519 = sum(%518, axis=[1]) /* ty=Tensor[(128, 128, 1, 1), float32] */;
  %520 = zeros(shape=[1, 128, 6, 6], dtype="float32") /* ty=Tensor[(1, 128, 6, 6), float32] */;
  %521 = less(%nn_relu_100_x, %520) /* ty=Tensor[(1, 128, 6, 6), bool] */;
  %522 = nn.conv2d_transpose(%512, %param_71_train, channels=128, kernel_size=[1, 1], padding=[0, 0, 0, 0], kernel_layout="IOHW") /* ty=Tensor[(1, 128, 6, 6), float32] */;
  %523 = where(%521, %520, %522) /* ty=Tensor[(1, 128, 6, 6), float32] */;
  %524 = multiply(%523, %multiply_102_x) /* ty=Tensor[(1, 128, 6, 6), float32] */;
  %525 = multiply(%523, %param_69_train) /* ty=Tensor[(1, 128, 6, 6), float32] */;
  %526 = reshape(%nn_instance_norm_104_x, newshape=[16, 288]) /* ty=Tensor[(16, 288), float32] */;
  %527 = mean(%526, axis=[1], keepdims=True) /* ty=Tensor[(16, 1), float32] */;
  %528 = subtract(%526, %527) /* ty=Tensor[(16, 288), float32] */;
  %529 = power(%528, 2f /* ty=float32 */) /* ty=Tensor[(16, 288), float32] */;
  %530 = mean(%529, axis=[1], keepdims=True) /* ty=Tensor[(16, 1), float32] */;
  %531 = add(%530, 1e-05f /* ty=float32 */) /* ty=Tensor[(16, 1), float32] */;
  %532 = sqrt(%531) /* ty=Tensor[(16, 1), float32] */;
  %533 = divide(1f /* ty=float32 */, %532) /* ty=Tensor[(16, 1), float32] */;
  %534 = repeat(%533, repeats=1, axis=0) /* ty=Tensor[(16, 1), float32] */;
  %535 = reshape(%525, newshape=[16, 288]) /* ty=Tensor[(16, 288), float32] */;
  %536 = reshape(%534, newshape=[16, 1]) /* ty=Tensor[(16, 1), float32] */;
  %537 = multiply(%535, %528) /* ty=Tensor[(16, 288), float32] */;
  %538 = sum(%537, axis=[1], keepdims=True) /* ty=Tensor[(16, 1), float32] */;
  %539 = multiply(-0.5f /* ty=float32 */, %538) /* ty=Tensor[(16, 1), float32] */;
  %540 = power(%536, 3f /* ty=float32 */) /* ty=Tensor[(16, 1), float32] */;
  %541 = multiply(%539, %540) /* ty=Tensor[(16, 1), float32] */;
  %542 = multiply(%541, 0.00347222f /* ty=float32 */) /* ty=Tensor[(16, 1), float32] */;
  %543 = multiply(%528, %542) /* ty=Tensor[(16, 288), float32] */;
  %544 = multiply(%535, %536) /* ty=Tensor[(16, 288), float32] */;
  %545 = multiply(%543, 2f /* ty=float32 */) /* ty=Tensor[(16, 288), float32] */;
  %546 = add(%544, %545) /* ty=Tensor[(16, 288), float32] */;
  %547 = sum(%546, axis=[1], keepdims=True) /* ty=Tensor[(16, 1), float32] */;
  %548 = negative(%547) /* ty=Tensor[(16, 1), float32] */;
  %549 = multiply(%548, 0.00347222f /* ty=float32 */) /* ty=Tensor[(16, 1), float32] */;
  %550 = add(%546, %549) /* ty=Tensor[(16, 288), float32] */;
  %551 = reshape(%550, newshape=[1, 128, 6, 6]) /* ty=Tensor[(1, 128, 6, 6), float32] */;
  %552 = tile(%551, reps=[1, 1, 1, 1]) /* ty=Tensor[(1, 128, 6, 6), float32] */;
  %553 = reshape(%nn_conv2d_106_x, newshape=[1, -1, 0, 0]) /* ty=Tensor[(1, 128, 6, 6), float32] */;
  %554 = reshape(%552, newshape=[-1, 1, 0, 0]) /* ty=Tensor[(128, 1, 6, 6), float32] */;
  %555 = nn.conv2d(%553, %554, padding=[1, 1, 1, 1], groups=128, channels=128, kernel_size=[6, 6]) /* ty=Tensor[(1, 128, 3, 3), float32] */;
  %556 = reshape(%555, newshape=[1, 1, 128, 3, 3]) /* ty=Tensor[(1, 1, 128, 3, 3), float32] */;
  %557 = sum(%556, axis=[0]) /* ty=Tensor[(1, 128, 3, 3), float32] */;
  %558 = zeros(shape=[1, 128, 6, 6], dtype="float32") /* ty=Tensor[(1, 128, 6, 6), float32] */;
  %559 = less(%nn_relu_107_x, %558) /* ty=Tensor[(1, 128, 6, 6), bool] */;
  %560 = nn.conv2d_transpose(%551, %param_66_train, channels=128, kernel_size=[3, 3], padding=[1, 1, 1, 1], groups=128, kernel_layout="IOHW") /* ty=Tensor[(1, 128, 6, 6), float32] */;
  %561 = where(%559, %558, %560) /* ty=Tensor[(1, 128, 6, 6), float32] */;
  %562 = multiply(%561, %multiply_109_x) /* ty=Tensor[(1, 128, 6, 6), float32] */;
  %563 = transpose(%nn_conv2d_113_x, axes=[1, 0, 2, 3]) /* ty=Tensor[(64, 1, 6, 6), float32] */;
  %564 = multiply(%561, %param_64_train) /* ty=Tensor[(1, 128, 6, 6), float32] */;
  %565 = reshape(%nn_instance_norm_111_x, newshape=[16, 288]) /* ty=Tensor[(16, 288), float32] */;
  %566 = mean(%565, axis=[1], keepdims=True) /* ty=Tensor[(16, 1), float32] */;
  %567 = subtract(%565, %566) /* ty=Tensor[(16, 288), float32] */;
  %568 = power(%567, 2f /* ty=float32 */) /* ty=Tensor[(16, 288), float32] */;
  %569 = mean(%568, axis=[1], keepdims=True) /* ty=Tensor[(16, 1), float32] */;
  %570 = add(%569, 1e-05f /* ty=float32 */) /* ty=Tensor[(16, 1), float32] */;
  %571 = sqrt(%570) /* ty=Tensor[(16, 1), float32] */;
  %572 = divide(1f /* ty=float32 */, %571) /* ty=Tensor[(16, 1), float32] */;
  %573 = repeat(%572, repeats=1, axis=0) /* ty=Tensor[(16, 1), float32] */;
  %574 = reshape(%564, newshape=[16, 288]) /* ty=Tensor[(16, 288), float32] */;
  %575 = reshape(%573, newshape=[16, 1]) /* ty=Tensor[(16, 1), float32] */;
  %576 = multiply(%574, %567) /* ty=Tensor[(16, 288), float32] */;
  %577 = sum(%576, axis=[1], keepdims=True) /* ty=Tensor[(16, 1), float32] */;
  %578 = multiply(-0.5f /* ty=float32 */, %577) /* ty=Tensor[(16, 1), float32] */;
  %579 = power(%575, 3f /* ty=float32 */) /* ty=Tensor[(16, 1), float32] */;
  %580 = multiply(%578, %579) /* ty=Tensor[(16, 1), float32] */;
  %581 = multiply(%580, 0.00347222f /* ty=float32 */) /* ty=Tensor[(16, 1), float32] */;
  %582 = multiply(%567, %581) /* ty=Tensor[(16, 288), float32] */;
  %583 = multiply(%574, %575) /* ty=Tensor[(16, 288), float32] */;
  %584 = multiply(%582, 2f /* ty=float32 */) /* ty=Tensor[(16, 288), float32] */;
  %585 = add(%583, %584) /* ty=Tensor[(16, 288), float32] */;
  %586 = sum(%585, axis=[1], keepdims=True) /* ty=Tensor[(16, 1), float32] */;
  %587 = negative(%586) /* ty=Tensor[(16, 1), float32] */;
  %588 = multiply(%587, 0.00347222f /* ty=float32 */) /* ty=Tensor[(16, 1), float32] */;
  %589 = add(%585, %588) /* ty=Tensor[(16, 288), float32] */;
  %590 = reshape(%589, newshape=[1, 128, 6, 6]) /* ty=Tensor[(1, 128, 6, 6), float32] */;
  %591 = transpose(%590, axes=[1, 0, 2, 3]) /* ty=Tensor[(128, 1, 6, 6), float32] */;
  %592 = reshape(%563, newshape=[64, 1, 6, 6]) /* ty=Tensor[(64, 1, 6, 6), float32] */;
  %593 = reshape(%591, newshape=[128, 1, 6, 6]) /* ty=Tensor[(128, 1, 6, 6), float32] */;
  %594 = nn.conv2d(%592, %593, padding=[0, 0, 0, 0], channels=128, kernel_size=[6, 6]) /* ty=Tensor[(64, 128, 1, 1), float32] */;
  %595 = transpose(%594, axes=[1, 0, 2, 3]) /* ty=Tensor[(128, 64, 1, 1), float32] */;
  %596 = reshape(%595, newshape=[64, 1, 128, 1, 1]) /* ty=Tensor[(64, 1, 128, 1, 1), float32] */;
  %597 = sum(%596, axis=[1]) /* ty=Tensor[(64, 128, 1, 1), float32] */;
  %598 = zeros(shape=[1, 64, 6, 6], dtype="float32") /* ty=Tensor[(1, 64, 6, 6), float32] */;
  %599 = less(%nn_relu_114_x, %598) /* ty=Tensor[(1, 64, 6, 6), bool] */;
  %600 = nn.conv2d_transpose(%590, %param_61_train, channels=64, kernel_size=[1, 1], padding=[0, 0, 0, 0], kernel_layout="IOHW") /* ty=Tensor[(1, 64, 6, 6), float32] */;
  %601 = where(%599, %598, %600) /* ty=Tensor[(1, 64, 6, 6), float32] */;
  %602 = multiply(%601, %multiply_116_x) /* ty=Tensor[(1, 64, 6, 6), float32] */;
  %603 = multiply(%601, %param_59_train) /* ty=Tensor[(1, 64, 6, 6), float32] */;
  %604 = reshape(%nn_instance_norm_118_x, newshape=[8, 288]) /* ty=Tensor[(8, 288), float32] */;
  %605 = mean(%604, axis=[1], keepdims=True) /* ty=Tensor[(8, 1), float32] */;
  %606 = subtract(%604, %605) /* ty=Tensor[(8, 288), float32] */;
  %607 = power(%606, 2f /* ty=float32 */) /* ty=Tensor[(8, 288), float32] */;
  %608 = mean(%607, axis=[1], keepdims=True) /* ty=Tensor[(8, 1), float32] */;
  %609 = add(%608, 1e-05f /* ty=float32 */) /* ty=Tensor[(8, 1), float32] */;
  %610 = sqrt(%609) /* ty=Tensor[(8, 1), float32] */;
  %611 = divide(1f /* ty=float32 */, %610) /* ty=Tensor[(8, 1), float32] */;
  %612 = repeat(%611, repeats=1, axis=0) /* ty=Tensor[(8, 1), float32] */;
  %613 = reshape(%603, newshape=[8, 288]) /* ty=Tensor[(8, 288), float32] */;
  %614 = reshape(%612, newshape=[8, 1]) /* ty=Tensor[(8, 1), float32] */;
  %615 = multiply(%613, %606) /* ty=Tensor[(8, 288), float32] */;
  %616 = sum(%615, axis=[1], keepdims=True) /* ty=Tensor[(8, 1), float32] */;
  %617 = multiply(-0.5f /* ty=float32 */, %616) /* ty=Tensor[(8, 1), float32] */;
  %618 = power(%614, 3f /* ty=float32 */) /* ty=Tensor[(8, 1), float32] */;
  %619 = multiply(%617, %618) /* ty=Tensor[(8, 1), float32] */;
  %620 = multiply(%619, 0.00347222f /* ty=float32 */) /* ty=Tensor[(8, 1), float32] */;
  %621 = multiply(%606, %620) /* ty=Tensor[(8, 288), float32] */;
  %622 = multiply(%613, %614) /* ty=Tensor[(8, 288), float32] */;
  %623 = multiply(%621, 2f /* ty=float32 */) /* ty=Tensor[(8, 288), float32] */;
  %624 = add(%622, %623) /* ty=Tensor[(8, 288), float32] */;
  %625 = sum(%624, axis=[1], keepdims=True) /* ty=Tensor[(8, 1), float32] */;
  %626 = negative(%625) /* ty=Tensor[(8, 1), float32] */;
  %627 = multiply(%626, 0.00347222f /* ty=float32 */) /* ty=Tensor[(8, 1), float32] */;
  %628 = add(%624, %627) /* ty=Tensor[(8, 288), float32] */;
  %629 = reshape(%628, newshape=[1, 64, 6, 6]) /* ty=Tensor[(1, 64, 6, 6), float32] */;
  %630 = tile(%629, reps=[1, 1, 1, 1]) /* ty=Tensor[(1, 64, 6, 6), float32] */;
  %631 = reshape(%nn_conv2d_120_x, newshape=[1, -1, 0, 0]) /* ty=Tensor[(1, 64, 12, 12), float32] */;
  %632 = reshape(%630, newshape=[-1, 1, 0, 0]) /* ty=Tensor[(64, 1, 6, 6), float32] */;
  %633 = nn.conv2d(%631, %632, padding=[1, 1, 1, 1], dilation=[2, 2], groups=64, channels=64, kernel_size=[6, 6]) /* ty=Tensor[(1, 64, 4, 4), float32] */;
  %634 = reshape(%633, newshape=[1, 1, 64, 4, 4]) /* ty=Tensor[(1, 1, 64, 4, 4), float32] */;
  %635 = sum(%634, axis=[0]) /* ty=Tensor[(1, 64, 4, 4), float32] */;
  %636 = transpose(%635, axes=[1, 0, 2, 3]) /* ty=Tensor[(64, 1, 4, 4), float32] */;
  %637 = zeros(shape=[1, 64, 12, 12], dtype="float32") /* ty=Tensor[(1, 64, 12, 12), float32] */;
  %638 = less(%nn_relu_121_x, %637) /* ty=Tensor[(1, 64, 12, 12), bool] */;
  %639 = nn.conv2d_transpose(%629, %param_56_train, channels=64, kernel_size=[3, 3], strides=[2, 2], output_padding=[1, 1], padding=[1, 1, 1, 1], groups=64, kernel_layout="IOHW") /* ty=Tensor[(1, 64, 12, 12), float32] */;
  %640 = where(%638, %637, %639) /* ty=Tensor[(1, 64, 12, 12), float32] */;
  %641 = multiply(%640, %multiply_123_x) /* ty=Tensor[(1, 64, 12, 12), float32] */;
  %642 = transpose(%nn_conv2d_127_x, axes=[1, 0, 2, 3]) /* ty=Tensor[(64, 1, 12, 12), float32] */;
  %643 = multiply(%640, %param_54_train) /* ty=Tensor[(1, 64, 12, 12), float32] */;
  %644 = reshape(%nn_instance_norm_125_x, newshape=[8, 1152]) /* ty=Tensor[(8, 1152), float32] */;
  %645 = mean(%644, axis=[1], keepdims=True) /* ty=Tensor[(8, 1), float32] */;
  %646 = subtract(%644, %645) /* ty=Tensor[(8, 1152), float32] */;
  %647 = power(%646, 2f /* ty=float32 */) /* ty=Tensor[(8, 1152), float32] */;
  %648 = mean(%647, axis=[1], keepdims=True) /* ty=Tensor[(8, 1), float32] */;
  %649 = add(%648, 1e-05f /* ty=float32 */) /* ty=Tensor[(8, 1), float32] */;
  %650 = sqrt(%649) /* ty=Tensor[(8, 1), float32] */;
  %651 = divide(1f /* ty=float32 */, %650) /* ty=Tensor[(8, 1), float32] */;
  %652 = repeat(%651, repeats=1, axis=0) /* ty=Tensor[(8, 1), float32] */;
  %653 = reshape(%643, newshape=[8, 1152]) /* ty=Tensor[(8, 1152), float32] */;
  %654 = reshape(%652, newshape=[8, 1]) /* ty=Tensor[(8, 1), float32] */;
  %655 = multiply(%653, %646) /* ty=Tensor[(8, 1152), float32] */;
  %656 = sum(%655, axis=[1], keepdims=True) /* ty=Tensor[(8, 1), float32] */;
  %657 = multiply(-0.5f /* ty=float32 */, %656) /* ty=Tensor[(8, 1), float32] */;
  %658 = power(%654, 3f /* ty=float32 */) /* ty=Tensor[(8, 1), float32] */;
  %659 = multiply(%657, %658) /* ty=Tensor[(8, 1), float32] */;
  %660 = multiply(%659, 0.000868056f /* ty=float32 */) /* ty=Tensor[(8, 1), float32] */;
  %661 = multiply(%646, %660) /* ty=Tensor[(8, 1152), float32] */;
  %662 = multiply(%653, %654) /* ty=Tensor[(8, 1152), float32] */;
  %663 = multiply(%661, 2f /* ty=float32 */) /* ty=Tensor[(8, 1152), float32] */;
  %664 = add(%662, %663) /* ty=Tensor[(8, 1152), float32] */;
  %665 = sum(%664, axis=[1], keepdims=True) /* ty=Tensor[(8, 1), float32] */;
  %666 = negative(%665) /* ty=Tensor[(8, 1), float32] */;
  %667 = multiply(%666, 0.000868056f /* ty=float32 */) /* ty=Tensor[(8, 1), float32] */;
  %668 = add(%664, %667) /* ty=Tensor[(8, 1152), float32] */;
  %669 = reshape(%668, newshape=[1, 64, 12, 12]) /* ty=Tensor[(1, 64, 12, 12), float32] */;
  %670 = transpose(%669, axes=[1, 0, 2, 3]) /* ty=Tensor[(64, 1, 12, 12), float32] */;
  %671 = reshape(%642, newshape=[64, 1, 12, 12]) /* ty=Tensor[(64, 1, 12, 12), float32] */;
  %672 = reshape(%670, newshape=[64, 1, 12, 12]) /* ty=Tensor[(64, 1, 12, 12), float32] */;
  %673 = nn.conv2d(%671, %672, padding=[0, 0, 0, 0], channels=64, kernel_size=[12, 12]) /* ty=Tensor[(64, 64, 1, 1), float32] */;
  %674 = transpose(%673, axes=[1, 0, 2, 3]) /* ty=Tensor[(64, 64, 1, 1), float32] */;
  %675 = reshape(%674, newshape=[64, 1, 64, 1, 1]) /* ty=Tensor[(64, 1, 64, 1, 1), float32] */;
  %676 = sum(%675, axis=[1]) /* ty=Tensor[(64, 64, 1, 1), float32] */;
  %677 = zeros(shape=[1, 64, 12, 12], dtype="float32") /* ty=Tensor[(1, 64, 12, 12), float32] */;
  %678 = less(%nn_relu_128_x, %677) /* ty=Tensor[(1, 64, 12, 12), bool] */;
  %679 = nn.conv2d_transpose(%669, %param_51_train, channels=64, kernel_size=[1, 1], padding=[0, 0, 0, 0], kernel_layout="IOHW") /* ty=Tensor[(1, 64, 12, 12), float32] */;
  %680 = where(%678, %677, %679) /* ty=Tensor[(1, 64, 12, 12), float32] */;
  %681 = multiply(%680, %multiply_130_x) /* ty=Tensor[(1, 64, 12, 12), float32] */;
  %682 = multiply(%680, %param_49_train) /* ty=Tensor[(1, 64, 12, 12), float32] */;
  %683 = reshape(%nn_instance_norm_132_x, newshape=[8, 1152]) /* ty=Tensor[(8, 1152), float32] */;
  %684 = mean(%683, axis=[1], keepdims=True) /* ty=Tensor[(8, 1), float32] */;
  %685 = subtract(%683, %684) /* ty=Tensor[(8, 1152), float32] */;
  %686 = power(%685, 2f /* ty=float32 */) /* ty=Tensor[(8, 1152), float32] */;
  %687 = mean(%686, axis=[1], keepdims=True) /* ty=Tensor[(8, 1), float32] */;
  %688 = add(%687, 1e-05f /* ty=float32 */) /* ty=Tensor[(8, 1), float32] */;
  %689 = sqrt(%688) /* ty=Tensor[(8, 1), float32] */;
  %690 = divide(1f /* ty=float32 */, %689) /* ty=Tensor[(8, 1), float32] */;
  %691 = repeat(%690, repeats=1, axis=0) /* ty=Tensor[(8, 1), float32] */;
  %692 = reshape(%682, newshape=[8, 1152]) /* ty=Tensor[(8, 1152), float32] */;
  %693 = reshape(%691, newshape=[8, 1]) /* ty=Tensor[(8, 1), float32] */;
  %694 = multiply(%692, %685) /* ty=Tensor[(8, 1152), float32] */;
  %695 = sum(%694, axis=[1], keepdims=True) /* ty=Tensor[(8, 1), float32] */;
  %696 = multiply(-0.5f /* ty=float32 */, %695) /* ty=Tensor[(8, 1), float32] */;
  %697 = power(%693, 3f /* ty=float32 */) /* ty=Tensor[(8, 1), float32] */;
  %698 = multiply(%696, %697) /* ty=Tensor[(8, 1), float32] */;
  %699 = multiply(%698, 0.000868056f /* ty=float32 */) /* ty=Tensor[(8, 1), float32] */;
  %700 = multiply(%685, %699) /* ty=Tensor[(8, 1152), float32] */;
  %701 = multiply(%692, %693) /* ty=Tensor[(8, 1152), float32] */;
  %702 = multiply(%700, 2f /* ty=float32 */) /* ty=Tensor[(8, 1152), float32] */;
  %703 = add(%701, %702) /* ty=Tensor[(8, 1152), float32] */;
  %704 = sum(%703, axis=[1], keepdims=True) /* ty=Tensor[(8, 1), float32] */;
  %705 = negative(%704) /* ty=Tensor[(8, 1), float32] */;
  %706 = multiply(%705, 0.000868056f /* ty=float32 */) /* ty=Tensor[(8, 1), float32] */;
  %707 = add(%703, %706) /* ty=Tensor[(8, 1152), float32] */;
  %708 = reshape(%707, newshape=[1, 64, 12, 12]) /* ty=Tensor[(1, 64, 12, 12), float32] */;
  %709 = tile(%708, reps=[1, 1, 1, 1]) /* ty=Tensor[(1, 64, 12, 12), float32] */;
  %710 = reshape(%nn_conv2d_134_x, newshape=[1, -1, 0, 0]) /* ty=Tensor[(1, 64, 12, 12), float32] */;
  %711 = reshape(%709, newshape=[-1, 1, 0, 0]) /* ty=Tensor[(64, 1, 12, 12), float32] */;
  %712 = nn.conv2d(%710, %711, padding=[1, 1, 1, 1], groups=64, channels=64, kernel_size=[12, 12]) /* ty=Tensor[(1, 64, 3, 3), float32] */;
  %713 = reshape(%712, newshape=[1, 1, 64, 3, 3]) /* ty=Tensor[(1, 1, 64, 3, 3), float32] */;
  %714 = sum(%713, axis=[0]) /* ty=Tensor[(1, 64, 3, 3), float32] */;
  %715 = zeros(shape=[1, 64, 12, 12], dtype="float32") /* ty=Tensor[(1, 64, 12, 12), float32] */;
  %716 = less(%nn_relu_135_x, %715) /* ty=Tensor[(1, 64, 12, 12), bool] */;
  %717 = nn.conv2d_transpose(%708, %param_46_train, channels=64, kernel_size=[3, 3], padding=[1, 1, 1, 1], groups=64, kernel_layout="IOHW") /* ty=Tensor[(1, 64, 12, 12), float32] */;
  %718 = where(%716, %715, %717) /* ty=Tensor[(1, 64, 12, 12), float32] */;
  %719 = multiply(%718, %multiply_137_x) /* ty=Tensor[(1, 64, 12, 12), float32] */;
  %720 = transpose(%nn_conv2d_141_x, axes=[1, 0, 2, 3]) /* ty=Tensor[(32, 1, 12, 12), float32] */;
  %721 = multiply(%718, %param_44_train) /* ty=Tensor[(1, 64, 12, 12), float32] */;
  %722 = reshape(%nn_instance_norm_139_x, newshape=[8, 1152]) /* ty=Tensor[(8, 1152), float32] */;
  %723 = mean(%722, axis=[1], keepdims=True) /* ty=Tensor[(8, 1), float32] */;
  %724 = subtract(%722, %723) /* ty=Tensor[(8, 1152), float32] */;
  %725 = power(%724, 2f /* ty=float32 */) /* ty=Tensor[(8, 1152), float32] */;
  %726 = mean(%725, axis=[1], keepdims=True) /* ty=Tensor[(8, 1), float32] */;
  %727 = add(%726, 1e-05f /* ty=float32 */) /* ty=Tensor[(8, 1), float32] */;
  %728 = sqrt(%727) /* ty=Tensor[(8, 1), float32] */;
  %729 = divide(1f /* ty=float32 */, %728) /* ty=Tensor[(8, 1), float32] */;
  %730 = repeat(%729, repeats=1, axis=0) /* ty=Tensor[(8, 1), float32] */;
  %731 = reshape(%721, newshape=[8, 1152]) /* ty=Tensor[(8, 1152), float32] */;
  %732 = reshape(%730, newshape=[8, 1]) /* ty=Tensor[(8, 1), float32] */;
  %733 = multiply(%731, %724) /* ty=Tensor[(8, 1152), float32] */;
  %734 = sum(%733, axis=[1], keepdims=True) /* ty=Tensor[(8, 1), float32] */;
  %735 = multiply(-0.5f /* ty=float32 */, %734) /* ty=Tensor[(8, 1), float32] */;
  %736 = power(%732, 3f /* ty=float32 */) /* ty=Tensor[(8, 1), float32] */;
  %737 = multiply(%735, %736) /* ty=Tensor[(8, 1), float32] */;
  %738 = multiply(%737, 0.000868056f /* ty=float32 */) /* ty=Tensor[(8, 1), float32] */;
  %739 = multiply(%724, %738) /* ty=Tensor[(8, 1152), float32] */;
  %740 = multiply(%731, %732) /* ty=Tensor[(8, 1152), float32] */;
  %741 = multiply(%739, 2f /* ty=float32 */) /* ty=Tensor[(8, 1152), float32] */;
  %742 = add(%740, %741) /* ty=Tensor[(8, 1152), float32] */;
  %743 = sum(%742, axis=[1], keepdims=True) /* ty=Tensor[(8, 1), float32] */;
  %744 = negative(%743) /* ty=Tensor[(8, 1), float32] */;
  %745 = multiply(%744, 0.000868056f /* ty=float32 */) /* ty=Tensor[(8, 1), float32] */;
  %746 = add(%742, %745) /* ty=Tensor[(8, 1152), float32] */;
  %747 = reshape(%746, newshape=[1, 64, 12, 12]) /* ty=Tensor[(1, 64, 12, 12), float32] */;
  %748 = transpose(%747, axes=[1, 0, 2, 3]) /* ty=Tensor[(64, 1, 12, 12), float32] */;
  %749 = reshape(%720, newshape=[32, 1, 12, 12]) /* ty=Tensor[(32, 1, 12, 12), float32] */;
  %750 = reshape(%748, newshape=[64, 1, 12, 12]) /* ty=Tensor[(64, 1, 12, 12), float32] */;
  %751 = nn.conv2d(%749, %750, padding=[0, 0, 0, 0], channels=64, kernel_size=[12, 12]) /* ty=Tensor[(32, 64, 1, 1), float32] */;
  %752 = transpose(%751, axes=[1, 0, 2, 3]) /* ty=Tensor[(64, 32, 1, 1), float32] */;
  %753 = reshape(%752, newshape=[32, 1, 64, 1, 1]) /* ty=Tensor[(32, 1, 64, 1, 1), float32] */;
  %754 = sum(%753, axis=[1]) /* ty=Tensor[(32, 64, 1, 1), float32] */;
  %755 = zeros(shape=[1, 32, 12, 12], dtype="float32") /* ty=Tensor[(1, 32, 12, 12), float32] */;
  %756 = less(%nn_relu_142_x, %755) /* ty=Tensor[(1, 32, 12, 12), bool] */;
  %757 = nn.conv2d_transpose(%747, %param_41_train, channels=32, kernel_size=[1, 1], padding=[0, 0, 0, 0], kernel_layout="IOHW") /* ty=Tensor[(1, 32, 12, 12), float32] */;
  %758 = where(%756, %755, %757) /* ty=Tensor[(1, 32, 12, 12), float32] */;
  %759 = multiply(%758, %multiply_144_x) /* ty=Tensor[(1, 32, 12, 12), float32] */;
  %760 = multiply(%758, %param_39_train) /* ty=Tensor[(1, 32, 12, 12), float32] */;
  %761 = reshape(%nn_instance_norm_146_x, newshape=[4, 1152]) /* ty=Tensor[(4, 1152), float32] */;
  %762 = mean(%761, axis=[1], keepdims=True) /* ty=Tensor[(4, 1), float32] */;
  %763 = subtract(%761, %762) /* ty=Tensor[(4, 1152), float32] */;
  %764 = power(%763, 2f /* ty=float32 */) /* ty=Tensor[(4, 1152), float32] */;
  %765 = mean(%764, axis=[1], keepdims=True) /* ty=Tensor[(4, 1), float32] */;
  %766 = add(%765, 1e-05f /* ty=float32 */) /* ty=Tensor[(4, 1), float32] */;
  %767 = sqrt(%766) /* ty=Tensor[(4, 1), float32] */;
  %768 = divide(1f /* ty=float32 */, %767) /* ty=Tensor[(4, 1), float32] */;
  %769 = repeat(%768, repeats=1, axis=0) /* ty=Tensor[(4, 1), float32] */;
  %770 = reshape(%760, newshape=[4, 1152]) /* ty=Tensor[(4, 1152), float32] */;
  %771 = reshape(%769, newshape=[4, 1]) /* ty=Tensor[(4, 1), float32] */;
  %772 = multiply(%770, %763) /* ty=Tensor[(4, 1152), float32] */;
  %773 = sum(%772, axis=[1], keepdims=True) /* ty=Tensor[(4, 1), float32] */;
  %774 = multiply(-0.5f /* ty=float32 */, %773) /* ty=Tensor[(4, 1), float32] */;
  %775 = power(%771, 3f /* ty=float32 */) /* ty=Tensor[(4, 1), float32] */;
  %776 = multiply(%774, %775) /* ty=Tensor[(4, 1), float32] */;
  %777 = multiply(%776, 0.000868056f /* ty=float32 */) /* ty=Tensor[(4, 1), float32] */;
  %778 = multiply(%763, %777) /* ty=Tensor[(4, 1152), float32] */;
  %779 = multiply(%770, %771) /* ty=Tensor[(4, 1152), float32] */;
  %780 = multiply(%778, 2f /* ty=float32 */) /* ty=Tensor[(4, 1152), float32] */;
  %781 = add(%779, %780) /* ty=Tensor[(4, 1152), float32] */;
  %782 = sum(%781, axis=[1], keepdims=True) /* ty=Tensor[(4, 1), float32] */;
  %783 = negative(%782) /* ty=Tensor[(4, 1), float32] */;
  %784 = multiply(%783, 0.000868056f /* ty=float32 */) /* ty=Tensor[(4, 1), float32] */;
  %785 = add(%781, %784) /* ty=Tensor[(4, 1152), float32] */;
  %786 = reshape(%785, newshape=[1, 32, 12, 12]) /* ty=Tensor[(1, 32, 12, 12), float32] */;
  %787 = tile(%786, reps=[1, 1, 1, 1]) /* ty=Tensor[(1, 32, 12, 12), float32] */;
  %788 = reshape(%nn_conv2d_148_x, newshape=[1, -1, 0, 0]) /* ty=Tensor[(1, 32, 24, 24), float32] */;
  %789 = reshape(%787, newshape=[-1, 1, 0, 0]) /* ty=Tensor[(32, 1, 12, 12), float32] */;
  %790 = nn.conv2d(%788, %789, padding=[1, 1, 1, 1], dilation=[2, 2], groups=32, channels=32, kernel_size=[12, 12]) /* ty=Tensor[(1, 32, 4, 4), float32] */;
  %791 = reshape(%790, newshape=[1, 1, 32, 4, 4]) /* ty=Tensor[(1, 1, 32, 4, 4), float32] */;
  %792 = sum(%791, axis=[0]) /* ty=Tensor[(1, 32, 4, 4), float32] */;
  %793 = transpose(%792, axes=[1, 0, 2, 3]) /* ty=Tensor[(32, 1, 4, 4), float32] */;
  %794 = zeros(shape=[1, 32, 24, 24], dtype="float32") /* ty=Tensor[(1, 32, 24, 24), float32] */;
  %795 = less(%nn_relu_149_x, %794) /* ty=Tensor[(1, 32, 24, 24), bool] */;
  %796 = nn.conv2d_transpose(%786, %param_36_train, channels=32, kernel_size=[3, 3], strides=[2, 2], output_padding=[1, 1], padding=[1, 1, 1, 1], groups=32, kernel_layout="IOHW") /* ty=Tensor[(1, 32, 24, 24), float32] */;
  %797 = where(%795, %794, %796) /* ty=Tensor[(1, 32, 24, 24), float32] */;
  %798 = multiply(%797, %multiply_151_x) /* ty=Tensor[(1, 32, 24, 24), float32] */;
  %799 = transpose(%nn_conv2d_155_x, axes=[1, 0, 2, 3]) /* ty=Tensor[(32, 1, 24, 24), float32] */;
  %800 = multiply(%797, %param_34_train) /* ty=Tensor[(1, 32, 24, 24), float32] */;
  %801 = reshape(%nn_instance_norm_153_x, newshape=[4, 4608]) /* ty=Tensor[(4, 4608), float32] */;
  %802 = mean(%801, axis=[1], keepdims=True) /* ty=Tensor[(4, 1), float32] */;
  %803 = subtract(%801, %802) /* ty=Tensor[(4, 4608), float32] */;
  %804 = power(%803, 2f /* ty=float32 */) /* ty=Tensor[(4, 4608), float32] */;
  %805 = mean(%804, axis=[1], keepdims=True) /* ty=Tensor[(4, 1), float32] */;
  %806 = add(%805, 1e-05f /* ty=float32 */) /* ty=Tensor[(4, 1), float32] */;
  %807 = sqrt(%806) /* ty=Tensor[(4, 1), float32] */;
  %808 = divide(1f /* ty=float32 */, %807) /* ty=Tensor[(4, 1), float32] */;
  %809 = repeat(%808, repeats=1, axis=0) /* ty=Tensor[(4, 1), float32] */;
  %810 = reshape(%800, newshape=[4, 4608]) /* ty=Tensor[(4, 4608), float32] */;
  %811 = reshape(%809, newshape=[4, 1]) /* ty=Tensor[(4, 1), float32] */;
  %812 = multiply(%810, %803) /* ty=Tensor[(4, 4608), float32] */;
  %813 = sum(%812, axis=[1], keepdims=True) /* ty=Tensor[(4, 1), float32] */;
  %814 = multiply(-0.5f /* ty=float32 */, %813) /* ty=Tensor[(4, 1), float32] */;
  %815 = power(%811, 3f /* ty=float32 */) /* ty=Tensor[(4, 1), float32] */;
  %816 = multiply(%814, %815) /* ty=Tensor[(4, 1), float32] */;
  %817 = multiply(%816, 0.000217014f /* ty=float32 */) /* ty=Tensor[(4, 1), float32] */;
  %818 = multiply(%803, %817) /* ty=Tensor[(4, 4608), float32] */;
  %819 = multiply(%810, %811) /* ty=Tensor[(4, 4608), float32] */;
  %820 = multiply(%818, 2f /* ty=float32 */) /* ty=Tensor[(4, 4608), float32] */;
  %821 = add(%819, %820) /* ty=Tensor[(4, 4608), float32] */;
  %822 = sum(%821, axis=[1], keepdims=True) /* ty=Tensor[(4, 1), float32] */;
  %823 = negative(%822) /* ty=Tensor[(4, 1), float32] */;
  %824 = multiply(%823, 0.000217014f /* ty=float32 */) /* ty=Tensor[(4, 1), float32] */;
  %825 = add(%821, %824) /* ty=Tensor[(4, 4608), float32] */;
  %826 = reshape(%825, newshape=[1, 32, 24, 24]) /* ty=Tensor[(1, 32, 24, 24), float32] */;
  %827 = transpose(%826, axes=[1, 0, 2, 3]) /* ty=Tensor[(32, 1, 24, 24), float32] */;
  %828 = reshape(%799, newshape=[32, 1, 24, 24]) /* ty=Tensor[(32, 1, 24, 24), float32] */;
  %829 = reshape(%827, newshape=[32, 1, 24, 24]) /* ty=Tensor[(32, 1, 24, 24), float32] */;
  %830 = nn.conv2d(%828, %829, padding=[0, 0, 0, 0], channels=32, kernel_size=[24, 24]) /* ty=Tensor[(32, 32, 1, 1), float32] */;
  %831 = transpose(%830, axes=[1, 0, 2, 3]) /* ty=Tensor[(32, 32, 1, 1), float32] */;
  %832 = reshape(%831, newshape=[32, 1, 32, 1, 1]) /* ty=Tensor[(32, 1, 32, 1, 1), float32] */;
  %833 = sum(%832, axis=[1]) /* ty=Tensor[(32, 32, 1, 1), float32] */;
  %834 = zeros(shape=[1, 32, 24, 24], dtype="float32") /* ty=Tensor[(1, 32, 24, 24), float32] */;
  %835 = less(%nn_relu_156_x, %834) /* ty=Tensor[(1, 32, 24, 24), bool] */;
  %836 = nn.conv2d_transpose(%826, %param_31_train, channels=32, kernel_size=[1, 1], padding=[0, 0, 0, 0], kernel_layout="IOHW") /* ty=Tensor[(1, 32, 24, 24), float32] */;
  %837 = where(%835, %834, %836) /* ty=Tensor[(1, 32, 24, 24), float32] */;
  %838 = multiply(%837, %multiply_158_x) /* ty=Tensor[(1, 32, 24, 24), float32] */;
  %839 = multiply(%837, %param_29_train) /* ty=Tensor[(1, 32, 24, 24), float32] */;
  %840 = reshape(%nn_instance_norm_160_x, newshape=[4, 4608]) /* ty=Tensor[(4, 4608), float32] */;
  %841 = mean(%840, axis=[1], keepdims=True) /* ty=Tensor[(4, 1), float32] */;
  %842 = subtract(%840, %841) /* ty=Tensor[(4, 4608), float32] */;
  %843 = power(%842, 2f /* ty=float32 */) /* ty=Tensor[(4, 4608), float32] */;
  %844 = mean(%843, axis=[1], keepdims=True) /* ty=Tensor[(4, 1), float32] */;
  %845 = add(%844, 1e-05f /* ty=float32 */) /* ty=Tensor[(4, 1), float32] */;
  %846 = sqrt(%845) /* ty=Tensor[(4, 1), float32] */;
  %847 = divide(1f /* ty=float32 */, %846) /* ty=Tensor[(4, 1), float32] */;
  %848 = repeat(%847, repeats=1, axis=0) /* ty=Tensor[(4, 1), float32] */;
  %849 = reshape(%839, newshape=[4, 4608]) /* ty=Tensor[(4, 4608), float32] */;
  %850 = reshape(%848, newshape=[4, 1]) /* ty=Tensor[(4, 1), float32] */;
  %851 = multiply(%849, %842) /* ty=Tensor[(4, 4608), float32] */;
  %852 = sum(%851, axis=[1], keepdims=True) /* ty=Tensor[(4, 1), float32] */;
  %853 = multiply(-0.5f /* ty=float32 */, %852) /* ty=Tensor[(4, 1), float32] */;
  %854 = power(%850, 3f /* ty=float32 */) /* ty=Tensor[(4, 1), float32] */;
  %855 = multiply(%853, %854) /* ty=Tensor[(4, 1), float32] */;
  %856 = multiply(%855, 0.000217014f /* ty=float32 */) /* ty=Tensor[(4, 1), float32] */;
  %857 = multiply(%842, %856) /* ty=Tensor[(4, 4608), float32] */;
  %858 = multiply(%849, %850) /* ty=Tensor[(4, 4608), float32] */;
  %859 = multiply(%857, 2f /* ty=float32 */) /* ty=Tensor[(4, 4608), float32] */;
  %860 = add(%858, %859) /* ty=Tensor[(4, 4608), float32] */;
  %861 = sum(%860, axis=[1], keepdims=True) /* ty=Tensor[(4, 1), float32] */;
  %862 = negative(%861) /* ty=Tensor[(4, 1), float32] */;
  %863 = multiply(%862, 0.000217014f /* ty=float32 */) /* ty=Tensor[(4, 1), float32] */;
  %864 = add(%860, %863) /* ty=Tensor[(4, 4608), float32] */;
  %865 = reshape(%864, newshape=[1, 32, 24, 24]) /* ty=Tensor[(1, 32, 24, 24), float32] */;
  %866 = tile(%865, reps=[1, 1, 1, 1]) /* ty=Tensor[(1, 32, 24, 24), float32] */;
  %867 = reshape(%nn_conv2d_162_x, newshape=[1, -1, 0, 0]) /* ty=Tensor[(1, 32, 24, 24), float32] */;
  %868 = reshape(%866, newshape=[-1, 1, 0, 0]) /* ty=Tensor[(32, 1, 24, 24), float32] */;
  %869 = nn.conv2d(%867, %868, padding=[1, 1, 1, 1], groups=32, channels=32, kernel_size=[24, 24]) /* ty=Tensor[(1, 32, 3, 3), float32] */;
  %870 = reshape(%869, newshape=[1, 1, 32, 3, 3]) /* ty=Tensor[(1, 1, 32, 3, 3), float32] */;
  %871 = sum(%870, axis=[0]) /* ty=Tensor[(1, 32, 3, 3), float32] */;
  %872 = zeros(shape=[1, 32, 24, 24], dtype="float32") /* ty=Tensor[(1, 32, 24, 24), float32] */;
  %873 = less(%nn_relu_163_x, %872) /* ty=Tensor[(1, 32, 24, 24), bool] */;
  %874 = nn.conv2d_transpose(%865, %param_26_train, channels=32, kernel_size=[3, 3], padding=[1, 1, 1, 1], groups=32, kernel_layout="IOHW") /* ty=Tensor[(1, 32, 24, 24), float32] */;
  %875 = where(%873, %872, %874) /* ty=Tensor[(1, 32, 24, 24), float32] */;
  %876 = multiply(%875, %multiply_165_x) /* ty=Tensor[(1, 32, 24, 24), float32] */;
  %877 = transpose(%nn_conv2d_169_x, axes=[1, 0, 2, 3]) /* ty=Tensor[(16, 1, 24, 24), float32] */;
  %878 = multiply(%875, %param_24_train) /* ty=Tensor[(1, 32, 24, 24), float32] */;
  %879 = reshape(%nn_instance_norm_167_x, newshape=[4, 4608]) /* ty=Tensor[(4, 4608), float32] */;
  %880 = mean(%879, axis=[1], keepdims=True) /* ty=Tensor[(4, 1), float32] */;
  %881 = subtract(%879, %880) /* ty=Tensor[(4, 4608), float32] */;
  %882 = power(%881, 2f /* ty=float32 */) /* ty=Tensor[(4, 4608), float32] */;
  %883 = mean(%882, axis=[1], keepdims=True) /* ty=Tensor[(4, 1), float32] */;
  %884 = add(%883, 1e-05f /* ty=float32 */) /* ty=Tensor[(4, 1), float32] */;
  %885 = sqrt(%884) /* ty=Tensor[(4, 1), float32] */;
  %886 = divide(1f /* ty=float32 */, %885) /* ty=Tensor[(4, 1), float32] */;
  %887 = repeat(%886, repeats=1, axis=0) /* ty=Tensor[(4, 1), float32] */;
  %888 = reshape(%878, newshape=[4, 4608]) /* ty=Tensor[(4, 4608), float32] */;
  %889 = reshape(%887, newshape=[4, 1]) /* ty=Tensor[(4, 1), float32] */;
  %890 = multiply(%888, %881) /* ty=Tensor[(4, 4608), float32] */;
  %891 = sum(%890, axis=[1], keepdims=True) /* ty=Tensor[(4, 1), float32] */;
  %892 = multiply(-0.5f /* ty=float32 */, %891) /* ty=Tensor[(4, 1), float32] */;
  %893 = power(%889, 3f /* ty=float32 */) /* ty=Tensor[(4, 1), float32] */;
  %894 = multiply(%892, %893) /* ty=Tensor[(4, 1), float32] */;
  %895 = multiply(%894, 0.000217014f /* ty=float32 */) /* ty=Tensor[(4, 1), float32] */;
  %896 = multiply(%881, %895) /* ty=Tensor[(4, 4608), float32] */;
  %897 = multiply(%888, %889) /* ty=Tensor[(4, 4608), float32] */;
  %898 = multiply(%896, 2f /* ty=float32 */) /* ty=Tensor[(4, 4608), float32] */;
  %899 = add(%897, %898) /* ty=Tensor[(4, 4608), float32] */;
  %900 = sum(%899, axis=[1], keepdims=True) /* ty=Tensor[(4, 1), float32] */;
  %901 = negative(%900) /* ty=Tensor[(4, 1), float32] */;
  %902 = multiply(%901, 0.000217014f /* ty=float32 */) /* ty=Tensor[(4, 1), float32] */;
  %903 = add(%899, %902) /* ty=Tensor[(4, 4608), float32] */;
  %904 = reshape(%903, newshape=[1, 32, 24, 24]) /* ty=Tensor[(1, 32, 24, 24), float32] */;
  %905 = transpose(%904, axes=[1, 0, 2, 3]) /* ty=Tensor[(32, 1, 24, 24), float32] */;
  %906 = reshape(%877, newshape=[16, 1, 24, 24]) /* ty=Tensor[(16, 1, 24, 24), float32] */;
  %907 = reshape(%905, newshape=[32, 1, 24, 24]) /* ty=Tensor[(32, 1, 24, 24), float32] */;
  %908 = nn.conv2d(%906, %907, padding=[0, 0, 0, 0], channels=32, kernel_size=[24, 24]) /* ty=Tensor[(16, 32, 1, 1), float32] */;
  %909 = transpose(%908, axes=[1, 0, 2, 3]) /* ty=Tensor[(32, 16, 1, 1), float32] */;
  %910 = reshape(%909, newshape=[16, 1, 32, 1, 1]) /* ty=Tensor[(16, 1, 32, 1, 1), float32] */;
  %911 = sum(%910, axis=[1]) /* ty=Tensor[(16, 32, 1, 1), float32] */;
  %912 = zeros(shape=[1, 16, 24, 24], dtype="float32") /* ty=Tensor[(1, 16, 24, 24), float32] */;
  %913 = less(%nn_relu_170_x, %912) /* ty=Tensor[(1, 16, 24, 24), bool] */;
  %914 = nn.conv2d_transpose(%904, %param_21_train, channels=16, kernel_size=[1, 1], padding=[0, 0, 0, 0], kernel_layout="IOHW") /* ty=Tensor[(1, 16, 24, 24), float32] */;
  %915 = where(%913, %912, %914) /* ty=Tensor[(1, 16, 24, 24), float32] */;
  %916 = multiply(%915, %multiply_172_x) /* ty=Tensor[(1, 16, 24, 24), float32] */;
  %917 = multiply(%915, %param_19_train) /* ty=Tensor[(1, 16, 24, 24), float32] */;
  %918 = reshape(%nn_instance_norm_174_x, newshape=[2, 4608]) /* ty=Tensor[(2, 4608), float32] */;
  %919 = mean(%918, axis=[1], keepdims=True) /* ty=Tensor[(2, 1), float32] */;
  %920 = subtract(%918, %919) /* ty=Tensor[(2, 4608), float32] */;
  %921 = power(%920, 2f /* ty=float32 */) /* ty=Tensor[(2, 4608), float32] */;
  %922 = mean(%921, axis=[1], keepdims=True) /* ty=Tensor[(2, 1), float32] */;
  %923 = add(%922, 1e-05f /* ty=float32 */) /* ty=Tensor[(2, 1), float32] */;
  %924 = sqrt(%923) /* ty=Tensor[(2, 1), float32] */;
  %925 = divide(1f /* ty=float32 */, %924) /* ty=Tensor[(2, 1), float32] */;
  %926 = repeat(%925, repeats=1, axis=0) /* ty=Tensor[(2, 1), float32] */;
  %927 = reshape(%917, newshape=[2, 4608]) /* ty=Tensor[(2, 4608), float32] */;
  %928 = reshape(%926, newshape=[2, 1]) /* ty=Tensor[(2, 1), float32] */;
  %929 = multiply(%927, %920) /* ty=Tensor[(2, 4608), float32] */;
  %930 = sum(%929, axis=[1], keepdims=True) /* ty=Tensor[(2, 1), float32] */;
  %931 = multiply(-0.5f /* ty=float32 */, %930) /* ty=Tensor[(2, 1), float32] */;
  %932 = power(%928, 3f /* ty=float32 */) /* ty=Tensor[(2, 1), float32] */;
  %933 = multiply(%931, %932) /* ty=Tensor[(2, 1), float32] */;
  %934 = multiply(%933, 0.000217014f /* ty=float32 */) /* ty=Tensor[(2, 1), float32] */;
  %935 = multiply(%920, %934) /* ty=Tensor[(2, 4608), float32] */;
  %936 = multiply(%927, %928) /* ty=Tensor[(2, 4608), float32] */;
  %937 = multiply(%935, 2f /* ty=float32 */) /* ty=Tensor[(2, 4608), float32] */;
  %938 = add(%936, %937) /* ty=Tensor[(2, 4608), float32] */;
  %939 = sum(%938, axis=[1], keepdims=True) /* ty=Tensor[(2, 1), float32] */;
  %940 = negative(%939) /* ty=Tensor[(2, 1), float32] */;
  %941 = multiply(%940, 0.000217014f /* ty=float32 */) /* ty=Tensor[(2, 1), float32] */;
  %942 = add(%938, %941) /* ty=Tensor[(2, 4608), float32] */;
  %943 = reshape(%942, newshape=[1, 16, 24, 24]) /* ty=Tensor[(1, 16, 24, 24), float32] */;
  %944 = tile(%943, reps=[1, 1, 1, 1]) /* ty=Tensor[(1, 16, 24, 24), float32] */;
  %945 = reshape(%nn_conv2d_176_x, newshape=[1, -1, 0, 0]) /* ty=Tensor[(1, 16, 48, 48), float32] */;
  %946 = reshape(%944, newshape=[-1, 1, 0, 0]) /* ty=Tensor[(16, 1, 24, 24), float32] */;
  %947 = nn.conv2d(%945, %946, padding=[1, 1, 1, 1], dilation=[2, 2], groups=16, channels=16, kernel_size=[24, 24]) /* ty=Tensor[(1, 16, 4, 4), float32] */;
  %948 = reshape(%947, newshape=[1, 1, 16, 4, 4]) /* ty=Tensor[(1, 1, 16, 4, 4), float32] */;
  %949 = sum(%948, axis=[0]) /* ty=Tensor[(1, 16, 4, 4), float32] */;
  %950 = transpose(%949, axes=[1, 0, 2, 3]) /* ty=Tensor[(16, 1, 4, 4), float32] */;
  %951 = zeros(shape=[1, 16, 48, 48], dtype="float32") /* ty=Tensor[(1, 16, 48, 48), float32] */;
  %952 = less(%nn_relu_177_x, %951) /* ty=Tensor[(1, 16, 48, 48), bool] */;
  %953 = nn.conv2d_transpose(%943, %param_16_train, channels=16, kernel_size=[3, 3], strides=[2, 2], output_padding=[1, 1], padding=[1, 1, 1, 1], groups=16, kernel_layout="IOHW") /* ty=Tensor[(1, 16, 48, 48), float32] */;
  %954 = where(%952, %951, %953) /* ty=Tensor[(1, 16, 48, 48), float32] */;
  %955 = multiply(%954, %multiply_179_x) /* ty=Tensor[(1, 16, 48, 48), float32] */;
  %956 = transpose(%nn_conv2d_183_x, axes=[1, 0, 2, 3]) /* ty=Tensor[(8, 1, 48, 48), float32] */;
  %957 = multiply(%954, %param_14_train) /* ty=Tensor[(1, 16, 48, 48), float32] */;
  %958 = reshape(%nn_instance_norm_181_x, newshape=[2, 18432]) /* ty=Tensor[(2, 18432), float32] */;
  %959 = mean(%958, axis=[1], keepdims=True) /* ty=Tensor[(2, 1), float32] */;
  %960 = subtract(%958, %959) /* ty=Tensor[(2, 18432), float32] */;
  %961 = power(%960, 2f /* ty=float32 */) /* ty=Tensor[(2, 18432), float32] */;
  %962 = mean(%961, axis=[1], keepdims=True) /* ty=Tensor[(2, 1), float32] */;
  %963 = add(%962, 1e-05f /* ty=float32 */) /* ty=Tensor[(2, 1), float32] */;
  %964 = sqrt(%963) /* ty=Tensor[(2, 1), float32] */;
  %965 = divide(1f /* ty=float32 */, %964) /* ty=Tensor[(2, 1), float32] */;
  %966 = repeat(%965, repeats=1, axis=0) /* ty=Tensor[(2, 1), float32] */;
  %967 = reshape(%957, newshape=[2, 18432]) /* ty=Tensor[(2, 18432), float32] */;
  %968 = reshape(%966, newshape=[2, 1]) /* ty=Tensor[(2, 1), float32] */;
  %969 = multiply(%967, %960) /* ty=Tensor[(2, 18432), float32] */;
  %970 = sum(%969, axis=[1], keepdims=True) /* ty=Tensor[(2, 1), float32] */;
  %971 = multiply(-0.5f /* ty=float32 */, %970) /* ty=Tensor[(2, 1), float32] */;
  %972 = power(%968, 3f /* ty=float32 */) /* ty=Tensor[(2, 1), float32] */;
  %973 = multiply(%971, %972) /* ty=Tensor[(2, 1), float32] */;
  %974 = multiply(%973, 5.42535e-05f /* ty=float32 */) /* ty=Tensor[(2, 1), float32] */;
  %975 = multiply(%960, %974) /* ty=Tensor[(2, 18432), float32] */;
  %976 = multiply(%967, %968) /* ty=Tensor[(2, 18432), float32] */;
  %977 = multiply(%975, 2f /* ty=float32 */) /* ty=Tensor[(2, 18432), float32] */;
  %978 = add(%976, %977) /* ty=Tensor[(2, 18432), float32] */;
  %979 = sum(%978, axis=[1], keepdims=True) /* ty=Tensor[(2, 1), float32] */;
  %980 = negative(%979) /* ty=Tensor[(2, 1), float32] */;
  %981 = multiply(%980, 5.42535e-05f /* ty=float32 */) /* ty=Tensor[(2, 1), float32] */;
  %982 = add(%978, %981) /* ty=Tensor[(2, 18432), float32] */;
  %983 = reshape(%982, newshape=[1, 16, 48, 48]) /* ty=Tensor[(1, 16, 48, 48), float32] */;
  %984 = transpose(%983, axes=[1, 0, 2, 3]) /* ty=Tensor[(16, 1, 48, 48), float32] */;
  %985 = reshape(%956, newshape=[8, 1, 48, 48]) /* ty=Tensor[(8, 1, 48, 48), float32] */;
  %986 = reshape(%984, newshape=[16, 1, 48, 48]) /* ty=Tensor[(16, 1, 48, 48), float32] */;
  %987 = nn.conv2d(%985, %986, padding=[0, 0, 0, 0], channels=16, kernel_size=[48, 48]) /* ty=Tensor[(8, 16, 1, 1), float32] */;
  %988 = transpose(%987, axes=[1, 0, 2, 3]) /* ty=Tensor[(16, 8, 1, 1), float32] */;
  %989 = reshape(%988, newshape=[8, 1, 16, 1, 1]) /* ty=Tensor[(8, 1, 16, 1, 1), float32] */;
  %990 = sum(%989, axis=[1]) /* ty=Tensor[(8, 16, 1, 1), float32] */;
  %991 = zeros(shape=[1, 8, 48, 48], dtype="float32") /* ty=Tensor[(1, 8, 48, 48), float32] */;
  %992 = less(%nn_relu_184_x, %991) /* ty=Tensor[(1, 8, 48, 48), bool] */;
  %993 = nn.conv2d_transpose(%983, %param_11_train, channels=8, kernel_size=[1, 1], padding=[0, 0, 0, 0], kernel_layout="IOHW") /* ty=Tensor[(1, 8, 48, 48), float32] */;
  %994 = where(%992, %991, %993) /* ty=Tensor[(1, 8, 48, 48), float32] */;
  %995 = multiply(%994, %multiply_186_x) /* ty=Tensor[(1, 8, 48, 48), float32] */;
  %996 = multiply(%994, %param_9_train) /* ty=Tensor[(1, 8, 48, 48), float32] */;
  %997 = reshape(%nn_instance_norm_188_x, newshape=[1, 18432]) /* ty=Tensor[(1, 18432), float32] */;
  %998 = mean(%997, axis=[1], keepdims=True) /* ty=Tensor[(1, 1), float32] */;
  %999 = subtract(%997, %998) /* ty=Tensor[(1, 18432), float32] */;
  %1000 = power(%999, 2f /* ty=float32 */) /* ty=Tensor[(1, 18432), float32] */;
  %1001 = mean(%1000, axis=[1], keepdims=True) /* ty=Tensor[(1, 1), float32] */;
  %1002 = add(%1001, 1e-05f /* ty=float32 */) /* ty=Tensor[(1, 1), float32] */;
  %1003 = sqrt(%1002) /* ty=Tensor[(1, 1), float32] */;
  %1004 = divide(1f /* ty=float32 */, %1003) /* ty=Tensor[(1, 1), float32] */;
  %1005 = repeat(%1004, repeats=1, axis=0) /* ty=Tensor[(1, 1), float32] */;
  %1006 = reshape(%996, newshape=[1, 18432]) /* ty=Tensor[(1, 18432), float32] */;
  %1007 = reshape(%1005, newshape=[1, 1]) /* ty=Tensor[(1, 1), float32] */;
  %1008 = multiply(%1006, %999) /* ty=Tensor[(1, 18432), float32] */;
  %1009 = sum(%1008, axis=[1], keepdims=True) /* ty=Tensor[(1, 1), float32] */;
  %1010 = multiply(-0.5f /* ty=float32 */, %1009) /* ty=Tensor[(1, 1), float32] */;
  %1011 = power(%1007, 3f /* ty=float32 */) /* ty=Tensor[(1, 1), float32] */;
  %1012 = multiply(%1010, %1011) /* ty=Tensor[(1, 1), float32] */;
  %1013 = multiply(%1012, 5.42535e-05f /* ty=float32 */) /* ty=Tensor[(1, 1), float32] */;
  %1014 = multiply(%999, %1013) /* ty=Tensor[(1, 18432), float32] */;
  %1015 = multiply(%1006, %1007) /* ty=Tensor[(1, 18432), float32] */;
  %1016 = multiply(%1014, 2f /* ty=float32 */) /* ty=Tensor[(1, 18432), float32] */;
  %1017 = add(%1015, %1016) /* ty=Tensor[(1, 18432), float32] */;
  %1018 = sum(%1017, axis=[1], keepdims=True) /* ty=Tensor[(1, 1), float32] */;
  %1019 = negative(%1018) /* ty=Tensor[(1, 1), float32] */;
  %1020 = multiply(%1019, 5.42535e-05f /* ty=float32 */) /* ty=Tensor[(1, 1), float32] */;
  %1021 = add(%1017, %1020) /* ty=Tensor[(1, 18432), float32] */;
  %1022 = reshape(%1021, newshape=[1, 8, 48, 48]) /* ty=Tensor[(1, 8, 48, 48), float32] */;
  %1023 = tile(%1022, reps=[1, 1, 1, 1]) /* ty=Tensor[(1, 8, 48, 48), float32] */;
  %1024 = reshape(%nn_conv2d_190_x, newshape=[1, -1, 0, 0]) /* ty=Tensor[(1, 8, 48, 48), float32] */;
  %1025 = reshape(%1023, newshape=[-1, 1, 0, 0]) /* ty=Tensor[(8, 1, 48, 48), float32] */;
  %1026 = nn.conv2d(%1024, %1025, padding=[1, 1, 1, 1], groups=8, channels=8, kernel_size=[48, 48]) /* ty=Tensor[(1, 8, 3, 3), float32] */;
  %1027 = reshape(%1026, newshape=[1, 1, 8, 3, 3]) /* ty=Tensor[(1, 1, 8, 3, 3), float32] */;
  %1028 = sum(%1027, axis=[0]) /* ty=Tensor[(1, 8, 3, 3), float32] */;
  %1029 = zeros(shape=[1, 8, 48, 48], dtype="float32") /* ty=Tensor[(1, 8, 48, 48), float32] */;
  %1030 = less(%nn_relu_191_x, %1029) /* ty=Tensor[(1, 8, 48, 48), bool] */;
  %1031 = nn.conv2d_transpose(%1022, %param_6_train, channels=8, kernel_size=[3, 3], padding=[1, 1, 1, 1], groups=8, kernel_layout="IOHW") /* ty=Tensor[(1, 8, 48, 48), float32] */;
  %1032 = where(%1030, %1029, %1031) /* ty=Tensor[(1, 8, 48, 48), float32] */;
  %1033 = multiply(%1032, %multiply_193_x) /* ty=Tensor[(1, 8, 48, 48), float32] */;
  %1034 = transpose(%nn_conv2d_197_x, axes=[1, 0, 2, 3]) /* ty=Tensor[(3, 1, 96, 96), float32] */;
  %1035 = multiply(%1032, %param_4_train) /* ty=Tensor[(1, 8, 48, 48), float32] */;
  %1036 = reshape(%nn_instance_norm_195_x, newshape=[1, 18432]) /* ty=Tensor[(1, 18432), float32] */;
  %1037 = mean(%1036, axis=[1], keepdims=True) /* ty=Tensor[(1, 1), float32] */;
  %1038 = subtract(%1036, %1037) /* ty=Tensor[(1, 18432), float32] */;
  %1039 = power(%1038, 2f /* ty=float32 */) /* ty=Tensor[(1, 18432), float32] */;
  %1040 = mean(%1039, axis=[1], keepdims=True) /* ty=Tensor[(1, 1), float32] */;
  %1041 = add(%1040, 1e-05f /* ty=float32 */) /* ty=Tensor[(1, 1), float32] */;
  %1042 = sqrt(%1041) /* ty=Tensor[(1, 1), float32] */;
  %1043 = divide(1f /* ty=float32 */, %1042) /* ty=Tensor[(1, 1), float32] */;
  %1044 = repeat(%1043, repeats=1, axis=0) /* ty=Tensor[(1, 1), float32] */;
  %1045 = reshape(%1035, newshape=[1, 18432]) /* ty=Tensor[(1, 18432), float32] */;
  %1046 = reshape(%1044, newshape=[1, 1]) /* ty=Tensor[(1, 1), float32] */;
  %1047 = multiply(%1045, %1038) /* ty=Tensor[(1, 18432), float32] */;
  %1048 = sum(%1047, axis=[1], keepdims=True) /* ty=Tensor[(1, 1), float32] */;
  %1049 = multiply(-0.5f /* ty=float32 */, %1048) /* ty=Tensor[(1, 1), float32] */;
  %1050 = power(%1046, 3f /* ty=float32 */) /* ty=Tensor[(1, 1), float32] */;
  %1051 = multiply(%1049, %1050) /* ty=Tensor[(1, 1), float32] */;
  %1052 = multiply(%1051, 5.42535e-05f /* ty=float32 */) /* ty=Tensor[(1, 1), float32] */;
  %1053 = multiply(%1038, %1052) /* ty=Tensor[(1, 18432), float32] */;
  %1054 = multiply(%1045, %1046) /* ty=Tensor[(1, 18432), float32] */;
  %1055 = multiply(%1053, 2f /* ty=float32 */) /* ty=Tensor[(1, 18432), float32] */;
  %1056 = add(%1054, %1055) /* ty=Tensor[(1, 18432), float32] */;
  %1057 = sum(%1056, axis=[1], keepdims=True) /* ty=Tensor[(1, 1), float32] */;
  %1058 = negative(%1057) /* ty=Tensor[(1, 1), float32] */;
  %1059 = multiply(%1058, 5.42535e-05f /* ty=float32 */) /* ty=Tensor[(1, 1), float32] */;
  %1060 = add(%1056, %1059) /* ty=Tensor[(1, 18432), float32] */;
  %1061 = reshape(%1060, newshape=[1, 8, 48, 48]) /* ty=Tensor[(1, 8, 48, 48), float32] */;
  %1062 = transpose(%1061, axes=[1, 0, 2, 3]) /* ty=Tensor[(8, 1, 48, 48), float32] */;
  %1063 = reshape(%1034, newshape=[3, 1, 96, 96]) /* ty=Tensor[(3, 1, 96, 96), float32] */;
  %1064 = reshape(%1062, newshape=[8, 1, 48, 48]) /* ty=Tensor[(8, 1, 48, 48), float32] */;
  %1065 = nn.conv2d(%1063, %1064, padding=[1, 1, 1, 1], dilation=[2, 2], channels=8, kernel_size=[48, 48]) /* ty=Tensor[(3, 8, 4, 4), float32] */;
  %1066 = reshape(%1065, newshape=[1, 3, 8, 4, 4]) /* ty=Tensor[(1, 3, 8, 4, 4), float32] */;
  %1067 = sum(%1066, axis=[0]) /* ty=Tensor[(3, 8, 4, 4), float32] */;
  %1068 = transpose(%1067, axes=[1, 0, 2, 3]) /* ty=Tensor[(8, 3, 4, 4), float32] */;
  %1069 = nn.matmul(%7, %nn_dense_5_x, units=None) /* ty=Tensor[(2, 256), float32] */;
  %1070 = sum(%14, axis=[2, 3], keepdims=True) /* ty=Tensor[(1, 256, 1, 1), float32] */;
  %1071 = sum(%15, axis=[2, 3], keepdims=True) /* ty=Tensor[(1, 256, 1, 1), float32] */;
  %1072 = zeros(shape=[32, 1], dtype="float32") /* ty=Tensor[(32, 1), float32] */;
  %1073 = zeros(shape=[32, 1], dtype="float32") /* ty=Tensor[(32, 1), float32] */;
  %1074 = reshape(%50, newshape=[256, 256, 1, 1]) /* ty=Tensor[(256, 256, 1, 1), float32] */;
  %1075 = sum(%54, axis=[2, 3], keepdims=True) /* ty=Tensor[(1, 256, 1, 1), float32] */;
  %1076 = sum(%55, axis=[2, 3], keepdims=True) /* ty=Tensor[(1, 256, 1, 1), float32] */;
  %1077 = zeros(shape=[32, 1], dtype="float32") /* ty=Tensor[(32, 1), float32] */;
  %1078 = zeros(shape=[32, 1], dtype="float32") /* ty=Tensor[(32, 1), float32] */;
  %1079 = transpose(%88, axes=[1, 0, 2, 3]) /* ty=Tensor[(256, 1, 3, 3), float32] */;
  %1080 = sum(%92, axis=[2, 3], keepdims=True) /* ty=Tensor[(1, 256, 1, 1), float32] */;
  %1081 = sum(%93, axis=[2, 3], keepdims=True) /* ty=Tensor[(1, 256, 1, 1), float32] */;
  %1082 = zeros(shape=[32, 1], dtype="float32") /* ty=Tensor[(32, 1), float32] */;
  %1083 = zeros(shape=[32, 1], dtype="float32") /* ty=Tensor[(32, 1), float32] */;
  %1084 = reshape(%128, newshape=[256, 128, 1, 1]) /* ty=Tensor[(256, 128, 1, 1), float32] */;
  %1085 = sum(%132, axis=[2, 3], keepdims=True) /* ty=Tensor[(1, 128, 1, 1), float32] */;
  %1086 = sum(%133, axis=[2, 3], keepdims=True) /* ty=Tensor[(1, 128, 1, 1), float32] */;
  %1087 = zeros(shape=[16, 1], dtype="float32") /* ty=Tensor[(16, 1), float32] */;
  %1088 = zeros(shape=[16, 1], dtype="float32") /* ty=Tensor[(16, 1), float32] */;
  %1089 = strided_slice(%167, begin=[0, 0, 0, 0], end=[128, 1, 3, 3], strides=[1], axes=None) /* ty=Tensor[(128, 1, 3, 3), float32] */;
  %1090 = sum(%171, axis=[2, 3], keepdims=True) /* ty=Tensor[(1, 128, 1, 1), float32] */;
  %1091 = sum(%172, axis=[2, 3], keepdims=True) /* ty=Tensor[(1, 128, 1, 1), float32] */;
  %1092 = zeros(shape=[16, 1], dtype="float32") /* ty=Tensor[(16, 1), float32] */;
  %1093 = zeros(shape=[16, 1], dtype="float32") /* ty=Tensor[(16, 1), float32] */;
  %1094 = reshape(%207, newshape=[128, 128, 1, 1]) /* ty=Tensor[(128, 128, 1, 1), float32] */;
  %1095 = sum(%211, axis=[2, 3], keepdims=True) /* ty=Tensor[(1, 128, 1, 1), float32] */;
  %1096 = sum(%212, axis=[2, 3], keepdims=True) /* ty=Tensor[(1, 128, 1, 1), float32] */;
  %1097 = zeros(shape=[16, 1], dtype="float32") /* ty=Tensor[(16, 1), float32] */;
  %1098 = zeros(shape=[16, 1], dtype="float32") /* ty=Tensor[(16, 1), float32] */;
  %1099 = transpose(%245, axes=[1, 0, 2, 3]) /* ty=Tensor[(128, 1, 3, 3), float32] */;
  %1100 = sum(%249, axis=[2, 3], keepdims=True) /* ty=Tensor[(1, 128, 1, 1), float32] */;
  %1101 = sum(%250, axis=[2, 3], keepdims=True) /* ty=Tensor[(1, 128, 1, 1), float32] */;
  %1102 = zeros(shape=[16, 1], dtype="float32") /* ty=Tensor[(16, 1), float32] */;
  %1103 = zeros(shape=[16, 1], dtype="float32") /* ty=Tensor[(16, 1), float32] */;
  %1104 = reshape(%285, newshape=[128, 128, 1, 1]) /* ty=Tensor[(128, 128, 1, 1), float32] */;
  %1105 = sum(%289, axis=[2, 3], keepdims=True) /* ty=Tensor[(1, 128, 1, 1), float32] */;
  %1106 = sum(%290, axis=[2, 3], keepdims=True) /* ty=Tensor[(1, 128, 1, 1), float32] */;
  %1107 = zeros(shape=[16, 1], dtype="float32") /* ty=Tensor[(16, 1), float32] */;
  %1108 = zeros(shape=[16, 1], dtype="float32") /* ty=Tensor[(16, 1), float32] */;
  %1109 = transpose(%323, axes=[1, 0, 2, 3]) /* ty=Tensor[(128, 1, 3, 3), float32] */;
  %1110 = sum(%327, axis=[2, 3], keepdims=True) /* ty=Tensor[(1, 128, 1, 1), float32] */;
  %1111 = sum(%328, axis=[2, 3], keepdims=True) /* ty=Tensor[(1, 128, 1, 1), float32] */;
  %1112 = zeros(shape=[16, 1], dtype="float32") /* ty=Tensor[(16, 1), float32] */;
  %1113 = zeros(shape=[16, 1], dtype="float32") /* ty=Tensor[(16, 1), float32] */;
  %1114 = reshape(%363, newshape=[128, 128, 1, 1]) /* ty=Tensor[(128, 128, 1, 1), float32] */;
  %1115 = sum(%367, axis=[2, 3], keepdims=True) /* ty=Tensor[(1, 128, 1, 1), float32] */;
  %1116 = sum(%368, axis=[2, 3], keepdims=True) /* ty=Tensor[(1, 128, 1, 1), float32] */;
  %1117 = zeros(shape=[16, 1], dtype="float32") /* ty=Tensor[(16, 1), float32] */;
  %1118 = zeros(shape=[16, 1], dtype="float32") /* ty=Tensor[(16, 1), float32] */;
  %1119 = transpose(%401, axes=[1, 0, 2, 3]) /* ty=Tensor[(128, 1, 3, 3), float32] */;
  %1120 = sum(%405, axis=[2, 3], keepdims=True) /* ty=Tensor[(1, 128, 1, 1), float32] */;
  %1121 = sum(%406, axis=[2, 3], keepdims=True) /* ty=Tensor[(1, 128, 1, 1), float32] */;
  %1122 = zeros(shape=[16, 1], dtype="float32") /* ty=Tensor[(16, 1), float32] */;
  %1123 = zeros(shape=[16, 1], dtype="float32") /* ty=Tensor[(16, 1), float32] */;
  %1124 = reshape(%441, newshape=[128, 128, 1, 1]) /* ty=Tensor[(128, 128, 1, 1), float32] */;
  %1125 = sum(%445, axis=[2, 3], keepdims=True) /* ty=Tensor[(1, 128, 1, 1), float32] */;
  %1126 = sum(%446, axis=[2, 3], keepdims=True) /* ty=Tensor[(1, 128, 1, 1), float32] */;
  %1127 = zeros(shape=[16, 1], dtype="float32") /* ty=Tensor[(16, 1), float32] */;
  %1128 = zeros(shape=[16, 1], dtype="float32") /* ty=Tensor[(16, 1), float32] */;
  %1129 = transpose(%479, axes=[1, 0, 2, 3]) /* ty=Tensor[(128, 1, 3, 3), float32] */;
  %1130 = sum(%483, axis=[2, 3], keepdims=True) /* ty=Tensor[(1, 128, 1, 1), float32] */;
  %1131 = sum(%484, axis=[2, 3], keepdims=True) /* ty=Tensor[(1, 128, 1, 1), float32] */;
  %1132 = zeros(shape=[16, 1], dtype="float32") /* ty=Tensor[(16, 1), float32] */;
  %1133 = zeros(shape=[16, 1], dtype="float32") /* ty=Tensor[(16, 1), float32] */;
  %1134 = reshape(%519, newshape=[128, 128, 1, 1]) /* ty=Tensor[(128, 128, 1, 1), float32] */;
  %1135 = sum(%523, axis=[2, 3], keepdims=True) /* ty=Tensor[(1, 128, 1, 1), float32] */;
  %1136 = sum(%524, axis=[2, 3], keepdims=True) /* ty=Tensor[(1, 128, 1, 1), float32] */;
  %1137 = zeros(shape=[16, 1], dtype="float32") /* ty=Tensor[(16, 1), float32] */;
  %1138 = zeros(shape=[16, 1], dtype="float32") /* ty=Tensor[(16, 1), float32] */;
  %1139 = transpose(%557, axes=[1, 0, 2, 3]) /* ty=Tensor[(128, 1, 3, 3), float32] */;
  %1140 = sum(%561, axis=[2, 3], keepdims=True) /* ty=Tensor[(1, 128, 1, 1), float32] */;
  %1141 = sum(%562, axis=[2, 3], keepdims=True) /* ty=Tensor[(1, 128, 1, 1), float32] */;
  %1142 = zeros(shape=[16, 1], dtype="float32") /* ty=Tensor[(16, 1), float32] */;
  %1143 = zeros(shape=[16, 1], dtype="float32") /* ty=Tensor[(16, 1), float32] */;
  %1144 = reshape(%597, newshape=[128, 64, 1, 1]) /* ty=Tensor[(128, 64, 1, 1), float32] */;
  %1145 = sum(%601, axis=[2, 3], keepdims=True) /* ty=Tensor[(1, 64, 1, 1), float32] */;
  %1146 = sum(%602, axis=[2, 3], keepdims=True) /* ty=Tensor[(1, 64, 1, 1), float32] */;
  %1147 = zeros(shape=[8, 1], dtype="float32") /* ty=Tensor[(8, 1), float32] */;
  %1148 = zeros(shape=[8, 1], dtype="float32") /* ty=Tensor[(8, 1), float32] */;
  %1149 = strided_slice(%636, begin=[0, 0, 0, 0], end=[64, 1, 3, 3], strides=[1], axes=None) /* ty=Tensor[(64, 1, 3, 3), float32] */;
  %1150 = sum(%640, axis=[2, 3], keepdims=True) /* ty=Tensor[(1, 64, 1, 1), float32] */;
  %1151 = sum(%641, axis=[2, 3], keepdims=True) /* ty=Tensor[(1, 64, 1, 1), float32] */;
  %1152 = zeros(shape=[8, 1], dtype="float32") /* ty=Tensor[(8, 1), float32] */;
  %1153 = zeros(shape=[8, 1], dtype="float32") /* ty=Tensor[(8, 1), float32] */;
  %1154 = reshape(%676, newshape=[64, 64, 1, 1]) /* ty=Tensor[(64, 64, 1, 1), float32] */;
  %1155 = sum(%680, axis=[2, 3], keepdims=True) /* ty=Tensor[(1, 64, 1, 1), float32] */;
  %1156 = sum(%681, axis=[2, 3], keepdims=True) /* ty=Tensor[(1, 64, 1, 1), float32] */;
  %1157 = zeros(shape=[8, 1], dtype="float32") /* ty=Tensor[(8, 1), float32] */;
  %1158 = zeros(shape=[8, 1], dtype="float32") /* ty=Tensor[(8, 1), float32] */;
  %1159 = transpose(%714, axes=[1, 0, 2, 3]) /* ty=Tensor[(64, 1, 3, 3), float32] */;
  %1160 = sum(%718, axis=[2, 3], keepdims=True) /* ty=Tensor[(1, 64, 1, 1), float32] */;
  %1161 = sum(%719, axis=[2, 3], keepdims=True) /* ty=Tensor[(1, 64, 1, 1), float32] */;
  %1162 = zeros(shape=[8, 1], dtype="float32") /* ty=Tensor[(8, 1), float32] */;
  %1163 = zeros(shape=[8, 1], dtype="float32") /* ty=Tensor[(8, 1), float32] */;
  %1164 = reshape(%754, newshape=[64, 32, 1, 1]) /* ty=Tensor[(64, 32, 1, 1), float32] */;
  %1165 = sum(%758, axis=[2, 3], keepdims=True) /* ty=Tensor[(1, 32, 1, 1), float32] */;
  %1166 = sum(%759, axis=[2, 3], keepdims=True) /* ty=Tensor[(1, 32, 1, 1), float32] */;
  %1167 = zeros(shape=[4, 1], dtype="float32") /* ty=Tensor[(4, 1), float32] */;
  %1168 = zeros(shape=[4, 1], dtype="float32") /* ty=Tensor[(4, 1), float32] */;
  %1169 = strided_slice(%793, begin=[0, 0, 0, 0], end=[32, 1, 3, 3], strides=[1], axes=None) /* ty=Tensor[(32, 1, 3, 3), float32] */;
  %1170 = sum(%797, axis=[2, 3], keepdims=True) /* ty=Tensor[(1, 32, 1, 1), float32] */;
  %1171 = sum(%798, axis=[2, 3], keepdims=True) /* ty=Tensor[(1, 32, 1, 1), float32] */;
  %1172 = zeros(shape=[4, 1], dtype="float32") /* ty=Tensor[(4, 1), float32] */;
  %1173 = zeros(shape=[4, 1], dtype="float32") /* ty=Tensor[(4, 1), float32] */;
  %1174 = reshape(%833, newshape=[32, 32, 1, 1]) /* ty=Tensor[(32, 32, 1, 1), float32] */;
  %1175 = sum(%837, axis=[2, 3], keepdims=True) /* ty=Tensor[(1, 32, 1, 1), float32] */;
  %1176 = sum(%838, axis=[2, 3], keepdims=True) /* ty=Tensor[(1, 32, 1, 1), float32] */;
  %1177 = zeros(shape=[4, 1], dtype="float32") /* ty=Tensor[(4, 1), float32] */;
  %1178 = zeros(shape=[4, 1], dtype="float32") /* ty=Tensor[(4, 1), float32] */;
  %1179 = transpose(%871, axes=[1, 0, 2, 3]) /* ty=Tensor[(32, 1, 3, 3), float32] */;
  %1180 = sum(%875, axis=[2, 3], keepdims=True) /* ty=Tensor[(1, 32, 1, 1), float32] */;
  %1181 = sum(%876, axis=[2, 3], keepdims=True) /* ty=Tensor[(1, 32, 1, 1), float32] */;
  %1182 = zeros(shape=[4, 1], dtype="float32") /* ty=Tensor[(4, 1), float32] */;
  %1183 = zeros(shape=[4, 1], dtype="float32") /* ty=Tensor[(4, 1), float32] */;
  %1184 = reshape(%911, newshape=[32, 16, 1, 1]) /* ty=Tensor[(32, 16, 1, 1), float32] */;
  %1185 = sum(%915, axis=[2, 3], keepdims=True) /* ty=Tensor[(1, 16, 1, 1), float32] */;
  %1186 = sum(%916, axis=[2, 3], keepdims=True) /* ty=Tensor[(1, 16, 1, 1), float32] */;
  %1187 = zeros(shape=[2, 1], dtype="float32") /* ty=Tensor[(2, 1), float32] */;
  %1188 = zeros(shape=[2, 1], dtype="float32") /* ty=Tensor[(2, 1), float32] */;
  %1189 = strided_slice(%950, begin=[0, 0, 0, 0], end=[16, 1, 3, 3], strides=[1], axes=None) /* ty=Tensor[(16, 1, 3, 3), float32] */;
  %1190 = sum(%954, axis=[2, 3], keepdims=True) /* ty=Tensor[(1, 16, 1, 1), float32] */;
  %1191 = sum(%955, axis=[2, 3], keepdims=True) /* ty=Tensor[(1, 16, 1, 1), float32] */;
  %1192 = zeros(shape=[2, 1], dtype="float32") /* ty=Tensor[(2, 1), float32] */;
  %1193 = zeros(shape=[2, 1], dtype="float32") /* ty=Tensor[(2, 1), float32] */;
  %1194 = reshape(%990, newshape=[16, 8, 1, 1]) /* ty=Tensor[(16, 8, 1, 1), float32] */;
  %1195 = sum(%994, axis=[2, 3], keepdims=True) /* ty=Tensor[(1, 8, 1, 1), float32] */;
  %1196 = sum(%995, axis=[2, 3], keepdims=True) /* ty=Tensor[(1, 8, 1, 1), float32] */;
  %1197 = zeros(shape=[1, 1], dtype="float32") /* ty=Tensor[(1, 1), float32] */;
  %1198 = zeros(shape=[1, 1], dtype="float32") /* ty=Tensor[(1, 1), float32] */;
  %1199 = transpose(%1028, axes=[1, 0, 2, 3]) /* ty=Tensor[(8, 1, 3, 3), float32] */;
  %1200 = sum(%1032, axis=[2, 3], keepdims=True) /* ty=Tensor[(1, 8, 1, 1), float32] */;
  %1201 = sum(%1033, axis=[2, 3], keepdims=True) /* ty=Tensor[(1, 8, 1, 1), float32] */;
  %1202 = zeros(shape=[1, 1], dtype="float32") /* ty=Tensor[(1, 1), float32] */;
  %1203 = zeros(shape=[1, 1], dtype="float32") /* ty=Tensor[(1, 1), float32] */;
  %1204 = strided_slice(%1068, begin=[0, 0, 0, 0], end=[8, 3, 3, 3], strides=[1], axes=None) /* ty=Tensor[(8, 3, 3, 3), float32] */;
  (%6, %1069, %1070, %1071, %1072, %1073, %1074, %1075, %1076, %1077, %1078, %1079, %1080, %1081, %1082, %1083, %1084, %1085, %1086, %1087, %1088, %1089, %1090, %1091, %1092, %1093, %1094, %1095, %1096, %1097, %1098, %1099, %1100, %1101, %1102, %1103, %1104, %1105, %1106, %1107, %1108, %1109, %1110, %1111, %1112, %1113, %1114, %1115, %1116, %1117, %1118, %1119, %1120, %1121, %1122, %1123, %1124, %1125, %1126, %1127, %1128, %1129, %1130, %1131, %1132, %1133, %1134, %1135, %1136, %1137, %1138, %1139, %1140, %1141, %1142, %1143, %1144, %1145, %1146, %1147, %1148, %1149, %1150, %1151, %1152, %1153, %1154, %1155, %1156, %1157, %1158, %1159, %1160, %1161, %1162, %1163, %1164, %1165, %1166, %1167, %1168, %1169, %1170, %1171, %1172, %1173, %1174, %1175, %1176, %1177, %1178, %1179, %1180, %1181, %1182, %1183, %1184, %1185, %1186, %1187, %1188, %1189, %1190, %1191, %1192, %1193, %1194, %1195, %1196, %1197, %1198, %1199, %1200, %1201, %1202, %1203, %1204)
}
