def @main(%grad_output: float32, %nn_cross_entropy_with_logits_0_pred: Tensor[(1, 2), float32], %nn_log_softmax_1_y: Tensor[(1, 2), float32], %nn_dense_5_x: Tensor[(1, 256), float32], %nn_batch_flatten_6_x: Tensor[(1, 256, 1, 1), float32], %nn_avg_pool2d_7_x: Tensor[(1, 256, 3, 3), float32], %nn_relu_9_x: Tensor[(1, 256, 3, 3), float32], %multiply_11_x: Tensor[(1, 256, 3, 3), float32], %nn_instance_norm_13_x: Tensor[(1, 32, 72), float32], %nn_conv2d_15_x: Tensor[(1, 256, 3, 3), float32], %nn_relu_16_x: Tensor[(1, 256, 3, 3), float32], %multiply_18_x: Tensor[(1, 256, 3, 3), float32], %nn_instance_norm_20_x: Tensor[(1, 32, 72), float32], %nn_conv2d_22_x: Tensor[(1, 256, 3, 3), float32], %nn_relu_23_x: Tensor[(1, 256, 3, 3), float32], %multiply_25_x: Tensor[(1, 256, 3, 3), float32], %nn_instance_norm_27_x: Tensor[(1, 32, 72), float32], %nn_conv2d_29_x: Tensor[(1, 128, 3, 3), float32], %nn_relu_30_x: Tensor[(1, 128, 3, 3), float32], %multiply_32_x: Tensor[(1, 128, 3, 3), float32], %nn_instance_norm_34_x: Tensor[(1, 16, 72), float32], %nn_conv2d_36_x: Tensor[(1, 128, 6, 6), float32], %nn_relu_37_x: Tensor[(1, 128, 6, 6), float32], %multiply_39_x: Tensor[(1, 128, 6, 6), float32], %nn_instance_norm_41_x: Tensor[(1, 16, 288), float32], %nn_conv2d_43_x: Tensor[(1, 128, 6, 6), float32], %nn_relu_44_x: Tensor[(1, 128, 6, 6), float32], %multiply_46_x: Tensor[(1, 128, 6, 6), float32], %nn_instance_norm_48_x: Tensor[(1, 16, 288), float32], %nn_conv2d_50_x: Tensor[(1, 128, 6, 6), float32], %nn_relu_51_x: Tensor[(1, 128, 6, 6), float32], %multiply_53_x: Tensor[(1, 128, 6, 6), float32], %nn_instance_norm_55_x: Tensor[(1, 16, 288), float32], %nn_conv2d_57_x: Tensor[(1, 128, 6, 6), float32], %nn_relu_58_x: Tensor[(1, 128, 6, 6), float32], %multiply_60_x: Tensor[(1, 128, 6, 6), float32], %nn_instance_norm_62_x: Tensor[(1, 16, 288), float32], %nn_conv2d_64_x: Tensor[(1, 128, 6, 6), float32], %nn_relu_65_x: Tensor[(1, 128, 6, 6), float32], %multiply_67_x: Tensor[(1, 128, 6, 6), float32], %nn_instance_norm_69_x: Tensor[(1, 16, 288), float32], %nn_conv2d_71_x: Tensor[(1, 128, 6, 6), float32], %nn_relu_72_x: Tensor[(1, 128, 6, 6), float32], %multiply_74_x: Tensor[(1, 128, 6, 6), float32], %nn_instance_norm_76_x: Tensor[(1, 16, 288), float32], %nn_conv2d_78_x: Tensor[(1, 128, 6, 6), float32], %nn_relu_79_x: Tensor[(1, 128, 6, 6), float32], %multiply_81_x: Tensor[(1, 128, 6, 6), float32], %nn_instance_norm_83_x: Tensor[(1, 16, 288), float32], %nn_conv2d_85_x: Tensor[(1, 128, 6, 6), float32], %nn_relu_86_x: Tensor[(1, 128, 6, 6), float32], %multiply_88_x: Tensor[(1, 128, 6, 6), float32], %nn_instance_norm_90_x: Tensor[(1, 16, 288), float32], %nn_conv2d_92_x: Tensor[(1, 128, 6, 6), float32], %nn_relu_93_x: Tensor[(1, 128, 6, 6), float32], %multiply_95_x: Tensor[(1, 128, 6, 6), float32], %nn_instance_norm_97_x: Tensor[(1, 16, 288), float32], %nn_conv2d_99_x: Tensor[(1, 128, 6, 6), float32], %nn_relu_100_x: Tensor[(1, 128, 6, 6), float32], %multiply_102_x: Tensor[(1, 128, 6, 6), float32], %nn_instance_norm_104_x: Tensor[(1, 16, 288), float32], %nn_conv2d_106_x: Tensor[(1, 128, 6, 6), float32], %nn_relu_107_x: Tensor[(1, 128, 6, 6), float32], %multiply_109_x: Tensor[(1, 128, 6, 6), float32], %nn_instance_norm_111_x: Tensor[(1, 16, 288), float32], %nn_conv2d_113_x: Tensor[(1, 64, 6, 6), float32], %nn_relu_114_x: Tensor[(1, 64, 6, 6), float32], %multiply_116_x: Tensor[(1, 64, 6, 6), float32], %nn_instance_norm_118_x: Tensor[(1, 8, 288), float32], %nn_conv2d_120_x: Tensor[(1, 64, 12, 12), float32], %nn_relu_121_x: Tensor[(1, 64, 12, 12), float32], %multiply_123_x: Tensor[(1, 64, 12, 12), float32], %nn_instance_norm_125_x: Tensor[(1, 8, 1152), float32], %nn_conv2d_127_x: Tensor[(1, 64, 12, 12), float32], %nn_relu_128_x: Tensor[(1, 64, 12, 12), float32], %multiply_130_x: Tensor[(1, 64, 12, 12), float32], %nn_instance_norm_132_x: Tensor[(1, 8, 1152), float32], %nn_conv2d_134_x: Tensor[(1, 64, 12, 12), float32], %nn_relu_135_x: Tensor[(1, 64, 12, 12), float32], %multiply_137_x: Tensor[(1, 64, 12, 12), float32], %nn_instance_norm_139_x: Tensor[(1, 8, 1152), float32], %nn_conv2d_141_x: Tensor[(1, 32, 12, 12), float32], %nn_relu_142_x: Tensor[(1, 32, 12, 12), float32], %multiply_144_x: Tensor[(1, 32, 12, 12), float32], %nn_instance_norm_146_x: Tensor[(1, 4, 1152), float32], %nn_conv2d_148_x: Tensor[(1, 32, 24, 24), float32], %nn_relu_149_x: Tensor[(1, 32, 24, 24), float32], %multiply_151_x: Tensor[(1, 32, 24, 24), float32], %nn_instance_norm_153_x: Tensor[(1, 4, 4608), float32], %nn_conv2d_155_x: Tensor[(1, 32, 24, 24), float32], %nn_relu_156_x: Tensor[(1, 32, 24, 24), float32], %multiply_158_x: Tensor[(1, 32, 24, 24), float32], %nn_instance_norm_160_x: Tensor[(1, 4, 4608), float32], %nn_conv2d_162_x: Tensor[(1, 32, 24, 24), float32], %nn_relu_163_x: Tensor[(1, 32, 24, 24), float32], %multiply_165_x: Tensor[(1, 32, 24, 24), float32], %nn_instance_norm_167_x: Tensor[(1, 4, 4608), float32], %nn_conv2d_169_x: Tensor[(1, 16, 24, 24), float32], %nn_relu_170_x: Tensor[(1, 16, 24, 24), float32], %multiply_172_x: Tensor[(1, 16, 24, 24), float32], %nn_instance_norm_174_x: Tensor[(1, 2, 4608), float32], %nn_conv2d_176_x: Tensor[(1, 16, 48, 48), float32], %nn_relu_177_x: Tensor[(1, 16, 48, 48), float32], %multiply_179_x: Tensor[(1, 16, 48, 48), float32], %nn_instance_norm_181_x: Tensor[(1, 2, 18432), float32], %nn_conv2d_183_x: Tensor[(1, 8, 48, 48), float32], %nn_relu_184_x: Tensor[(1, 8, 48, 48), float32], %multiply_186_x: Tensor[(1, 8, 48, 48), float32], %nn_instance_norm_188_x: Tensor[(1, 1, 18432), float32], %nn_conv2d_190_x: Tensor[(1, 8, 48, 48), float32], %nn_relu_191_x: Tensor[(1, 8, 48, 48), float32], %multiply_193_x: Tensor[(1, 8, 48, 48), float32], %nn_instance_norm_195_x: Tensor[(1, 1, 18432), float32], %nn_conv2d_197_x: Tensor[(1, 3, 96, 96), float32], %data_0: Tensor[(1, 3, 96, 96), float32], %param_1_train: Tensor[(8, 3, 3, 3), float32], %param_2_train: Tensor[(1), float32], %param_3_train: Tensor[(1), float32], %param_4_train: Tensor[(8, 1, 1), float32], %param_5_train: Tensor[(8, 1, 1), float32], %param_6_train: Tensor[(8, 1, 3, 3), float32], %param_7_train: Tensor[(1), float32], %param_8_train: Tensor[(1), float32], %param_9_train: Tensor[(8, 1, 1), float32], %param_10_train: Tensor[(8, 1, 1), float32], %param_11_train: Tensor[(16, 8, 1, 1), float32], %param_12_train: Tensor[(2), float32], %param_13_train: Tensor[(2), float32], %param_14_train: Tensor[(16, 1, 1), float32], %param_15_train: Tensor[(16, 1, 1), float32], %param_16_train: Tensor[(16, 1, 3, 3), float32], %param_17_train: Tensor[(2), float32], %param_18_train: Tensor[(2), float32], %param_19_train: Tensor[(16, 1, 1), float32], %param_20_train: Tensor[(16, 1, 1), float32], %param_21_train: Tensor[(32, 16, 1, 1), float32], %param_22_train: Tensor[(4), float32], %param_23_train: Tensor[(4), float32], %param_24_train: Tensor[(32, 1, 1), float32], %param_25_train: Tensor[(32, 1, 1), float32], %param_26_train: Tensor[(32, 1, 3, 3), float32], %param_27_train: Tensor[(4), float32], %param_28_train: Tensor[(4), float32], %param_29_train: Tensor[(32, 1, 1), float32], %param_30_train: Tensor[(32, 1, 1), float32], %param_31_train: Tensor[(32, 32, 1, 1), float32], %param_32_train: Tensor[(4), float32], %param_33_train: Tensor[(4), float32], %param_34_train: Tensor[(32, 1, 1), float32], %param_35_train: Tensor[(32, 1, 1), float32], %param_36_train: Tensor[(32, 1, 3, 3), float32], %param_37_train: Tensor[(4), float32], %param_38_train: Tensor[(4), float32], %param_39_train: Tensor[(32, 1, 1), float32], %param_40_train: Tensor[(32, 1, 1), float32], %param_41_train: Tensor[(64, 32, 1, 1), float32], %param_42_train: Tensor[(8), float32], %param_43_train: Tensor[(8), float32], %param_44_train: Tensor[(64, 1, 1), float32], %param_45_train: Tensor[(64, 1, 1), float32], %param_46_train: Tensor[(64, 1, 3, 3), float32], %param_47_train: Tensor[(8), float32], %param_48_train: Tensor[(8), float32], %param_49_train: Tensor[(64, 1, 1), float32], %param_50_train: Tensor[(64, 1, 1), float32], %param_51_train: Tensor[(64, 64, 1, 1), float32], %param_52_train: Tensor[(8), float32], %param_53_train: Tensor[(8), float32], %param_54_train: Tensor[(64, 1, 1), float32], %param_55_train: Tensor[(64, 1, 1), float32], %param_56_train: Tensor[(64, 1, 3, 3), float32], %param_57_train: Tensor[(8), float32], %param_58_train: Tensor[(8), float32], %param_59_train: Tensor[(64, 1, 1), float32], %param_60_train: Tensor[(64, 1, 1), float32], %param_61_train: Tensor[(128, 64, 1, 1), float32], %param_62_train: Tensor[(16), float32], %param_63_train: Tensor[(16), float32], %param_64_train: Tensor[(128, 1, 1), float32], %param_65_train: Tensor[(128, 1, 1), float32], %param_66_train: Tensor[(128, 1, 3, 3), float32], %param_67_train: Tensor[(16), float32], %param_68_train: Tensor[(16), float32], %param_69_train: Tensor[(128, 1, 1), float32], %param_70_train: Tensor[(128, 1, 1), float32], %param_71_train: Tensor[(128, 128, 1, 1), float32], %param_72_train: Tensor[(16), float32], %param_73_train: Tensor[(16), float32], %param_74_train: Tensor[(128, 1, 1), float32], %param_75_train: Tensor[(128, 1, 1), float32], %param_76_train: Tensor[(128, 1, 3, 3), float32], %param_77_train: Tensor[(16), float32], %param_78_train: Tensor[(16), float32], %param_79_train: Tensor[(128, 1, 1), float32], %param_80_train: Tensor[(128, 1, 1), float32], %param_81_train: Tensor[(128, 128, 1, 1), float32], %param_82_train: Tensor[(16), float32], %param_83_train: Tensor[(16), float32], %param_84_train: Tensor[(128, 1, 1), float32], %param_85_train: Tensor[(128, 1, 1), float32], %param_86_train: Tensor[(128, 1, 3, 3), float32], %param_87_train: Tensor[(16), float32], %param_88_train: Tensor[(16), float32], %param_89_train: Tensor[(128, 1, 1), float32], %param_90_train: Tensor[(128, 1, 1), float32], %param_91_train: Tensor[(128, 128, 1, 1), float32], %param_92_train: Tensor[(16), float32], %param_93_train: Tensor[(16), float32], %param_94_train: Tensor[(128, 1, 1), float32], %param_95_train: Tensor[(128, 1, 1), float32], %param_96_train: Tensor[(128, 1, 3, 3), float32], %param_97_train: Tensor[(16), float32], %param_98_train: Tensor[(16), float32], %param_99_train: Tensor[(128, 1, 1), float32], %param_100_train: Tensor[(128, 1, 1), float32], %param_101_train: Tensor[(128, 128, 1, 1), float32], %param_102_train: Tensor[(16), float32], %param_103_train: Tensor[(16), float32], %param_104_train: Tensor[(128, 1, 1), float32], %param_105_train: Tensor[(128, 1, 1), float32], %param_106_train: Tensor[(128, 1, 3, 3), float32], %param_107_train: Tensor[(16), float32], %param_108_train: Tensor[(16), float32], %param_109_train: Tensor[(128, 1, 1), float32], %param_110_train: Tensor[(128, 1, 1), float32], %param_111_train: Tensor[(128, 128, 1, 1), float32], %param_112_train: Tensor[(16), float32], %param_113_train: Tensor[(16), float32], %param_114_train: Tensor[(128, 1, 1), float32], %param_115_train: Tensor[(128, 1, 1), float32], %param_116_train: Tensor[(128, 1, 3, 3), float32], %param_117_train: Tensor[(16), float32], %param_118_train: Tensor[(16), float32], %param_119_train: Tensor[(128, 1, 1), float32], %param_120_train: Tensor[(128, 1, 1), float32], %param_121_train: Tensor[(256, 128, 1, 1), float32], %param_122_train: Tensor[(32), float32], %param_123_train: Tensor[(32), float32], %param_124_train: Tensor[(256, 1, 1), float32], %param_125_train: Tensor[(256, 1, 1), float32], %param_126_train: Tensor[(256, 1, 3, 3), float32], %param_127_train: Tensor[(32), float32], %param_128_train: Tensor[(32), float32], %param_129_train: Tensor[(256, 1, 1), float32], %param_130_train: Tensor[(256, 1, 1), float32], %param_131_train: Tensor[(256, 256, 1, 1), float32], %param_132_train: Tensor[(32), float32], %param_133_train: Tensor[(32), float32], %param_134_train: Tensor[(256, 1, 1), float32], %param_135_train: Tensor[(256, 1, 1), float32], %param_136_train: Tensor[(2, 256), float32], %param_137_train: Tensor[(2), float32], %label: Tensor[(1, 2), float32]) -> (Tensor[(1, 2), float32], Tensor[(2, 256), float32], Tensor[(1, 256, 1, 1), float32], Tensor[(1, 256, 1, 1), float32], Tensor[(32, 1), float32], Tensor[(32, 1), float32], Tensor[(256, 256, 1, 1), float32], Tensor[(1, 256, 1, 1), float32], Tensor[(1, 256, 1, 1), float32], Tensor[(32, 1), float32], Tensor[(32, 1), float32], Tensor[(256, 1, 3, 3), float32], Tensor[(1, 256, 1, 1), float32], Tensor[(1, 256, 1, 1), float32], Tensor[(32, 1), float32], Tensor[(32, 1), float32], Tensor[(256, 128, 1, 1), float32], Tensor[(1, 128, 1, 1), float32], Tensor[(1, 128, 1, 1), float32], Tensor[(16, 1), float32], Tensor[(16, 1), float32], Tensor[(128, 1, 3, 3), float32], Tensor[(1, 128, 1, 1), float32], Tensor[(1, 128, 1, 1), float32], Tensor[(16, 1), float32], Tensor[(16, 1), float32], Tensor[(128, 128, 1, 1), float32], Tensor[(1, 128, 1, 1), float32], Tensor[(1, 128, 1, 1), float32], Tensor[(16, 1), float32], Tensor[(16, 1), float32], Tensor[(128, 1, 3, 3), float32], Tensor[(1, 128, 1, 1), float32], Tensor[(1, 128, 1, 1), float32], Tensor[(16, 1), float32], Tensor[(16, 1), float32], Tensor[(128, 128, 1, 1), float32], Tensor[(1, 128, 1, 1), float32], Tensor[(1, 128, 1, 1), float32], Tensor[(16, 1), float32], Tensor[(16, 1), float32], Tensor[(128, 1, 3, 3), float32], Tensor[(1, 128, 1, 1), float32], Tensor[(1, 128, 1, 1), float32], Tensor[(16, 1), float32], Tensor[(16, 1), float32], Tensor[(128, 128, 1, 1), float32], Tensor[(1, 128, 1, 1), float32], Tensor[(1, 128, 1, 1), float32], Tensor[(16, 1), float32], Tensor[(16, 1), float32], Tensor[(128, 1, 3, 3), float32], Tensor[(1, 128, 1, 1), float32], Tensor[(1, 128, 1, 1), float32], Tensor[(16, 1), float32], Tensor[(16, 1), float32], Tensor[(128, 128, 1, 1), float32], Tensor[(1, 128, 1, 1), float32], Tensor[(1, 128, 1, 1), float32], Tensor[(16, 1), float32], Tensor[(16, 1), float32], Tensor[(128, 1, 3, 3), float32], Tensor[(1, 128, 1, 1), float32], Tensor[(1, 128, 1, 1), float32], Tensor[(16, 1), float32], Tensor[(16, 1), float32], Tensor[(128, 128, 1, 1), float32], Tensor[(1, 128, 1, 1), float32], Tensor[(1, 128, 1, 1), float32], Tensor[(16, 1), float32], Tensor[(16, 1), float32], Tensor[(128, 1, 3, 3), float32], Tensor[(1, 128, 1, 1), float32], Tensor[(1, 128, 1, 1), float32], Tensor[(16, 1), float32], Tensor[(16, 1), float32], Tensor[(128, 64, 1, 1), float32], Tensor[(1, 64, 1, 1), float32], Tensor[(1, 64, 1, 1), float32], Tensor[(8, 1), float32], Tensor[(8, 1), float32], Tensor[(64, 1, 3, 3), float32], Tensor[(1, 64, 1, 1), float32], Tensor[(1, 64, 1, 1), float32], Tensor[(8, 1), float32], Tensor[(8, 1), float32], Tensor[(64, 64, 1, 1), float32], Tensor[(1, 64, 1, 1), float32], Tensor[(1, 64, 1, 1), float32], Tensor[(8, 1), float32], Tensor[(8, 1), float32], Tensor[(64, 1, 3, 3), float32], Tensor[(1, 64, 1, 1), float32], Tensor[(1, 64, 1, 1), float32], Tensor[(8, 1), float32], Tensor[(8, 1), float32], Tensor[(64, 32, 1, 1), float32], Tensor[(1, 32, 1, 1), float32], Tensor[(1, 32, 1, 1), float32], Tensor[(4, 1), float32], Tensor[(4, 1), float32], Tensor[(32, 1, 3, 3), float32], Tensor[(1, 32, 1, 1), float32], Tensor[(1, 32, 1, 1), float32], Tensor[(4, 1), float32], Tensor[(4, 1), float32], Tensor[(32, 32, 1, 1), float32], Tensor[(1, 32, 1, 1), float32], Tensor[(1, 32, 1, 1), float32], Tensor[(4, 1), float32], Tensor[(4, 1), float32], Tensor[(32, 1, 3, 3), float32], Tensor[(1, 32, 1, 1), float32], Tensor[(1, 32, 1, 1), float32], Tensor[(4, 1), float32], Tensor[(4, 1), float32], Tensor[(32, 16, 1, 1), float32], Tensor[(1, 16, 1, 1), float32], Tensor[(1, 16, 1, 1), float32], Tensor[(2, 1), float32], Tensor[(2, 1), float32], Tensor[(16, 1, 3, 3), float32], Tensor[(1, 16, 1, 1), float32], Tensor[(1, 16, 1, 1), float32], Tensor[(2, 1), float32], Tensor[(2, 1), float32], Tensor[(16, 8, 1, 1), float32], Tensor[(1, 8, 1, 1), float32], Tensor[(1, 8, 1, 1), float32], Tensor[(1, 1), float32], Tensor[(1, 1), float32], Tensor[(8, 1, 3, 3), float32], Tensor[(1, 8, 1, 1), float32], Tensor[(1, 8, 1, 1), float32], Tensor[(1, 1), float32], Tensor[(1, 1), float32], Tensor[(8, 3, 3, 3), float32]) {
  %0 = negative(%grad_output) /* ty=float32 */;
  %1 = multiply(%0, %label) /* ty=Tensor[(1, 2), float32] */;
  %2 = sum(%1, axis=[-1], keepdims=True) /* ty=Tensor[(1, 1), float32] */;
  %3 = exp(%nn_log_softmax_1_y) /* ty=Tensor[(1, 2), float32] */;
  %4 = multiply(%2, %3) /* ty=Tensor[(1, 2), float32] */;
  %5 = subtract(%1, %4) /* ty=Tensor[(1, 2), float32] */;
  %6 = reshape(%5, newshape=[1, 2]) /* ty=Tensor[(1, 2), float32] */;
  %7 = transpose(%6, axes=None) /* ty=Tensor[(2, 1), float32] */;
  %8 = zeros(shape=[1, 256, 3, 3], dtype="float32") /* ty=Tensor[(1, 256, 3, 3), float32] */;
  %9 = nn.matmul(%6, %param_136_train, units=None) /* ty=Tensor[(1, 256), float32] */;
  %10 = reshape(%9, newshape=[1, 256, 1, 1]) /* ty=Tensor[(1, 256, 1, 1), float32] */;
  %11 = nn.avg_pool2d_grad(%10, %nn_avg_pool2d_7_x, pool_size=[3, 3], strides=[3, 3], dilation=[], padding=[0, 0, 0, 0]) /* ty=Tensor[(1, 256, 3, 3), float32] */;
  %12 = less(%nn_relu_9_x, %8) /* ty=Tensor[(1, 256, 3, 3), bool] */;
  %13 = strided_slice(%11, begin=[0, 0, 0, 0], end=[None, None, None, None], strides=[1], axes=None) /* ty=Tensor[(1, 256, 3, 3), float32] */;
  %14 = where(%12, %8, %13) /* ty=Tensor[(1, 256, 3, 3), float32] */;
  %15 = multiply(%14, %multiply_11_x) /* ty=Tensor[(1, 256, 3, 3), float32] */;
  %16 = transpose(%nn_conv2d_15_x, axes=[1, 0, 2, 3]) /* ty=Tensor[(256, 1, 3, 3), float32] */;
  %17 = multiply(%14, %param_134_train) /* ty=Tensor[(1, 256, 3, 3), float32] */;
  %18 = reshape(%nn_instance_norm_13_x, newshape=[32, 72]) /* ty=Tensor[(32, 72), float32] */;
  %19 = mean(%18, axis=[1], keepdims=True) /* ty=Tensor[(32, 1), float32] */;
  %20 = subtract(%18, %19) /* ty=Tensor[(32, 72), float32] */;
  %21 = multiply(%20, %20) /* ty=Tensor[(32, 72), float32] */;
  %22 = mean(%21, axis=[1], keepdims=True) /* ty=Tensor[(32, 1), float32] */;
  %23 = add(%22, 1e-05f /* ty=float32 */) /* ty=Tensor[(32, 1), float32] */;
  %24 = sqrt(%23) /* ty=Tensor[(32, 1), float32] */;
  %25 = divide(1f /* ty=float32 */, %24) /* ty=Tensor[(32, 1), float32] */;
  %26 = repeat(%25, repeats=1, axis=0) /* ty=Tensor[(32, 1), float32] */;
  %27 = reshape(%17, newshape=[32, 72]) /* ty=Tensor[(32, 72), float32] */;
  %28 = reshape(%26, newshape=[32, 1]) /* ty=Tensor[(32, 1), float32] */;
  %29 = multiply(%27, %20) /* ty=Tensor[(32, 72), float32] */;
  %30 = sum(%29, axis=[1], keepdims=True) /* ty=Tensor[(32, 1), float32] */;
  %31 = multiply(%28, %28) /* ty=Tensor[(32, 1), float32] */;
  %32 = multiply(-0.5f /* ty=float32 */, %30) /* ty=Tensor[(32, 1), float32] */;
  %33 = multiply(%31, %28) /* ty=Tensor[(32, 1), float32] */;
  %34 = multiply(%32, %33) /* ty=Tensor[(32, 1), float32] */;
  %35 = multiply(%34, 0.0138889f /* ty=float32 */) /* ty=Tensor[(32, 1), float32] */;
  %36 = multiply(%20, %35) /* ty=Tensor[(32, 72), float32] */;
  %37 = multiply(%27, %28) /* ty=Tensor[(32, 72), float32] */;
  %38 = multiply(%36, 2f /* ty=float32 */) /* ty=Tensor[(32, 72), float32] */;
  %39 = add(%37, %38) /* ty=Tensor[(32, 72), float32] */;
  %40 = sum(%39, axis=[1], keepdims=True) /* ty=Tensor[(32, 1), float32] */;
  %41 = negative(%40) /* ty=Tensor[(32, 1), float32] */;
  %42 = multiply(%41, 0.0138889f /* ty=float32 */) /* ty=Tensor[(32, 1), float32] */;
  %43 = add(%39, %42) /* ty=Tensor[(32, 72), float32] */;
  %44 = reshape(%43, newshape=[1, 256, 3, 3]) /* ty=Tensor[(1, 256, 3, 3), float32] */;
  %45 = transpose(%44, axes=[1, 0, 2, 3]) /* ty=Tensor[(256, 1, 3, 3), float32] */;
  %46 = reshape(%16, newshape=[256, 1, 3, 3]) /* ty=Tensor[(256, 1, 3, 3), float32] */;
  %47 = reshape(%45, newshape=[256, 1, 3, 3]) /* ty=Tensor[(256, 1, 3, 3), float32] */;
  %48 = nn.conv2d(%46, %47, padding=[0, 0, 0, 0], channels=256, kernel_size=[3, 3]) /* ty=Tensor[(256, 256, 1, 1), float32] */;
  %49 = transpose(%48, axes=[1, 0, 2, 3]) /* ty=Tensor[(256, 256, 1, 1), float32] */;
  %50 = reshape(%49, newshape=[256, 1, 256, 1, 1]) /* ty=Tensor[(256, 1, 256, 1, 1), float32] */;
  %51 = sum(%50, axis=[1]) /* ty=Tensor[(256, 256, 1, 1), float32] */;
  %52 = zeros(shape=[1, 256, 3, 3], dtype="float32") /* ty=Tensor[(1, 256, 3, 3), float32] */;
  %53 = less(%nn_relu_16_x, %52) /* ty=Tensor[(1, 256, 3, 3), bool] */;
  %54 = nn.conv2d_transpose(%44, %param_131_train, channels=256, kernel_size=[1, 1], padding=[0, 0, 0, 0], kernel_layout="IOHW") /* ty=Tensor[(1, 256, 3, 3), float32] */;
  %55 = where(%53, %52, %54) /* ty=Tensor[(1, 256, 3, 3), float32] */;
  %56 = multiply(%55, %multiply_18_x) /* ty=Tensor[(1, 256, 3, 3), float32] */;
  %57 = multiply(%55, %param_129_train) /* ty=Tensor[(1, 256, 3, 3), float32] */;
  %58 = reshape(%nn_instance_norm_20_x, newshape=[32, 72]) /* ty=Tensor[(32, 72), float32] */;
  %59 = mean(%58, axis=[1], keepdims=True) /* ty=Tensor[(32, 1), float32] */;
  %60 = subtract(%58, %59) /* ty=Tensor[(32, 72), float32] */;
  %61 = multiply(%60, %60) /* ty=Tensor[(32, 72), float32] */;
  %62 = mean(%61, axis=[1], keepdims=True) /* ty=Tensor[(32, 1), float32] */;
  %63 = add(%62, 1e-05f /* ty=float32 */) /* ty=Tensor[(32, 1), float32] */;
  %64 = sqrt(%63) /* ty=Tensor[(32, 1), float32] */;
  %65 = divide(1f /* ty=float32 */, %64) /* ty=Tensor[(32, 1), float32] */;
  %66 = repeat(%65, repeats=1, axis=0) /* ty=Tensor[(32, 1), float32] */;
  %67 = reshape(%57, newshape=[32, 72]) /* ty=Tensor[(32, 72), float32] */;
  %68 = reshape(%66, newshape=[32, 1]) /* ty=Tensor[(32, 1), float32] */;
  %69 = multiply(%67, %60) /* ty=Tensor[(32, 72), float32] */;
  %70 = sum(%69, axis=[1], keepdims=True) /* ty=Tensor[(32, 1), float32] */;
  %71 = multiply(%68, %68) /* ty=Tensor[(32, 1), float32] */;
  %72 = multiply(-0.5f /* ty=float32 */, %70) /* ty=Tensor[(32, 1), float32] */;
  %73 = multiply(%71, %68) /* ty=Tensor[(32, 1), float32] */;
  %74 = multiply(%72, %73) /* ty=Tensor[(32, 1), float32] */;
  %75 = multiply(%74, 0.0138889f /* ty=float32 */) /* ty=Tensor[(32, 1), float32] */;
  %76 = multiply(%60, %75) /* ty=Tensor[(32, 72), float32] */;
  %77 = multiply(%67, %68) /* ty=Tensor[(32, 72), float32] */;
  %78 = multiply(%76, 2f /* ty=float32 */) /* ty=Tensor[(32, 72), float32] */;
  %79 = add(%77, %78) /* ty=Tensor[(32, 72), float32] */;
  %80 = sum(%79, axis=[1], keepdims=True) /* ty=Tensor[(32, 1), float32] */;
  %81 = negative(%80) /* ty=Tensor[(32, 1), float32] */;
  %82 = multiply(%81, 0.0138889f /* ty=float32 */) /* ty=Tensor[(32, 1), float32] */;
  %83 = add(%79, %82) /* ty=Tensor[(32, 72), float32] */;
  %84 = reshape(%83, newshape=[1, 256, 3, 3]) /* ty=Tensor[(1, 256, 3, 3), float32] */;
  %85 = tile(%84, reps=[1, 1, 1, 1]) /* ty=Tensor[(1, 256, 3, 3), float32] */;
  %86 = reshape(%nn_conv2d_22_x, newshape=[1, -1, 0, 0]) /* ty=Tensor[(1, 256, 3, 3), float32] */;
  %87 = reshape(%85, newshape=[-1, 1, 0, 0]) /* ty=Tensor[(256, 1, 3, 3), float32] */;
  %88 = nn.conv2d(%86, %87, padding=[1, 1, 1, 1], groups=256, channels=256, kernel_size=[3, 3]) /* ty=Tensor[(1, 256, 3, 3), float32] */;
  %89 = reshape(%88, newshape=[1, 1, 256, 3, 3]) /* ty=Tensor[(1, 1, 256, 3, 3), float32] */;
  %90 = sum(%89, axis=[0]) /* ty=Tensor[(1, 256, 3, 3), float32] */;
  %91 = zeros(shape=[1, 256, 3, 3], dtype="float32") /* ty=Tensor[(1, 256, 3, 3), float32] */;
  %92 = less(%nn_relu_23_x, %91) /* ty=Tensor[(1, 256, 3, 3), bool] */;
  %93 = nn.conv2d_transpose(%84, %param_126_train, channels=256, kernel_size=[3, 3], padding=[1, 1, 1, 1], groups=256, kernel_layout="IOHW") /* ty=Tensor[(1, 256, 3, 3), float32] */;
  %94 = where(%92, %91, %93) /* ty=Tensor[(1, 256, 3, 3), float32] */;
  %95 = multiply(%94, %multiply_25_x) /* ty=Tensor[(1, 256, 3, 3), float32] */;
  %96 = transpose(%nn_conv2d_29_x, axes=[1, 0, 2, 3]) /* ty=Tensor[(128, 1, 3, 3), float32] */;
  %97 = multiply(%94, %param_124_train) /* ty=Tensor[(1, 256, 3, 3), float32] */;
  %98 = reshape(%nn_instance_norm_27_x, newshape=[32, 72]) /* ty=Tensor[(32, 72), float32] */;
  %99 = mean(%98, axis=[1], keepdims=True) /* ty=Tensor[(32, 1), float32] */;
  %100 = subtract(%98, %99) /* ty=Tensor[(32, 72), float32] */;
  %101 = multiply(%100, %100) /* ty=Tensor[(32, 72), float32] */;
  %102 = mean(%101, axis=[1], keepdims=True) /* ty=Tensor[(32, 1), float32] */;
  %103 = add(%102, 1e-05f /* ty=float32 */) /* ty=Tensor[(32, 1), float32] */;
  %104 = sqrt(%103) /* ty=Tensor[(32, 1), float32] */;
  %105 = divide(1f /* ty=float32 */, %104) /* ty=Tensor[(32, 1), float32] */;
  %106 = repeat(%105, repeats=1, axis=0) /* ty=Tensor[(32, 1), float32] */;
  %107 = reshape(%97, newshape=[32, 72]) /* ty=Tensor[(32, 72), float32] */;
  %108 = reshape(%106, newshape=[32, 1]) /* ty=Tensor[(32, 1), float32] */;
  %109 = multiply(%107, %100) /* ty=Tensor[(32, 72), float32] */;
  %110 = sum(%109, axis=[1], keepdims=True) /* ty=Tensor[(32, 1), float32] */;
  %111 = multiply(%108, %108) /* ty=Tensor[(32, 1), float32] */;
  %112 = multiply(-0.5f /* ty=float32 */, %110) /* ty=Tensor[(32, 1), float32] */;
  %113 = multiply(%111, %108) /* ty=Tensor[(32, 1), float32] */;
  %114 = multiply(%112, %113) /* ty=Tensor[(32, 1), float32] */;
  %115 = multiply(%114, 0.0138889f /* ty=float32 */) /* ty=Tensor[(32, 1), float32] */;
  %116 = multiply(%100, %115) /* ty=Tensor[(32, 72), float32] */;
  %117 = multiply(%107, %108) /* ty=Tensor[(32, 72), float32] */;
  %118 = multiply(%116, 2f /* ty=float32 */) /* ty=Tensor[(32, 72), float32] */;
  %119 = add(%117, %118) /* ty=Tensor[(32, 72), float32] */;
  %120 = sum(%119, axis=[1], keepdims=True) /* ty=Tensor[(32, 1), float32] */;
  %121 = negative(%120) /* ty=Tensor[(32, 1), float32] */;
  %122 = multiply(%121, 0.0138889f /* ty=float32 */) /* ty=Tensor[(32, 1), float32] */;
  %123 = add(%119, %122) /* ty=Tensor[(32, 72), float32] */;
  %124 = reshape(%123, newshape=[1, 256, 3, 3]) /* ty=Tensor[(1, 256, 3, 3), float32] */;
  %125 = transpose(%124, axes=[1, 0, 2, 3]) /* ty=Tensor[(256, 1, 3, 3), float32] */;
  %126 = reshape(%96, newshape=[128, 1, 3, 3]) /* ty=Tensor[(128, 1, 3, 3), float32] */;
  %127 = reshape(%125, newshape=[256, 1, 3, 3]) /* ty=Tensor[(256, 1, 3, 3), float32] */;
  %128 = nn.conv2d(%126, %127, padding=[0, 0, 0, 0], channels=256, kernel_size=[3, 3]) /* ty=Tensor[(128, 256, 1, 1), float32] */;
  %129 = transpose(%128, axes=[1, 0, 2, 3]) /* ty=Tensor[(256, 128, 1, 1), float32] */;
  %130 = reshape(%129, newshape=[128, 1, 256, 1, 1]) /* ty=Tensor[(128, 1, 256, 1, 1), float32] */;
  %131 = sum(%130, axis=[1]) /* ty=Tensor[(128, 256, 1, 1), float32] */;
  %132 = zeros(shape=[1, 128, 3, 3], dtype="float32") /* ty=Tensor[(1, 128, 3, 3), float32] */;
  %133 = less(%nn_relu_30_x, %132) /* ty=Tensor[(1, 128, 3, 3), bool] */;
  %134 = nn.conv2d_transpose(%124, %param_121_train, channels=128, kernel_size=[1, 1], padding=[0, 0, 0, 0], kernel_layout="IOHW") /* ty=Tensor[(1, 128, 3, 3), float32] */;
  %135 = where(%133, %132, %134) /* ty=Tensor[(1, 128, 3, 3), float32] */;
  %136 = multiply(%135, %multiply_32_x) /* ty=Tensor[(1, 128, 3, 3), float32] */;
  %137 = multiply(%135, %param_119_train) /* ty=Tensor[(1, 128, 3, 3), float32] */;
  %138 = reshape(%nn_instance_norm_34_x, newshape=[16, 72]) /* ty=Tensor[(16, 72), float32] */;
  %139 = mean(%138, axis=[1], keepdims=True) /* ty=Tensor[(16, 1), float32] */;
  %140 = subtract(%138, %139) /* ty=Tensor[(16, 72), float32] */;
  %141 = multiply(%140, %140) /* ty=Tensor[(16, 72), float32] */;
  %142 = mean(%141, axis=[1], keepdims=True) /* ty=Tensor[(16, 1), float32] */;
  %143 = add(%142, 1e-05f /* ty=float32 */) /* ty=Tensor[(16, 1), float32] */;
  %144 = sqrt(%143) /* ty=Tensor[(16, 1), float32] */;
  %145 = divide(1f /* ty=float32 */, %144) /* ty=Tensor[(16, 1), float32] */;
  %146 = repeat(%145, repeats=1, axis=0) /* ty=Tensor[(16, 1), float32] */;
  %147 = reshape(%137, newshape=[16, 72]) /* ty=Tensor[(16, 72), float32] */;
  %148 = reshape(%146, newshape=[16, 1]) /* ty=Tensor[(16, 1), float32] */;
  %149 = multiply(%147, %140) /* ty=Tensor[(16, 72), float32] */;
  %150 = sum(%149, axis=[1], keepdims=True) /* ty=Tensor[(16, 1), float32] */;
  %151 = multiply(%148, %148) /* ty=Tensor[(16, 1), float32] */;
  %152 = multiply(-0.5f /* ty=float32 */, %150) /* ty=Tensor[(16, 1), float32] */;
  %153 = multiply(%151, %148) /* ty=Tensor[(16, 1), float32] */;
  %154 = multiply(%152, %153) /* ty=Tensor[(16, 1), float32] */;
  %155 = multiply(%154, 0.0138889f /* ty=float32 */) /* ty=Tensor[(16, 1), float32] */;
  %156 = multiply(%140, %155) /* ty=Tensor[(16, 72), float32] */;
  %157 = multiply(%147, %148) /* ty=Tensor[(16, 72), float32] */;
  %158 = multiply(%156, 2f /* ty=float32 */) /* ty=Tensor[(16, 72), float32] */;
  %159 = add(%157, %158) /* ty=Tensor[(16, 72), float32] */;
  %160 = sum(%159, axis=[1], keepdims=True) /* ty=Tensor[(16, 1), float32] */;
  %161 = negative(%160) /* ty=Tensor[(16, 1), float32] */;
  %162 = multiply(%161, 0.0138889f /* ty=float32 */) /* ty=Tensor[(16, 1), float32] */;
  %163 = add(%159, %162) /* ty=Tensor[(16, 72), float32] */;
  %164 = reshape(%163, newshape=[1, 128, 3, 3]) /* ty=Tensor[(1, 128, 3, 3), float32] */;
  %165 = tile(%164, reps=[1, 1, 1, 1]) /* ty=Tensor[(1, 128, 3, 3), float32] */;
  %166 = reshape(%nn_conv2d_36_x, newshape=[1, -1, 0, 0]) /* ty=Tensor[(1, 128, 6, 6), float32] */;
  %167 = reshape(%165, newshape=[-1, 1, 0, 0]) /* ty=Tensor[(128, 1, 3, 3), float32] */;
  %168 = nn.conv2d(%166, %167, padding=[1, 1, 1, 1], dilation=[2, 2], groups=128, channels=128, kernel_size=[3, 3]) /* ty=Tensor[(1, 128, 4, 4), float32] */;
  %169 = reshape(%168, newshape=[1, 1, 128, 4, 4]) /* ty=Tensor[(1, 1, 128, 4, 4), float32] */;
  %170 = sum(%169, axis=[0]) /* ty=Tensor[(1, 128, 4, 4), float32] */;
  %171 = transpose(%170, axes=[1, 0, 2, 3]) /* ty=Tensor[(128, 1, 4, 4), float32] */;
  %172 = zeros(shape=[1, 128, 6, 6], dtype="float32") /* ty=Tensor[(1, 128, 6, 6), float32] */;
  %173 = less(%nn_relu_37_x, %172) /* ty=Tensor[(1, 128, 6, 6), bool] */;
  %174 = nn.conv2d_transpose(%164, %param_116_train, channels=128, kernel_size=[3, 3], strides=[2, 2], output_padding=[1, 1], padding=[1, 1, 1, 1], groups=128, kernel_layout="IOHW") /* ty=Tensor[(1, 128, 6, 6), float32] */;
  %175 = where(%173, %172, %174) /* ty=Tensor[(1, 128, 6, 6), float32] */;
  %176 = multiply(%175, %multiply_39_x) /* ty=Tensor[(1, 128, 6, 6), float32] */;
  %177 = transpose(%nn_conv2d_43_x, axes=[1, 0, 2, 3]) /* ty=Tensor[(128, 1, 6, 6), float32] */;
  %178 = multiply(%175, %param_114_train) /* ty=Tensor[(1, 128, 6, 6), float32] */;
  %179 = reshape(%nn_instance_norm_41_x, newshape=[16, 288]) /* ty=Tensor[(16, 288), float32] */;
  %180 = mean(%179, axis=[1], keepdims=True) /* ty=Tensor[(16, 1), float32] */;
  %181 = subtract(%179, %180) /* ty=Tensor[(16, 288), float32] */;
  %182 = multiply(%181, %181) /* ty=Tensor[(16, 288), float32] */;
  %183 = mean(%182, axis=[1], keepdims=True) /* ty=Tensor[(16, 1), float32] */;
  %184 = add(%183, 1e-05f /* ty=float32 */) /* ty=Tensor[(16, 1), float32] */;
  %185 = sqrt(%184) /* ty=Tensor[(16, 1), float32] */;
  %186 = divide(1f /* ty=float32 */, %185) /* ty=Tensor[(16, 1), float32] */;
  %187 = repeat(%186, repeats=1, axis=0) /* ty=Tensor[(16, 1), float32] */;
  %188 = reshape(%178, newshape=[16, 288]) /* ty=Tensor[(16, 288), float32] */;
  %189 = reshape(%187, newshape=[16, 1]) /* ty=Tensor[(16, 1), float32] */;
  %190 = multiply(%188, %181) /* ty=Tensor[(16, 288), float32] */;
  %191 = sum(%190, axis=[1], keepdims=True) /* ty=Tensor[(16, 1), float32] */;
  %192 = multiply(%189, %189) /* ty=Tensor[(16, 1), float32] */;
  %193 = multiply(-0.5f /* ty=float32 */, %191) /* ty=Tensor[(16, 1), float32] */;
  %194 = multiply(%192, %189) /* ty=Tensor[(16, 1), float32] */;
  %195 = multiply(%193, %194) /* ty=Tensor[(16, 1), float32] */;
  %196 = multiply(%195, 0.00347222f /* ty=float32 */) /* ty=Tensor[(16, 1), float32] */;
  %197 = multiply(%181, %196) /* ty=Tensor[(16, 288), float32] */;
  %198 = multiply(%188, %189) /* ty=Tensor[(16, 288), float32] */;
  %199 = multiply(%197, 2f /* ty=float32 */) /* ty=Tensor[(16, 288), float32] */;
  %200 = add(%198, %199) /* ty=Tensor[(16, 288), float32] */;
  %201 = sum(%200, axis=[1], keepdims=True) /* ty=Tensor[(16, 1), float32] */;
  %202 = negative(%201) /* ty=Tensor[(16, 1), float32] */;
  %203 = multiply(%202, 0.00347222f /* ty=float32 */) /* ty=Tensor[(16, 1), float32] */;
  %204 = add(%200, %203) /* ty=Tensor[(16, 288), float32] */;
  %205 = reshape(%204, newshape=[1, 128, 6, 6]) /* ty=Tensor[(1, 128, 6, 6), float32] */;
  %206 = transpose(%205, axes=[1, 0, 2, 3]) /* ty=Tensor[(128, 1, 6, 6), float32] */;
  %207 = reshape(%177, newshape=[128, 1, 6, 6]) /* ty=Tensor[(128, 1, 6, 6), float32] */;
  %208 = reshape(%206, newshape=[128, 1, 6, 6]) /* ty=Tensor[(128, 1, 6, 6), float32] */;
  %209 = nn.conv2d(%207, %208, padding=[0, 0, 0, 0], channels=128, kernel_size=[6, 6]) /* ty=Tensor[(128, 128, 1, 1), float32] */;
  %210 = transpose(%209, axes=[1, 0, 2, 3]) /* ty=Tensor[(128, 128, 1, 1), float32] */;
  %211 = reshape(%210, newshape=[128, 1, 128, 1, 1]) /* ty=Tensor[(128, 1, 128, 1, 1), float32] */;
  %212 = sum(%211, axis=[1]) /* ty=Tensor[(128, 128, 1, 1), float32] */;
  %213 = zeros(shape=[1, 128, 6, 6], dtype="float32") /* ty=Tensor[(1, 128, 6, 6), float32] */;
  %214 = less(%nn_relu_44_x, %213) /* ty=Tensor[(1, 128, 6, 6), bool] */;
  %215 = nn.conv2d_transpose(%205, %param_111_train, channels=128, kernel_size=[1, 1], padding=[0, 0, 0, 0], kernel_layout="IOHW") /* ty=Tensor[(1, 128, 6, 6), float32] */;
  %216 = where(%214, %213, %215) /* ty=Tensor[(1, 128, 6, 6), float32] */;
  %217 = multiply(%216, %multiply_46_x) /* ty=Tensor[(1, 128, 6, 6), float32] */;
  %218 = multiply(%216, %param_109_train) /* ty=Tensor[(1, 128, 6, 6), float32] */;
  %219 = reshape(%nn_instance_norm_48_x, newshape=[16, 288]) /* ty=Tensor[(16, 288), float32] */;
  %220 = mean(%219, axis=[1], keepdims=True) /* ty=Tensor[(16, 1), float32] */;
  %221 = subtract(%219, %220) /* ty=Tensor[(16, 288), float32] */;
  %222 = multiply(%221, %221) /* ty=Tensor[(16, 288), float32] */;
  %223 = mean(%222, axis=[1], keepdims=True) /* ty=Tensor[(16, 1), float32] */;
  %224 = add(%223, 1e-05f /* ty=float32 */) /* ty=Tensor[(16, 1), float32] */;
  %225 = sqrt(%224) /* ty=Tensor[(16, 1), float32] */;
  %226 = divide(1f /* ty=float32 */, %225) /* ty=Tensor[(16, 1), float32] */;
  %227 = repeat(%226, repeats=1, axis=0) /* ty=Tensor[(16, 1), float32] */;
  %228 = reshape(%218, newshape=[16, 288]) /* ty=Tensor[(16, 288), float32] */;
  %229 = reshape(%227, newshape=[16, 1]) /* ty=Tensor[(16, 1), float32] */;
  %230 = multiply(%228, %221) /* ty=Tensor[(16, 288), float32] */;
  %231 = sum(%230, axis=[1], keepdims=True) /* ty=Tensor[(16, 1), float32] */;
  %232 = multiply(%229, %229) /* ty=Tensor[(16, 1), float32] */;
  %233 = multiply(-0.5f /* ty=float32 */, %231) /* ty=Tensor[(16, 1), float32] */;
  %234 = multiply(%232, %229) /* ty=Tensor[(16, 1), float32] */;
  %235 = multiply(%233, %234) /* ty=Tensor[(16, 1), float32] */;
  %236 = multiply(%235, 0.00347222f /* ty=float32 */) /* ty=Tensor[(16, 1), float32] */;
  %237 = multiply(%221, %236) /* ty=Tensor[(16, 288), float32] */;
  %238 = multiply(%228, %229) /* ty=Tensor[(16, 288), float32] */;
  %239 = multiply(%237, 2f /* ty=float32 */) /* ty=Tensor[(16, 288), float32] */;
  %240 = add(%238, %239) /* ty=Tensor[(16, 288), float32] */;
  %241 = sum(%240, axis=[1], keepdims=True) /* ty=Tensor[(16, 1), float32] */;
  %242 = negative(%241) /* ty=Tensor[(16, 1), float32] */;
  %243 = multiply(%242, 0.00347222f /* ty=float32 */) /* ty=Tensor[(16, 1), float32] */;
  %244 = add(%240, %243) /* ty=Tensor[(16, 288), float32] */;
  %245 = reshape(%244, newshape=[1, 128, 6, 6]) /* ty=Tensor[(1, 128, 6, 6), float32] */;
  %246 = tile(%245, reps=[1, 1, 1, 1]) /* ty=Tensor[(1, 128, 6, 6), float32] */;
  %247 = reshape(%nn_conv2d_50_x, newshape=[1, -1, 0, 0]) /* ty=Tensor[(1, 128, 6, 6), float32] */;
  %248 = reshape(%246, newshape=[-1, 1, 0, 0]) /* ty=Tensor[(128, 1, 6, 6), float32] */;
  %249 = nn.conv2d(%247, %248, padding=[1, 1, 1, 1], groups=128, channels=128, kernel_size=[6, 6]) /* ty=Tensor[(1, 128, 3, 3), float32] */;
  %250 = reshape(%249, newshape=[1, 1, 128, 3, 3]) /* ty=Tensor[(1, 1, 128, 3, 3), float32] */;
  %251 = sum(%250, axis=[0]) /* ty=Tensor[(1, 128, 3, 3), float32] */;
  %252 = zeros(shape=[1, 128, 6, 6], dtype="float32") /* ty=Tensor[(1, 128, 6, 6), float32] */;
  %253 = less(%nn_relu_51_x, %252) /* ty=Tensor[(1, 128, 6, 6), bool] */;
  %254 = nn.conv2d_transpose(%245, %param_106_train, channels=128, kernel_size=[3, 3], padding=[1, 1, 1, 1], groups=128, kernel_layout="IOHW") /* ty=Tensor[(1, 128, 6, 6), float32] */;
  %255 = where(%253, %252, %254) /* ty=Tensor[(1, 128, 6, 6), float32] */;
  %256 = multiply(%255, %multiply_53_x) /* ty=Tensor[(1, 128, 6, 6), float32] */;
  %257 = transpose(%nn_conv2d_57_x, axes=[1, 0, 2, 3]) /* ty=Tensor[(128, 1, 6, 6), float32] */;
  %258 = multiply(%255, %param_104_train) /* ty=Tensor[(1, 128, 6, 6), float32] */;
  %259 = reshape(%nn_instance_norm_55_x, newshape=[16, 288]) /* ty=Tensor[(16, 288), float32] */;
  %260 = mean(%259, axis=[1], keepdims=True) /* ty=Tensor[(16, 1), float32] */;
  %261 = subtract(%259, %260) /* ty=Tensor[(16, 288), float32] */;
  %262 = multiply(%261, %261) /* ty=Tensor[(16, 288), float32] */;
  %263 = mean(%262, axis=[1], keepdims=True) /* ty=Tensor[(16, 1), float32] */;
  %264 = add(%263, 1e-05f /* ty=float32 */) /* ty=Tensor[(16, 1), float32] */;
  %265 = sqrt(%264) /* ty=Tensor[(16, 1), float32] */;
  %266 = divide(1f /* ty=float32 */, %265) /* ty=Tensor[(16, 1), float32] */;
  %267 = repeat(%266, repeats=1, axis=0) /* ty=Tensor[(16, 1), float32] */;
  %268 = reshape(%258, newshape=[16, 288]) /* ty=Tensor[(16, 288), float32] */;
  %269 = reshape(%267, newshape=[16, 1]) /* ty=Tensor[(16, 1), float32] */;
  %270 = multiply(%268, %261) /* ty=Tensor[(16, 288), float32] */;
  %271 = sum(%270, axis=[1], keepdims=True) /* ty=Tensor[(16, 1), float32] */;
  %272 = multiply(%269, %269) /* ty=Tensor[(16, 1), float32] */;
  %273 = multiply(-0.5f /* ty=float32 */, %271) /* ty=Tensor[(16, 1), float32] */;
  %274 = multiply(%272, %269) /* ty=Tensor[(16, 1), float32] */;
  %275 = multiply(%273, %274) /* ty=Tensor[(16, 1), float32] */;
  %276 = multiply(%275, 0.00347222f /* ty=float32 */) /* ty=Tensor[(16, 1), float32] */;
  %277 = multiply(%261, %276) /* ty=Tensor[(16, 288), float32] */;
  %278 = multiply(%268, %269) /* ty=Tensor[(16, 288), float32] */;
  %279 = multiply(%277, 2f /* ty=float32 */) /* ty=Tensor[(16, 288), float32] */;
  %280 = add(%278, %279) /* ty=Tensor[(16, 288), float32] */;
  %281 = sum(%280, axis=[1], keepdims=True) /* ty=Tensor[(16, 1), float32] */;
  %282 = negative(%281) /* ty=Tensor[(16, 1), float32] */;
  %283 = multiply(%282, 0.00347222f /* ty=float32 */) /* ty=Tensor[(16, 1), float32] */;
  %284 = add(%280, %283) /* ty=Tensor[(16, 288), float32] */;
  %285 = reshape(%284, newshape=[1, 128, 6, 6]) /* ty=Tensor[(1, 128, 6, 6), float32] */;
  %286 = transpose(%285, axes=[1, 0, 2, 3]) /* ty=Tensor[(128, 1, 6, 6), float32] */;
  %287 = reshape(%257, newshape=[128, 1, 6, 6]) /* ty=Tensor[(128, 1, 6, 6), float32] */;
  %288 = reshape(%286, newshape=[128, 1, 6, 6]) /* ty=Tensor[(128, 1, 6, 6), float32] */;
  %289 = nn.conv2d(%287, %288, padding=[0, 0, 0, 0], channels=128, kernel_size=[6, 6]) /* ty=Tensor[(128, 128, 1, 1), float32] */;
  %290 = transpose(%289, axes=[1, 0, 2, 3]) /* ty=Tensor[(128, 128, 1, 1), float32] */;
  %291 = reshape(%290, newshape=[128, 1, 128, 1, 1]) /* ty=Tensor[(128, 1, 128, 1, 1), float32] */;
  %292 = sum(%291, axis=[1]) /* ty=Tensor[(128, 128, 1, 1), float32] */;
  %293 = zeros(shape=[1, 128, 6, 6], dtype="float32") /* ty=Tensor[(1, 128, 6, 6), float32] */;
  %294 = less(%nn_relu_58_x, %293) /* ty=Tensor[(1, 128, 6, 6), bool] */;
  %295 = nn.conv2d_transpose(%285, %param_101_train, channels=128, kernel_size=[1, 1], padding=[0, 0, 0, 0], kernel_layout="IOHW") /* ty=Tensor[(1, 128, 6, 6), float32] */;
  %296 = where(%294, %293, %295) /* ty=Tensor[(1, 128, 6, 6), float32] */;
  %297 = multiply(%296, %multiply_60_x) /* ty=Tensor[(1, 128, 6, 6), float32] */;
  %298 = multiply(%296, %param_99_train) /* ty=Tensor[(1, 128, 6, 6), float32] */;
  %299 = reshape(%nn_instance_norm_62_x, newshape=[16, 288]) /* ty=Tensor[(16, 288), float32] */;
  %300 = mean(%299, axis=[1], keepdims=True) /* ty=Tensor[(16, 1), float32] */;
  %301 = subtract(%299, %300) /* ty=Tensor[(16, 288), float32] */;
  %302 = multiply(%301, %301) /* ty=Tensor[(16, 288), float32] */;
  %303 = mean(%302, axis=[1], keepdims=True) /* ty=Tensor[(16, 1), float32] */;
  %304 = add(%303, 1e-05f /* ty=float32 */) /* ty=Tensor[(16, 1), float32] */;
  %305 = sqrt(%304) /* ty=Tensor[(16, 1), float32] */;
  %306 = divide(1f /* ty=float32 */, %305) /* ty=Tensor[(16, 1), float32] */;
  %307 = repeat(%306, repeats=1, axis=0) /* ty=Tensor[(16, 1), float32] */;
  %308 = reshape(%298, newshape=[16, 288]) /* ty=Tensor[(16, 288), float32] */;
  %309 = reshape(%307, newshape=[16, 1]) /* ty=Tensor[(16, 1), float32] */;
  %310 = multiply(%308, %301) /* ty=Tensor[(16, 288), float32] */;
  %311 = sum(%310, axis=[1], keepdims=True) /* ty=Tensor[(16, 1), float32] */;
  %312 = multiply(%309, %309) /* ty=Tensor[(16, 1), float32] */;
  %313 = multiply(-0.5f /* ty=float32 */, %311) /* ty=Tensor[(16, 1), float32] */;
  %314 = multiply(%312, %309) /* ty=Tensor[(16, 1), float32] */;
  %315 = multiply(%313, %314) /* ty=Tensor[(16, 1), float32] */;
  %316 = multiply(%315, 0.00347222f /* ty=float32 */) /* ty=Tensor[(16, 1), float32] */;
  %317 = multiply(%301, %316) /* ty=Tensor[(16, 288), float32] */;
  %318 = multiply(%308, %309) /* ty=Tensor[(16, 288), float32] */;
  %319 = multiply(%317, 2f /* ty=float32 */) /* ty=Tensor[(16, 288), float32] */;
  %320 = add(%318, %319) /* ty=Tensor[(16, 288), float32] */;
  %321 = sum(%320, axis=[1], keepdims=True) /* ty=Tensor[(16, 1), float32] */;
  %322 = negative(%321) /* ty=Tensor[(16, 1), float32] */;
  %323 = multiply(%322, 0.00347222f /* ty=float32 */) /* ty=Tensor[(16, 1), float32] */;
  %324 = add(%320, %323) /* ty=Tensor[(16, 288), float32] */;
  %325 = reshape(%324, newshape=[1, 128, 6, 6]) /* ty=Tensor[(1, 128, 6, 6), float32] */;
  %326 = tile(%325, reps=[1, 1, 1, 1]) /* ty=Tensor[(1, 128, 6, 6), float32] */;
  %327 = reshape(%nn_conv2d_64_x, newshape=[1, -1, 0, 0]) /* ty=Tensor[(1, 128, 6, 6), float32] */;
  %328 = reshape(%326, newshape=[-1, 1, 0, 0]) /* ty=Tensor[(128, 1, 6, 6), float32] */;
  %329 = nn.conv2d(%327, %328, padding=[1, 1, 1, 1], groups=128, channels=128, kernel_size=[6, 6]) /* ty=Tensor[(1, 128, 3, 3), float32] */;
  %330 = reshape(%329, newshape=[1, 1, 128, 3, 3]) /* ty=Tensor[(1, 1, 128, 3, 3), float32] */;
  %331 = sum(%330, axis=[0]) /* ty=Tensor[(1, 128, 3, 3), float32] */;
  %332 = zeros(shape=[1, 128, 6, 6], dtype="float32") /* ty=Tensor[(1, 128, 6, 6), float32] */;
  %333 = less(%nn_relu_65_x, %332) /* ty=Tensor[(1, 128, 6, 6), bool] */;
  %334 = nn.conv2d_transpose(%325, %param_96_train, channels=128, kernel_size=[3, 3], padding=[1, 1, 1, 1], groups=128, kernel_layout="IOHW") /* ty=Tensor[(1, 128, 6, 6), float32] */;
  %335 = where(%333, %332, %334) /* ty=Tensor[(1, 128, 6, 6), float32] */;
  %336 = multiply(%335, %multiply_67_x) /* ty=Tensor[(1, 128, 6, 6), float32] */;
  %337 = transpose(%nn_conv2d_71_x, axes=[1, 0, 2, 3]) /* ty=Tensor[(128, 1, 6, 6), float32] */;
  %338 = multiply(%335, %param_94_train) /* ty=Tensor[(1, 128, 6, 6), float32] */;
  %339 = reshape(%nn_instance_norm_69_x, newshape=[16, 288]) /* ty=Tensor[(16, 288), float32] */;
  %340 = mean(%339, axis=[1], keepdims=True) /* ty=Tensor[(16, 1), float32] */;
  %341 = subtract(%339, %340) /* ty=Tensor[(16, 288), float32] */;
  %342 = multiply(%341, %341) /* ty=Tensor[(16, 288), float32] */;
  %343 = mean(%342, axis=[1], keepdims=True) /* ty=Tensor[(16, 1), float32] */;
  %344 = add(%343, 1e-05f /* ty=float32 */) /* ty=Tensor[(16, 1), float32] */;
  %345 = sqrt(%344) /* ty=Tensor[(16, 1), float32] */;
  %346 = divide(1f /* ty=float32 */, %345) /* ty=Tensor[(16, 1), float32] */;
  %347 = repeat(%346, repeats=1, axis=0) /* ty=Tensor[(16, 1), float32] */;
  %348 = reshape(%338, newshape=[16, 288]) /* ty=Tensor[(16, 288), float32] */;
  %349 = reshape(%347, newshape=[16, 1]) /* ty=Tensor[(16, 1), float32] */;
  %350 = multiply(%348, %341) /* ty=Tensor[(16, 288), float32] */;
  %351 = sum(%350, axis=[1], keepdims=True) /* ty=Tensor[(16, 1), float32] */;
  %352 = multiply(%349, %349) /* ty=Tensor[(16, 1), float32] */;
  %353 = multiply(-0.5f /* ty=float32 */, %351) /* ty=Tensor[(16, 1), float32] */;
  %354 = multiply(%352, %349) /* ty=Tensor[(16, 1), float32] */;
  %355 = multiply(%353, %354) /* ty=Tensor[(16, 1), float32] */;
  %356 = multiply(%355, 0.00347222f /* ty=float32 */) /* ty=Tensor[(16, 1), float32] */;
  %357 = multiply(%341, %356) /* ty=Tensor[(16, 288), float32] */;
  %358 = multiply(%348, %349) /* ty=Tensor[(16, 288), float32] */;
  %359 = multiply(%357, 2f /* ty=float32 */) /* ty=Tensor[(16, 288), float32] */;
  %360 = add(%358, %359) /* ty=Tensor[(16, 288), float32] */;
  %361 = sum(%360, axis=[1], keepdims=True) /* ty=Tensor[(16, 1), float32] */;
  %362 = negative(%361) /* ty=Tensor[(16, 1), float32] */;
  %363 = multiply(%362, 0.00347222f /* ty=float32 */) /* ty=Tensor[(16, 1), float32] */;
  %364 = add(%360, %363) /* ty=Tensor[(16, 288), float32] */;
  %365 = reshape(%364, newshape=[1, 128, 6, 6]) /* ty=Tensor[(1, 128, 6, 6), float32] */;
  %366 = transpose(%365, axes=[1, 0, 2, 3]) /* ty=Tensor[(128, 1, 6, 6), float32] */;
  %367 = reshape(%337, newshape=[128, 1, 6, 6]) /* ty=Tensor[(128, 1, 6, 6), float32] */;
  %368 = reshape(%366, newshape=[128, 1, 6, 6]) /* ty=Tensor[(128, 1, 6, 6), float32] */;
  %369 = nn.conv2d(%367, %368, padding=[0, 0, 0, 0], channels=128, kernel_size=[6, 6]) /* ty=Tensor[(128, 128, 1, 1), float32] */;
  %370 = transpose(%369, axes=[1, 0, 2, 3]) /* ty=Tensor[(128, 128, 1, 1), float32] */;
  %371 = reshape(%370, newshape=[128, 1, 128, 1, 1]) /* ty=Tensor[(128, 1, 128, 1, 1), float32] */;
  %372 = sum(%371, axis=[1]) /* ty=Tensor[(128, 128, 1, 1), float32] */;
  %373 = zeros(shape=[1, 128, 6, 6], dtype="float32") /* ty=Tensor[(1, 128, 6, 6), float32] */;
  %374 = less(%nn_relu_72_x, %373) /* ty=Tensor[(1, 128, 6, 6), bool] */;
  %375 = nn.conv2d_transpose(%365, %param_91_train, channels=128, kernel_size=[1, 1], padding=[0, 0, 0, 0], kernel_layout="IOHW") /* ty=Tensor[(1, 128, 6, 6), float32] */;
  %376 = where(%374, %373, %375) /* ty=Tensor[(1, 128, 6, 6), float32] */;
  %377 = multiply(%376, %multiply_74_x) /* ty=Tensor[(1, 128, 6, 6), float32] */;
  %378 = multiply(%376, %param_89_train) /* ty=Tensor[(1, 128, 6, 6), float32] */;
  %379 = reshape(%nn_instance_norm_76_x, newshape=[16, 288]) /* ty=Tensor[(16, 288), float32] */;
  %380 = mean(%379, axis=[1], keepdims=True) /* ty=Tensor[(16, 1), float32] */;
  %381 = subtract(%379, %380) /* ty=Tensor[(16, 288), float32] */;
  %382 = multiply(%381, %381) /* ty=Tensor[(16, 288), float32] */;
  %383 = mean(%382, axis=[1], keepdims=True) /* ty=Tensor[(16, 1), float32] */;
  %384 = add(%383, 1e-05f /* ty=float32 */) /* ty=Tensor[(16, 1), float32] */;
  %385 = sqrt(%384) /* ty=Tensor[(16, 1), float32] */;
  %386 = divide(1f /* ty=float32 */, %385) /* ty=Tensor[(16, 1), float32] */;
  %387 = repeat(%386, repeats=1, axis=0) /* ty=Tensor[(16, 1), float32] */;
  %388 = reshape(%378, newshape=[16, 288]) /* ty=Tensor[(16, 288), float32] */;
  %389 = reshape(%387, newshape=[16, 1]) /* ty=Tensor[(16, 1), float32] */;
  %390 = multiply(%388, %381) /* ty=Tensor[(16, 288), float32] */;
  %391 = sum(%390, axis=[1], keepdims=True) /* ty=Tensor[(16, 1), float32] */;
  %392 = multiply(%389, %389) /* ty=Tensor[(16, 1), float32] */;
  %393 = multiply(-0.5f /* ty=float32 */, %391) /* ty=Tensor[(16, 1), float32] */;
  %394 = multiply(%392, %389) /* ty=Tensor[(16, 1), float32] */;
  %395 = multiply(%393, %394) /* ty=Tensor[(16, 1), float32] */;
  %396 = multiply(%395, 0.00347222f /* ty=float32 */) /* ty=Tensor[(16, 1), float32] */;
  %397 = multiply(%381, %396) /* ty=Tensor[(16, 288), float32] */;
  %398 = multiply(%388, %389) /* ty=Tensor[(16, 288), float32] */;
  %399 = multiply(%397, 2f /* ty=float32 */) /* ty=Tensor[(16, 288), float32] */;
  %400 = add(%398, %399) /* ty=Tensor[(16, 288), float32] */;
  %401 = sum(%400, axis=[1], keepdims=True) /* ty=Tensor[(16, 1), float32] */;
  %402 = negative(%401) /* ty=Tensor[(16, 1), float32] */;
  %403 = multiply(%402, 0.00347222f /* ty=float32 */) /* ty=Tensor[(16, 1), float32] */;
  %404 = add(%400, %403) /* ty=Tensor[(16, 288), float32] */;
  %405 = reshape(%404, newshape=[1, 128, 6, 6]) /* ty=Tensor[(1, 128, 6, 6), float32] */;
  %406 = tile(%405, reps=[1, 1, 1, 1]) /* ty=Tensor[(1, 128, 6, 6), float32] */;
  %407 = reshape(%nn_conv2d_78_x, newshape=[1, -1, 0, 0]) /* ty=Tensor[(1, 128, 6, 6), float32] */;
  %408 = reshape(%406, newshape=[-1, 1, 0, 0]) /* ty=Tensor[(128, 1, 6, 6), float32] */;
  %409 = nn.conv2d(%407, %408, padding=[1, 1, 1, 1], groups=128, channels=128, kernel_size=[6, 6]) /* ty=Tensor[(1, 128, 3, 3), float32] */;
  %410 = reshape(%409, newshape=[1, 1, 128, 3, 3]) /* ty=Tensor[(1, 1, 128, 3, 3), float32] */;
  %411 = sum(%410, axis=[0]) /* ty=Tensor[(1, 128, 3, 3), float32] */;
  %412 = zeros(shape=[1, 128, 6, 6], dtype="float32") /* ty=Tensor[(1, 128, 6, 6), float32] */;
  %413 = less(%nn_relu_79_x, %412) /* ty=Tensor[(1, 128, 6, 6), bool] */;
  %414 = nn.conv2d_transpose(%405, %param_86_train, channels=128, kernel_size=[3, 3], padding=[1, 1, 1, 1], groups=128, kernel_layout="IOHW") /* ty=Tensor[(1, 128, 6, 6), float32] */;
  %415 = where(%413, %412, %414) /* ty=Tensor[(1, 128, 6, 6), float32] */;
  %416 = multiply(%415, %multiply_81_x) /* ty=Tensor[(1, 128, 6, 6), float32] */;
  %417 = transpose(%nn_conv2d_85_x, axes=[1, 0, 2, 3]) /* ty=Tensor[(128, 1, 6, 6), float32] */;
  %418 = multiply(%415, %param_84_train) /* ty=Tensor[(1, 128, 6, 6), float32] */;
  %419 = reshape(%nn_instance_norm_83_x, newshape=[16, 288]) /* ty=Tensor[(16, 288), float32] */;
  %420 = mean(%419, axis=[1], keepdims=True) /* ty=Tensor[(16, 1), float32] */;
  %421 = subtract(%419, %420) /* ty=Tensor[(16, 288), float32] */;
  %422 = multiply(%421, %421) /* ty=Tensor[(16, 288), float32] */;
  %423 = mean(%422, axis=[1], keepdims=True) /* ty=Tensor[(16, 1), float32] */;
  %424 = add(%423, 1e-05f /* ty=float32 */) /* ty=Tensor[(16, 1), float32] */;
  %425 = sqrt(%424) /* ty=Tensor[(16, 1), float32] */;
  %426 = divide(1f /* ty=float32 */, %425) /* ty=Tensor[(16, 1), float32] */;
  %427 = repeat(%426, repeats=1, axis=0) /* ty=Tensor[(16, 1), float32] */;
  %428 = reshape(%418, newshape=[16, 288]) /* ty=Tensor[(16, 288), float32] */;
  %429 = reshape(%427, newshape=[16, 1]) /* ty=Tensor[(16, 1), float32] */;
  %430 = multiply(%428, %421) /* ty=Tensor[(16, 288), float32] */;
  %431 = sum(%430, axis=[1], keepdims=True) /* ty=Tensor[(16, 1), float32] */;
  %432 = multiply(%429, %429) /* ty=Tensor[(16, 1), float32] */;
  %433 = multiply(-0.5f /* ty=float32 */, %431) /* ty=Tensor[(16, 1), float32] */;
  %434 = multiply(%432, %429) /* ty=Tensor[(16, 1), float32] */;
  %435 = multiply(%433, %434) /* ty=Tensor[(16, 1), float32] */;
  %436 = multiply(%435, 0.00347222f /* ty=float32 */) /* ty=Tensor[(16, 1), float32] */;
  %437 = multiply(%421, %436) /* ty=Tensor[(16, 288), float32] */;
  %438 = multiply(%428, %429) /* ty=Tensor[(16, 288), float32] */;
  %439 = multiply(%437, 2f /* ty=float32 */) /* ty=Tensor[(16, 288), float32] */;
  %440 = add(%438, %439) /* ty=Tensor[(16, 288), float32] */;
  %441 = sum(%440, axis=[1], keepdims=True) /* ty=Tensor[(16, 1), float32] */;
  %442 = negative(%441) /* ty=Tensor[(16, 1), float32] */;
  %443 = multiply(%442, 0.00347222f /* ty=float32 */) /* ty=Tensor[(16, 1), float32] */;
  %444 = add(%440, %443) /* ty=Tensor[(16, 288), float32] */;
  %445 = reshape(%444, newshape=[1, 128, 6, 6]) /* ty=Tensor[(1, 128, 6, 6), float32] */;
  %446 = transpose(%445, axes=[1, 0, 2, 3]) /* ty=Tensor[(128, 1, 6, 6), float32] */;
  %447 = reshape(%417, newshape=[128, 1, 6, 6]) /* ty=Tensor[(128, 1, 6, 6), float32] */;
  %448 = reshape(%446, newshape=[128, 1, 6, 6]) /* ty=Tensor[(128, 1, 6, 6), float32] */;
  %449 = nn.conv2d(%447, %448, padding=[0, 0, 0, 0], channels=128, kernel_size=[6, 6]) /* ty=Tensor[(128, 128, 1, 1), float32] */;
  %450 = transpose(%449, axes=[1, 0, 2, 3]) /* ty=Tensor[(128, 128, 1, 1), float32] */;
  %451 = reshape(%450, newshape=[128, 1, 128, 1, 1]) /* ty=Tensor[(128, 1, 128, 1, 1), float32] */;
  %452 = sum(%451, axis=[1]) /* ty=Tensor[(128, 128, 1, 1), float32] */;
  %453 = zeros(shape=[1, 128, 6, 6], dtype="float32") /* ty=Tensor[(1, 128, 6, 6), float32] */;
  %454 = less(%nn_relu_86_x, %453) /* ty=Tensor[(1, 128, 6, 6), bool] */;
  %455 = nn.conv2d_transpose(%445, %param_81_train, channels=128, kernel_size=[1, 1], padding=[0, 0, 0, 0], kernel_layout="IOHW") /* ty=Tensor[(1, 128, 6, 6), float32] */;
  %456 = where(%454, %453, %455) /* ty=Tensor[(1, 128, 6, 6), float32] */;
  %457 = multiply(%456, %multiply_88_x) /* ty=Tensor[(1, 128, 6, 6), float32] */;
  %458 = multiply(%456, %param_79_train) /* ty=Tensor[(1, 128, 6, 6), float32] */;
  %459 = reshape(%nn_instance_norm_90_x, newshape=[16, 288]) /* ty=Tensor[(16, 288), float32] */;
  %460 = mean(%459, axis=[1], keepdims=True) /* ty=Tensor[(16, 1), float32] */;
  %461 = subtract(%459, %460) /* ty=Tensor[(16, 288), float32] */;
  %462 = multiply(%461, %461) /* ty=Tensor[(16, 288), float32] */;
  %463 = mean(%462, axis=[1], keepdims=True) /* ty=Tensor[(16, 1), float32] */;
  %464 = add(%463, 1e-05f /* ty=float32 */) /* ty=Tensor[(16, 1), float32] */;
  %465 = sqrt(%464) /* ty=Tensor[(16, 1), float32] */;
  %466 = divide(1f /* ty=float32 */, %465) /* ty=Tensor[(16, 1), float32] */;
  %467 = repeat(%466, repeats=1, axis=0) /* ty=Tensor[(16, 1), float32] */;
  %468 = reshape(%458, newshape=[16, 288]) /* ty=Tensor[(16, 288), float32] */;
  %469 = reshape(%467, newshape=[16, 1]) /* ty=Tensor[(16, 1), float32] */;
  %470 = multiply(%468, %461) /* ty=Tensor[(16, 288), float32] */;
  %471 = sum(%470, axis=[1], keepdims=True) /* ty=Tensor[(16, 1), float32] */;
  %472 = multiply(%469, %469) /* ty=Tensor[(16, 1), float32] */;
  %473 = multiply(-0.5f /* ty=float32 */, %471) /* ty=Tensor[(16, 1), float32] */;
  %474 = multiply(%472, %469) /* ty=Tensor[(16, 1), float32] */;
  %475 = multiply(%473, %474) /* ty=Tensor[(16, 1), float32] */;
  %476 = multiply(%475, 0.00347222f /* ty=float32 */) /* ty=Tensor[(16, 1), float32] */;
  %477 = multiply(%461, %476) /* ty=Tensor[(16, 288), float32] */;
  %478 = multiply(%468, %469) /* ty=Tensor[(16, 288), float32] */;
  %479 = multiply(%477, 2f /* ty=float32 */) /* ty=Tensor[(16, 288), float32] */;
  %480 = add(%478, %479) /* ty=Tensor[(16, 288), float32] */;
  %481 = sum(%480, axis=[1], keepdims=True) /* ty=Tensor[(16, 1), float32] */;
  %482 = negative(%481) /* ty=Tensor[(16, 1), float32] */;
  %483 = multiply(%482, 0.00347222f /* ty=float32 */) /* ty=Tensor[(16, 1), float32] */;
  %484 = add(%480, %483) /* ty=Tensor[(16, 288), float32] */;
  %485 = reshape(%484, newshape=[1, 128, 6, 6]) /* ty=Tensor[(1, 128, 6, 6), float32] */;
  %486 = tile(%485, reps=[1, 1, 1, 1]) /* ty=Tensor[(1, 128, 6, 6), float32] */;
  %487 = reshape(%nn_conv2d_92_x, newshape=[1, -1, 0, 0]) /* ty=Tensor[(1, 128, 6, 6), float32] */;
  %488 = reshape(%486, newshape=[-1, 1, 0, 0]) /* ty=Tensor[(128, 1, 6, 6), float32] */;
  %489 = nn.conv2d(%487, %488, padding=[1, 1, 1, 1], groups=128, channels=128, kernel_size=[6, 6]) /* ty=Tensor[(1, 128, 3, 3), float32] */;
  %490 = reshape(%489, newshape=[1, 1, 128, 3, 3]) /* ty=Tensor[(1, 1, 128, 3, 3), float32] */;
  %491 = sum(%490, axis=[0]) /* ty=Tensor[(1, 128, 3, 3), float32] */;
  %492 = zeros(shape=[1, 128, 6, 6], dtype="float32") /* ty=Tensor[(1, 128, 6, 6), float32] */;
  %493 = less(%nn_relu_93_x, %492) /* ty=Tensor[(1, 128, 6, 6), bool] */;
  %494 = nn.conv2d_transpose(%485, %param_76_train, channels=128, kernel_size=[3, 3], padding=[1, 1, 1, 1], groups=128, kernel_layout="IOHW") /* ty=Tensor[(1, 128, 6, 6), float32] */;
  %495 = where(%493, %492, %494) /* ty=Tensor[(1, 128, 6, 6), float32] */;
  %496 = multiply(%495, %multiply_95_x) /* ty=Tensor[(1, 128, 6, 6), float32] */;
  %497 = transpose(%nn_conv2d_99_x, axes=[1, 0, 2, 3]) /* ty=Tensor[(128, 1, 6, 6), float32] */;
  %498 = multiply(%495, %param_74_train) /* ty=Tensor[(1, 128, 6, 6), float32] */;
  %499 = reshape(%nn_instance_norm_97_x, newshape=[16, 288]) /* ty=Tensor[(16, 288), float32] */;
  %500 = mean(%499, axis=[1], keepdims=True) /* ty=Tensor[(16, 1), float32] */;
  %501 = subtract(%499, %500) /* ty=Tensor[(16, 288), float32] */;
  %502 = multiply(%501, %501) /* ty=Tensor[(16, 288), float32] */;
  %503 = mean(%502, axis=[1], keepdims=True) /* ty=Tensor[(16, 1), float32] */;
  %504 = add(%503, 1e-05f /* ty=float32 */) /* ty=Tensor[(16, 1), float32] */;
  %505 = sqrt(%504) /* ty=Tensor[(16, 1), float32] */;
  %506 = divide(1f /* ty=float32 */, %505) /* ty=Tensor[(16, 1), float32] */;
  %507 = repeat(%506, repeats=1, axis=0) /* ty=Tensor[(16, 1), float32] */;
  %508 = reshape(%498, newshape=[16, 288]) /* ty=Tensor[(16, 288), float32] */;
  %509 = reshape(%507, newshape=[16, 1]) /* ty=Tensor[(16, 1), float32] */;
  %510 = multiply(%508, %501) /* ty=Tensor[(16, 288), float32] */;
  %511 = sum(%510, axis=[1], keepdims=True) /* ty=Tensor[(16, 1), float32] */;
  %512 = multiply(%509, %509) /* ty=Tensor[(16, 1), float32] */;
  %513 = multiply(-0.5f /* ty=float32 */, %511) /* ty=Tensor[(16, 1), float32] */;
  %514 = multiply(%512, %509) /* ty=Tensor[(16, 1), float32] */;
  %515 = multiply(%513, %514) /* ty=Tensor[(16, 1), float32] */;
  %516 = multiply(%515, 0.00347222f /* ty=float32 */) /* ty=Tensor[(16, 1), float32] */;
  %517 = multiply(%501, %516) /* ty=Tensor[(16, 288), float32] */;
  %518 = multiply(%508, %509) /* ty=Tensor[(16, 288), float32] */;
  %519 = multiply(%517, 2f /* ty=float32 */) /* ty=Tensor[(16, 288), float32] */;
  %520 = add(%518, %519) /* ty=Tensor[(16, 288), float32] */;
  %521 = sum(%520, axis=[1], keepdims=True) /* ty=Tensor[(16, 1), float32] */;
  %522 = negative(%521) /* ty=Tensor[(16, 1), float32] */;
  %523 = multiply(%522, 0.00347222f /* ty=float32 */) /* ty=Tensor[(16, 1), float32] */;
  %524 = add(%520, %523) /* ty=Tensor[(16, 288), float32] */;
  %525 = reshape(%524, newshape=[1, 128, 6, 6]) /* ty=Tensor[(1, 128, 6, 6), float32] */;
  %526 = transpose(%525, axes=[1, 0, 2, 3]) /* ty=Tensor[(128, 1, 6, 6), float32] */;
  %527 = reshape(%497, newshape=[128, 1, 6, 6]) /* ty=Tensor[(128, 1, 6, 6), float32] */;
  %528 = reshape(%526, newshape=[128, 1, 6, 6]) /* ty=Tensor[(128, 1, 6, 6), float32] */;
  %529 = nn.conv2d(%527, %528, padding=[0, 0, 0, 0], channels=128, kernel_size=[6, 6]) /* ty=Tensor[(128, 128, 1, 1), float32] */;
  %530 = transpose(%529, axes=[1, 0, 2, 3]) /* ty=Tensor[(128, 128, 1, 1), float32] */;
  %531 = reshape(%530, newshape=[128, 1, 128, 1, 1]) /* ty=Tensor[(128, 1, 128, 1, 1), float32] */;
  %532 = sum(%531, axis=[1]) /* ty=Tensor[(128, 128, 1, 1), float32] */;
  %533 = zeros(shape=[1, 128, 6, 6], dtype="float32") /* ty=Tensor[(1, 128, 6, 6), float32] */;
  %534 = less(%nn_relu_100_x, %533) /* ty=Tensor[(1, 128, 6, 6), bool] */;
  %535 = nn.conv2d_transpose(%525, %param_71_train, channels=128, kernel_size=[1, 1], padding=[0, 0, 0, 0], kernel_layout="IOHW") /* ty=Tensor[(1, 128, 6, 6), float32] */;
  %536 = where(%534, %533, %535) /* ty=Tensor[(1, 128, 6, 6), float32] */;
  %537 = multiply(%536, %multiply_102_x) /* ty=Tensor[(1, 128, 6, 6), float32] */;
  %538 = multiply(%536, %param_69_train) /* ty=Tensor[(1, 128, 6, 6), float32] */;
  %539 = reshape(%nn_instance_norm_104_x, newshape=[16, 288]) /* ty=Tensor[(16, 288), float32] */;
  %540 = mean(%539, axis=[1], keepdims=True) /* ty=Tensor[(16, 1), float32] */;
  %541 = subtract(%539, %540) /* ty=Tensor[(16, 288), float32] */;
  %542 = multiply(%541, %541) /* ty=Tensor[(16, 288), float32] */;
  %543 = mean(%542, axis=[1], keepdims=True) /* ty=Tensor[(16, 1), float32] */;
  %544 = add(%543, 1e-05f /* ty=float32 */) /* ty=Tensor[(16, 1), float32] */;
  %545 = sqrt(%544) /* ty=Tensor[(16, 1), float32] */;
  %546 = divide(1f /* ty=float32 */, %545) /* ty=Tensor[(16, 1), float32] */;
  %547 = repeat(%546, repeats=1, axis=0) /* ty=Tensor[(16, 1), float32] */;
  %548 = reshape(%538, newshape=[16, 288]) /* ty=Tensor[(16, 288), float32] */;
  %549 = reshape(%547, newshape=[16, 1]) /* ty=Tensor[(16, 1), float32] */;
  %550 = multiply(%548, %541) /* ty=Tensor[(16, 288), float32] */;
  %551 = sum(%550, axis=[1], keepdims=True) /* ty=Tensor[(16, 1), float32] */;
  %552 = multiply(%549, %549) /* ty=Tensor[(16, 1), float32] */;
  %553 = multiply(-0.5f /* ty=float32 */, %551) /* ty=Tensor[(16, 1), float32] */;
  %554 = multiply(%552, %549) /* ty=Tensor[(16, 1), float32] */;
  %555 = multiply(%553, %554) /* ty=Tensor[(16, 1), float32] */;
  %556 = multiply(%555, 0.00347222f /* ty=float32 */) /* ty=Tensor[(16, 1), float32] */;
  %557 = multiply(%541, %556) /* ty=Tensor[(16, 288), float32] */;
  %558 = multiply(%548, %549) /* ty=Tensor[(16, 288), float32] */;
  %559 = multiply(%557, 2f /* ty=float32 */) /* ty=Tensor[(16, 288), float32] */;
  %560 = add(%558, %559) /* ty=Tensor[(16, 288), float32] */;
  %561 = sum(%560, axis=[1], keepdims=True) /* ty=Tensor[(16, 1), float32] */;
  %562 = negative(%561) /* ty=Tensor[(16, 1), float32] */;
  %563 = multiply(%562, 0.00347222f /* ty=float32 */) /* ty=Tensor[(16, 1), float32] */;
  %564 = add(%560, %563) /* ty=Tensor[(16, 288), float32] */;
  %565 = reshape(%564, newshape=[1, 128, 6, 6]) /* ty=Tensor[(1, 128, 6, 6), float32] */;
  %566 = tile(%565, reps=[1, 1, 1, 1]) /* ty=Tensor[(1, 128, 6, 6), float32] */;
  %567 = reshape(%nn_conv2d_106_x, newshape=[1, -1, 0, 0]) /* ty=Tensor[(1, 128, 6, 6), float32] */;
  %568 = reshape(%566, newshape=[-1, 1, 0, 0]) /* ty=Tensor[(128, 1, 6, 6), float32] */;
  %569 = nn.conv2d(%567, %568, padding=[1, 1, 1, 1], groups=128, channels=128, kernel_size=[6, 6]) /* ty=Tensor[(1, 128, 3, 3), float32] */;
  %570 = reshape(%569, newshape=[1, 1, 128, 3, 3]) /* ty=Tensor[(1, 1, 128, 3, 3), float32] */;
  %571 = sum(%570, axis=[0]) /* ty=Tensor[(1, 128, 3, 3), float32] */;
  %572 = zeros(shape=[1, 128, 6, 6], dtype="float32") /* ty=Tensor[(1, 128, 6, 6), float32] */;
  %573 = less(%nn_relu_107_x, %572) /* ty=Tensor[(1, 128, 6, 6), bool] */;
  %574 = nn.conv2d_transpose(%565, %param_66_train, channels=128, kernel_size=[3, 3], padding=[1, 1, 1, 1], groups=128, kernel_layout="IOHW") /* ty=Tensor[(1, 128, 6, 6), float32] */;
  %575 = where(%573, %572, %574) /* ty=Tensor[(1, 128, 6, 6), float32] */;
  %576 = multiply(%575, %multiply_109_x) /* ty=Tensor[(1, 128, 6, 6), float32] */;
  %577 = transpose(%nn_conv2d_113_x, axes=[1, 0, 2, 3]) /* ty=Tensor[(64, 1, 6, 6), float32] */;
  %578 = multiply(%575, %param_64_train) /* ty=Tensor[(1, 128, 6, 6), float32] */;
  %579 = reshape(%nn_instance_norm_111_x, newshape=[16, 288]) /* ty=Tensor[(16, 288), float32] */;
  %580 = mean(%579, axis=[1], keepdims=True) /* ty=Tensor[(16, 1), float32] */;
  %581 = subtract(%579, %580) /* ty=Tensor[(16, 288), float32] */;
  %582 = multiply(%581, %581) /* ty=Tensor[(16, 288), float32] */;
  %583 = mean(%582, axis=[1], keepdims=True) /* ty=Tensor[(16, 1), float32] */;
  %584 = add(%583, 1e-05f /* ty=float32 */) /* ty=Tensor[(16, 1), float32] */;
  %585 = sqrt(%584) /* ty=Tensor[(16, 1), float32] */;
  %586 = divide(1f /* ty=float32 */, %585) /* ty=Tensor[(16, 1), float32] */;
  %587 = repeat(%586, repeats=1, axis=0) /* ty=Tensor[(16, 1), float32] */;
  %588 = reshape(%578, newshape=[16, 288]) /* ty=Tensor[(16, 288), float32] */;
  %589 = reshape(%587, newshape=[16, 1]) /* ty=Tensor[(16, 1), float32] */;
  %590 = multiply(%588, %581) /* ty=Tensor[(16, 288), float32] */;
  %591 = sum(%590, axis=[1], keepdims=True) /* ty=Tensor[(16, 1), float32] */;
  %592 = multiply(%589, %589) /* ty=Tensor[(16, 1), float32] */;
  %593 = multiply(-0.5f /* ty=float32 */, %591) /* ty=Tensor[(16, 1), float32] */;
  %594 = multiply(%592, %589) /* ty=Tensor[(16, 1), float32] */;
  %595 = multiply(%593, %594) /* ty=Tensor[(16, 1), float32] */;
  %596 = multiply(%595, 0.00347222f /* ty=float32 */) /* ty=Tensor[(16, 1), float32] */;
  %597 = multiply(%581, %596) /* ty=Tensor[(16, 288), float32] */;
  %598 = multiply(%588, %589) /* ty=Tensor[(16, 288), float32] */;
  %599 = multiply(%597, 2f /* ty=float32 */) /* ty=Tensor[(16, 288), float32] */;
  %600 = add(%598, %599) /* ty=Tensor[(16, 288), float32] */;
  %601 = sum(%600, axis=[1], keepdims=True) /* ty=Tensor[(16, 1), float32] */;
  %602 = negative(%601) /* ty=Tensor[(16, 1), float32] */;
  %603 = multiply(%602, 0.00347222f /* ty=float32 */) /* ty=Tensor[(16, 1), float32] */;
  %604 = add(%600, %603) /* ty=Tensor[(16, 288), float32] */;
  %605 = reshape(%604, newshape=[1, 128, 6, 6]) /* ty=Tensor[(1, 128, 6, 6), float32] */;
  %606 = transpose(%605, axes=[1, 0, 2, 3]) /* ty=Tensor[(128, 1, 6, 6), float32] */;
  %607 = reshape(%577, newshape=[64, 1, 6, 6]) /* ty=Tensor[(64, 1, 6, 6), float32] */;
  %608 = reshape(%606, newshape=[128, 1, 6, 6]) /* ty=Tensor[(128, 1, 6, 6), float32] */;
  %609 = nn.conv2d(%607, %608, padding=[0, 0, 0, 0], channels=128, kernel_size=[6, 6]) /* ty=Tensor[(64, 128, 1, 1), float32] */;
  %610 = transpose(%609, axes=[1, 0, 2, 3]) /* ty=Tensor[(128, 64, 1, 1), float32] */;
  %611 = reshape(%610, newshape=[64, 1, 128, 1, 1]) /* ty=Tensor[(64, 1, 128, 1, 1), float32] */;
  %612 = sum(%611, axis=[1]) /* ty=Tensor[(64, 128, 1, 1), float32] */;
  %613 = zeros(shape=[1, 64, 6, 6], dtype="float32") /* ty=Tensor[(1, 64, 6, 6), float32] */;
  %614 = less(%nn_relu_114_x, %613) /* ty=Tensor[(1, 64, 6, 6), bool] */;
  %615 = nn.conv2d_transpose(%605, %param_61_train, channels=64, kernel_size=[1, 1], padding=[0, 0, 0, 0], kernel_layout="IOHW") /* ty=Tensor[(1, 64, 6, 6), float32] */;
  %616 = where(%614, %613, %615) /* ty=Tensor[(1, 64, 6, 6), float32] */;
  %617 = multiply(%616, %multiply_116_x) /* ty=Tensor[(1, 64, 6, 6), float32] */;
  %618 = multiply(%616, %param_59_train) /* ty=Tensor[(1, 64, 6, 6), float32] */;
  %619 = reshape(%nn_instance_norm_118_x, newshape=[8, 288]) /* ty=Tensor[(8, 288), float32] */;
  %620 = mean(%619, axis=[1], keepdims=True) /* ty=Tensor[(8, 1), float32] */;
  %621 = subtract(%619, %620) /* ty=Tensor[(8, 288), float32] */;
  %622 = multiply(%621, %621) /* ty=Tensor[(8, 288), float32] */;
  %623 = mean(%622, axis=[1], keepdims=True) /* ty=Tensor[(8, 1), float32] */;
  %624 = add(%623, 1e-05f /* ty=float32 */) /* ty=Tensor[(8, 1), float32] */;
  %625 = sqrt(%624) /* ty=Tensor[(8, 1), float32] */;
  %626 = divide(1f /* ty=float32 */, %625) /* ty=Tensor[(8, 1), float32] */;
  %627 = repeat(%626, repeats=1, axis=0) /* ty=Tensor[(8, 1), float32] */;
  %628 = reshape(%618, newshape=[8, 288]) /* ty=Tensor[(8, 288), float32] */;
  %629 = reshape(%627, newshape=[8, 1]) /* ty=Tensor[(8, 1), float32] */;
  %630 = multiply(%628, %621) /* ty=Tensor[(8, 288), float32] */;
  %631 = sum(%630, axis=[1], keepdims=True) /* ty=Tensor[(8, 1), float32] */;
  %632 = multiply(%629, %629) /* ty=Tensor[(8, 1), float32] */;
  %633 = multiply(-0.5f /* ty=float32 */, %631) /* ty=Tensor[(8, 1), float32] */;
  %634 = multiply(%632, %629) /* ty=Tensor[(8, 1), float32] */;
  %635 = multiply(%633, %634) /* ty=Tensor[(8, 1), float32] */;
  %636 = multiply(%635, 0.00347222f /* ty=float32 */) /* ty=Tensor[(8, 1), float32] */;
  %637 = multiply(%621, %636) /* ty=Tensor[(8, 288), float32] */;
  %638 = multiply(%628, %629) /* ty=Tensor[(8, 288), float32] */;
  %639 = multiply(%637, 2f /* ty=float32 */) /* ty=Tensor[(8, 288), float32] */;
  %640 = add(%638, %639) /* ty=Tensor[(8, 288), float32] */;
  %641 = sum(%640, axis=[1], keepdims=True) /* ty=Tensor[(8, 1), float32] */;
  %642 = negative(%641) /* ty=Tensor[(8, 1), float32] */;
  %643 = multiply(%642, 0.00347222f /* ty=float32 */) /* ty=Tensor[(8, 1), float32] */;
  %644 = add(%640, %643) /* ty=Tensor[(8, 288), float32] */;
  %645 = reshape(%644, newshape=[1, 64, 6, 6]) /* ty=Tensor[(1, 64, 6, 6), float32] */;
  %646 = tile(%645, reps=[1, 1, 1, 1]) /* ty=Tensor[(1, 64, 6, 6), float32] */;
  %647 = reshape(%nn_conv2d_120_x, newshape=[1, -1, 0, 0]) /* ty=Tensor[(1, 64, 12, 12), float32] */;
  %648 = reshape(%646, newshape=[-1, 1, 0, 0]) /* ty=Tensor[(64, 1, 6, 6), float32] */;
  %649 = nn.conv2d(%647, %648, padding=[1, 1, 1, 1], dilation=[2, 2], groups=64, channels=64, kernel_size=[6, 6]) /* ty=Tensor[(1, 64, 4, 4), float32] */;
  %650 = reshape(%649, newshape=[1, 1, 64, 4, 4]) /* ty=Tensor[(1, 1, 64, 4, 4), float32] */;
  %651 = sum(%650, axis=[0]) /* ty=Tensor[(1, 64, 4, 4), float32] */;
  %652 = transpose(%651, axes=[1, 0, 2, 3]) /* ty=Tensor[(64, 1, 4, 4), float32] */;
  %653 = zeros(shape=[1, 64, 12, 12], dtype="float32") /* ty=Tensor[(1, 64, 12, 12), float32] */;
  %654 = less(%nn_relu_121_x, %653) /* ty=Tensor[(1, 64, 12, 12), bool] */;
  %655 = nn.conv2d_transpose(%645, %param_56_train, channels=64, kernel_size=[3, 3], strides=[2, 2], output_padding=[1, 1], padding=[1, 1, 1, 1], groups=64, kernel_layout="IOHW") /* ty=Tensor[(1, 64, 12, 12), float32] */;
  %656 = where(%654, %653, %655) /* ty=Tensor[(1, 64, 12, 12), float32] */;
  %657 = multiply(%656, %multiply_123_x) /* ty=Tensor[(1, 64, 12, 12), float32] */;
  %658 = transpose(%nn_conv2d_127_x, axes=[1, 0, 2, 3]) /* ty=Tensor[(64, 1, 12, 12), float32] */;
  %659 = multiply(%656, %param_54_train) /* ty=Tensor[(1, 64, 12, 12), float32] */;
  %660 = reshape(%nn_instance_norm_125_x, newshape=[8, 1152]) /* ty=Tensor[(8, 1152), float32] */;
  %661 = mean(%660, axis=[1], keepdims=True) /* ty=Tensor[(8, 1), float32] */;
  %662 = subtract(%660, %661) /* ty=Tensor[(8, 1152), float32] */;
  %663 = multiply(%662, %662) /* ty=Tensor[(8, 1152), float32] */;
  %664 = mean(%663, axis=[1], keepdims=True) /* ty=Tensor[(8, 1), float32] */;
  %665 = add(%664, 1e-05f /* ty=float32 */) /* ty=Tensor[(8, 1), float32] */;
  %666 = sqrt(%665) /* ty=Tensor[(8, 1), float32] */;
  %667 = divide(1f /* ty=float32 */, %666) /* ty=Tensor[(8, 1), float32] */;
  %668 = repeat(%667, repeats=1, axis=0) /* ty=Tensor[(8, 1), float32] */;
  %669 = reshape(%659, newshape=[8, 1152]) /* ty=Tensor[(8, 1152), float32] */;
  %670 = reshape(%668, newshape=[8, 1]) /* ty=Tensor[(8, 1), float32] */;
  %671 = multiply(%669, %662) /* ty=Tensor[(8, 1152), float32] */;
  %672 = sum(%671, axis=[1], keepdims=True) /* ty=Tensor[(8, 1), float32] */;
  %673 = multiply(%670, %670) /* ty=Tensor[(8, 1), float32] */;
  %674 = multiply(-0.5f /* ty=float32 */, %672) /* ty=Tensor[(8, 1), float32] */;
  %675 = multiply(%673, %670) /* ty=Tensor[(8, 1), float32] */;
  %676 = multiply(%674, %675) /* ty=Tensor[(8, 1), float32] */;
  %677 = multiply(%676, 0.000868056f /* ty=float32 */) /* ty=Tensor[(8, 1), float32] */;
  %678 = multiply(%662, %677) /* ty=Tensor[(8, 1152), float32] */;
  %679 = multiply(%669, %670) /* ty=Tensor[(8, 1152), float32] */;
  %680 = multiply(%678, 2f /* ty=float32 */) /* ty=Tensor[(8, 1152), float32] */;
  %681 = add(%679, %680) /* ty=Tensor[(8, 1152), float32] */;
  %682 = sum(%681, axis=[1], keepdims=True) /* ty=Tensor[(8, 1), float32] */;
  %683 = negative(%682) /* ty=Tensor[(8, 1), float32] */;
  %684 = multiply(%683, 0.000868056f /* ty=float32 */) /* ty=Tensor[(8, 1), float32] */;
  %685 = add(%681, %684) /* ty=Tensor[(8, 1152), float32] */;
  %686 = reshape(%685, newshape=[1, 64, 12, 12]) /* ty=Tensor[(1, 64, 12, 12), float32] */;
  %687 = transpose(%686, axes=[1, 0, 2, 3]) /* ty=Tensor[(64, 1, 12, 12), float32] */;
  %688 = reshape(%658, newshape=[64, 1, 12, 12]) /* ty=Tensor[(64, 1, 12, 12), float32] */;
  %689 = reshape(%687, newshape=[64, 1, 12, 12]) /* ty=Tensor[(64, 1, 12, 12), float32] */;
  %690 = nn.conv2d(%688, %689, padding=[0, 0, 0, 0], channels=64, kernel_size=[12, 12]) /* ty=Tensor[(64, 64, 1, 1), float32] */;
  %691 = transpose(%690, axes=[1, 0, 2, 3]) /* ty=Tensor[(64, 64, 1, 1), float32] */;
  %692 = reshape(%691, newshape=[64, 1, 64, 1, 1]) /* ty=Tensor[(64, 1, 64, 1, 1), float32] */;
  %693 = sum(%692, axis=[1]) /* ty=Tensor[(64, 64, 1, 1), float32] */;
  %694 = zeros(shape=[1, 64, 12, 12], dtype="float32") /* ty=Tensor[(1, 64, 12, 12), float32] */;
  %695 = less(%nn_relu_128_x, %694) /* ty=Tensor[(1, 64, 12, 12), bool] */;
  %696 = nn.conv2d_transpose(%686, %param_51_train, channels=64, kernel_size=[1, 1], padding=[0, 0, 0, 0], kernel_layout="IOHW") /* ty=Tensor[(1, 64, 12, 12), float32] */;
  %697 = where(%695, %694, %696) /* ty=Tensor[(1, 64, 12, 12), float32] */;
  %698 = multiply(%697, %multiply_130_x) /* ty=Tensor[(1, 64, 12, 12), float32] */;
  %699 = multiply(%697, %param_49_train) /* ty=Tensor[(1, 64, 12, 12), float32] */;
  %700 = reshape(%nn_instance_norm_132_x, newshape=[8, 1152]) /* ty=Tensor[(8, 1152), float32] */;
  %701 = mean(%700, axis=[1], keepdims=True) /* ty=Tensor[(8, 1), float32] */;
  %702 = subtract(%700, %701) /* ty=Tensor[(8, 1152), float32] */;
  %703 = multiply(%702, %702) /* ty=Tensor[(8, 1152), float32] */;
  %704 = mean(%703, axis=[1], keepdims=True) /* ty=Tensor[(8, 1), float32] */;
  %705 = add(%704, 1e-05f /* ty=float32 */) /* ty=Tensor[(8, 1), float32] */;
  %706 = sqrt(%705) /* ty=Tensor[(8, 1), float32] */;
  %707 = divide(1f /* ty=float32 */, %706) /* ty=Tensor[(8, 1), float32] */;
  %708 = repeat(%707, repeats=1, axis=0) /* ty=Tensor[(8, 1), float32] */;
  %709 = reshape(%699, newshape=[8, 1152]) /* ty=Tensor[(8, 1152), float32] */;
  %710 = reshape(%708, newshape=[8, 1]) /* ty=Tensor[(8, 1), float32] */;
  %711 = multiply(%709, %702) /* ty=Tensor[(8, 1152), float32] */;
  %712 = sum(%711, axis=[1], keepdims=True) /* ty=Tensor[(8, 1), float32] */;
  %713 = multiply(%710, %710) /* ty=Tensor[(8, 1), float32] */;
  %714 = multiply(-0.5f /* ty=float32 */, %712) /* ty=Tensor[(8, 1), float32] */;
  %715 = multiply(%713, %710) /* ty=Tensor[(8, 1), float32] */;
  %716 = multiply(%714, %715) /* ty=Tensor[(8, 1), float32] */;
  %717 = multiply(%716, 0.000868056f /* ty=float32 */) /* ty=Tensor[(8, 1), float32] */;
  %718 = multiply(%702, %717) /* ty=Tensor[(8, 1152), float32] */;
  %719 = multiply(%709, %710) /* ty=Tensor[(8, 1152), float32] */;
  %720 = multiply(%718, 2f /* ty=float32 */) /* ty=Tensor[(8, 1152), float32] */;
  %721 = add(%719, %720) /* ty=Tensor[(8, 1152), float32] */;
  %722 = sum(%721, axis=[1], keepdims=True) /* ty=Tensor[(8, 1), float32] */;
  %723 = negative(%722) /* ty=Tensor[(8, 1), float32] */;
  %724 = multiply(%723, 0.000868056f /* ty=float32 */) /* ty=Tensor[(8, 1), float32] */;
  %725 = add(%721, %724) /* ty=Tensor[(8, 1152), float32] */;
  %726 = reshape(%725, newshape=[1, 64, 12, 12]) /* ty=Tensor[(1, 64, 12, 12), float32] */;
  %727 = tile(%726, reps=[1, 1, 1, 1]) /* ty=Tensor[(1, 64, 12, 12), float32] */;
  %728 = reshape(%nn_conv2d_134_x, newshape=[1, -1, 0, 0]) /* ty=Tensor[(1, 64, 12, 12), float32] */;
  %729 = reshape(%727, newshape=[-1, 1, 0, 0]) /* ty=Tensor[(64, 1, 12, 12), float32] */;
  %730 = nn.conv2d(%728, %729, padding=[1, 1, 1, 1], groups=64, channels=64, kernel_size=[12, 12]) /* ty=Tensor[(1, 64, 3, 3), float32] */;
  %731 = reshape(%730, newshape=[1, 1, 64, 3, 3]) /* ty=Tensor[(1, 1, 64, 3, 3), float32] */;
  %732 = sum(%731, axis=[0]) /* ty=Tensor[(1, 64, 3, 3), float32] */;
  %733 = zeros(shape=[1, 64, 12, 12], dtype="float32") /* ty=Tensor[(1, 64, 12, 12), float32] */;
  %734 = less(%nn_relu_135_x, %733) /* ty=Tensor[(1, 64, 12, 12), bool] */;
  %735 = nn.conv2d_transpose(%726, %param_46_train, channels=64, kernel_size=[3, 3], padding=[1, 1, 1, 1], groups=64, kernel_layout="IOHW") /* ty=Tensor[(1, 64, 12, 12), float32] */;
  %736 = where(%734, %733, %735) /* ty=Tensor[(1, 64, 12, 12), float32] */;
  %737 = multiply(%736, %multiply_137_x) /* ty=Tensor[(1, 64, 12, 12), float32] */;
  %738 = transpose(%nn_conv2d_141_x, axes=[1, 0, 2, 3]) /* ty=Tensor[(32, 1, 12, 12), float32] */;
  %739 = multiply(%736, %param_44_train) /* ty=Tensor[(1, 64, 12, 12), float32] */;
  %740 = reshape(%nn_instance_norm_139_x, newshape=[8, 1152]) /* ty=Tensor[(8, 1152), float32] */;
  %741 = mean(%740, axis=[1], keepdims=True) /* ty=Tensor[(8, 1), float32] */;
  %742 = subtract(%740, %741) /* ty=Tensor[(8, 1152), float32] */;
  %743 = multiply(%742, %742) /* ty=Tensor[(8, 1152), float32] */;
  %744 = mean(%743, axis=[1], keepdims=True) /* ty=Tensor[(8, 1), float32] */;
  %745 = add(%744, 1e-05f /* ty=float32 */) /* ty=Tensor[(8, 1), float32] */;
  %746 = sqrt(%745) /* ty=Tensor[(8, 1), float32] */;
  %747 = divide(1f /* ty=float32 */, %746) /* ty=Tensor[(8, 1), float32] */;
  %748 = repeat(%747, repeats=1, axis=0) /* ty=Tensor[(8, 1), float32] */;
  %749 = reshape(%739, newshape=[8, 1152]) /* ty=Tensor[(8, 1152), float32] */;
  %750 = reshape(%748, newshape=[8, 1]) /* ty=Tensor[(8, 1), float32] */;
  %751 = multiply(%749, %742) /* ty=Tensor[(8, 1152), float32] */;
  %752 = sum(%751, axis=[1], keepdims=True) /* ty=Tensor[(8, 1), float32] */;
  %753 = multiply(%750, %750) /* ty=Tensor[(8, 1), float32] */;
  %754 = multiply(-0.5f /* ty=float32 */, %752) /* ty=Tensor[(8, 1), float32] */;
  %755 = multiply(%753, %750) /* ty=Tensor[(8, 1), float32] */;
  %756 = multiply(%754, %755) /* ty=Tensor[(8, 1), float32] */;
  %757 = multiply(%756, 0.000868056f /* ty=float32 */) /* ty=Tensor[(8, 1), float32] */;
  %758 = multiply(%742, %757) /* ty=Tensor[(8, 1152), float32] */;
  %759 = multiply(%749, %750) /* ty=Tensor[(8, 1152), float32] */;
  %760 = multiply(%758, 2f /* ty=float32 */) /* ty=Tensor[(8, 1152), float32] */;
  %761 = add(%759, %760) /* ty=Tensor[(8, 1152), float32] */;
  %762 = sum(%761, axis=[1], keepdims=True) /* ty=Tensor[(8, 1), float32] */;
  %763 = negative(%762) /* ty=Tensor[(8, 1), float32] */;
  %764 = multiply(%763, 0.000868056f /* ty=float32 */) /* ty=Tensor[(8, 1), float32] */;
  %765 = add(%761, %764) /* ty=Tensor[(8, 1152), float32] */;
  %766 = reshape(%765, newshape=[1, 64, 12, 12]) /* ty=Tensor[(1, 64, 12, 12), float32] */;
  %767 = transpose(%766, axes=[1, 0, 2, 3]) /* ty=Tensor[(64, 1, 12, 12), float32] */;
  %768 = reshape(%738, newshape=[32, 1, 12, 12]) /* ty=Tensor[(32, 1, 12, 12), float32] */;
  %769 = reshape(%767, newshape=[64, 1, 12, 12]) /* ty=Tensor[(64, 1, 12, 12), float32] */;
  %770 = nn.conv2d(%768, %769, padding=[0, 0, 0, 0], channels=64, kernel_size=[12, 12]) /* ty=Tensor[(32, 64, 1, 1), float32] */;
  %771 = transpose(%770, axes=[1, 0, 2, 3]) /* ty=Tensor[(64, 32, 1, 1), float32] */;
  %772 = reshape(%771, newshape=[32, 1, 64, 1, 1]) /* ty=Tensor[(32, 1, 64, 1, 1), float32] */;
  %773 = sum(%772, axis=[1]) /* ty=Tensor[(32, 64, 1, 1), float32] */;
  %774 = zeros(shape=[1, 32, 12, 12], dtype="float32") /* ty=Tensor[(1, 32, 12, 12), float32] */;
  %775 = less(%nn_relu_142_x, %774) /* ty=Tensor[(1, 32, 12, 12), bool] */;
  %776 = nn.conv2d_transpose(%766, %param_41_train, channels=32, kernel_size=[1, 1], padding=[0, 0, 0, 0], kernel_layout="IOHW") /* ty=Tensor[(1, 32, 12, 12), float32] */;
  %777 = where(%775, %774, %776) /* ty=Tensor[(1, 32, 12, 12), float32] */;
  %778 = multiply(%777, %multiply_144_x) /* ty=Tensor[(1, 32, 12, 12), float32] */;
  %779 = multiply(%777, %param_39_train) /* ty=Tensor[(1, 32, 12, 12), float32] */;
  %780 = reshape(%nn_instance_norm_146_x, newshape=[4, 1152]) /* ty=Tensor[(4, 1152), float32] */;
  %781 = mean(%780, axis=[1], keepdims=True) /* ty=Tensor[(4, 1), float32] */;
  %782 = subtract(%780, %781) /* ty=Tensor[(4, 1152), float32] */;
  %783 = multiply(%782, %782) /* ty=Tensor[(4, 1152), float32] */;
  %784 = mean(%783, axis=[1], keepdims=True) /* ty=Tensor[(4, 1), float32] */;
  %785 = add(%784, 1e-05f /* ty=float32 */) /* ty=Tensor[(4, 1), float32] */;
  %786 = sqrt(%785) /* ty=Tensor[(4, 1), float32] */;
  %787 = divide(1f /* ty=float32 */, %786) /* ty=Tensor[(4, 1), float32] */;
  %788 = repeat(%787, repeats=1, axis=0) /* ty=Tensor[(4, 1), float32] */;
  %789 = reshape(%779, newshape=[4, 1152]) /* ty=Tensor[(4, 1152), float32] */;
  %790 = reshape(%788, newshape=[4, 1]) /* ty=Tensor[(4, 1), float32] */;
  %791 = multiply(%789, %782) /* ty=Tensor[(4, 1152), float32] */;
  %792 = sum(%791, axis=[1], keepdims=True) /* ty=Tensor[(4, 1), float32] */;
  %793 = multiply(%790, %790) /* ty=Tensor[(4, 1), float32] */;
  %794 = multiply(-0.5f /* ty=float32 */, %792) /* ty=Tensor[(4, 1), float32] */;
  %795 = multiply(%793, %790) /* ty=Tensor[(4, 1), float32] */;
  %796 = multiply(%794, %795) /* ty=Tensor[(4, 1), float32] */;
  %797 = multiply(%796, 0.000868056f /* ty=float32 */) /* ty=Tensor[(4, 1), float32] */;
  %798 = multiply(%782, %797) /* ty=Tensor[(4, 1152), float32] */;
  %799 = multiply(%789, %790) /* ty=Tensor[(4, 1152), float32] */;
  %800 = multiply(%798, 2f /* ty=float32 */) /* ty=Tensor[(4, 1152), float32] */;
  %801 = add(%799, %800) /* ty=Tensor[(4, 1152), float32] */;
  %802 = sum(%801, axis=[1], keepdims=True) /* ty=Tensor[(4, 1), float32] */;
  %803 = negative(%802) /* ty=Tensor[(4, 1), float32] */;
  %804 = multiply(%803, 0.000868056f /* ty=float32 */) /* ty=Tensor[(4, 1), float32] */;
  %805 = add(%801, %804) /* ty=Tensor[(4, 1152), float32] */;
  %806 = reshape(%805, newshape=[1, 32, 12, 12]) /* ty=Tensor[(1, 32, 12, 12), float32] */;
  %807 = tile(%806, reps=[1, 1, 1, 1]) /* ty=Tensor[(1, 32, 12, 12), float32] */;
  %808 = reshape(%nn_conv2d_148_x, newshape=[1, -1, 0, 0]) /* ty=Tensor[(1, 32, 24, 24), float32] */;
  %809 = reshape(%807, newshape=[-1, 1, 0, 0]) /* ty=Tensor[(32, 1, 12, 12), float32] */;
  %810 = nn.conv2d(%808, %809, padding=[1, 1, 1, 1], dilation=[2, 2], groups=32, channels=32, kernel_size=[12, 12]) /* ty=Tensor[(1, 32, 4, 4), float32] */;
  %811 = reshape(%810, newshape=[1, 1, 32, 4, 4]) /* ty=Tensor[(1, 1, 32, 4, 4), float32] */;
  %812 = sum(%811, axis=[0]) /* ty=Tensor[(1, 32, 4, 4), float32] */;
  %813 = transpose(%812, axes=[1, 0, 2, 3]) /* ty=Tensor[(32, 1, 4, 4), float32] */;
  %814 = zeros(shape=[1, 32, 24, 24], dtype="float32") /* ty=Tensor[(1, 32, 24, 24), float32] */;
  %815 = less(%nn_relu_149_x, %814) /* ty=Tensor[(1, 32, 24, 24), bool] */;
  %816 = nn.conv2d_transpose(%806, %param_36_train, channels=32, kernel_size=[3, 3], strides=[2, 2], output_padding=[1, 1], padding=[1, 1, 1, 1], groups=32, kernel_layout="IOHW") /* ty=Tensor[(1, 32, 24, 24), float32] */;
  %817 = where(%815, %814, %816) /* ty=Tensor[(1, 32, 24, 24), float32] */;
  %818 = multiply(%817, %multiply_151_x) /* ty=Tensor[(1, 32, 24, 24), float32] */;
  %819 = transpose(%nn_conv2d_155_x, axes=[1, 0, 2, 3]) /* ty=Tensor[(32, 1, 24, 24), float32] */;
  %820 = multiply(%817, %param_34_train) /* ty=Tensor[(1, 32, 24, 24), float32] */;
  %821 = reshape(%nn_instance_norm_153_x, newshape=[4, 4608]) /* ty=Tensor[(4, 4608), float32] */;
  %822 = mean(%821, axis=[1], keepdims=True) /* ty=Tensor[(4, 1), float32] */;
  %823 = subtract(%821, %822) /* ty=Tensor[(4, 4608), float32] */;
  %824 = multiply(%823, %823) /* ty=Tensor[(4, 4608), float32] */;
  %825 = mean(%824, axis=[1], keepdims=True) /* ty=Tensor[(4, 1), float32] */;
  %826 = add(%825, 1e-05f /* ty=float32 */) /* ty=Tensor[(4, 1), float32] */;
  %827 = sqrt(%826) /* ty=Tensor[(4, 1), float32] */;
  %828 = divide(1f /* ty=float32 */, %827) /* ty=Tensor[(4, 1), float32] */;
  %829 = repeat(%828, repeats=1, axis=0) /* ty=Tensor[(4, 1), float32] */;
  %830 = reshape(%820, newshape=[4, 4608]) /* ty=Tensor[(4, 4608), float32] */;
  %831 = reshape(%829, newshape=[4, 1]) /* ty=Tensor[(4, 1), float32] */;
  %832 = multiply(%830, %823) /* ty=Tensor[(4, 4608), float32] */;
  %833 = sum(%832, axis=[1], keepdims=True) /* ty=Tensor[(4, 1), float32] */;
  %834 = multiply(%831, %831) /* ty=Tensor[(4, 1), float32] */;
  %835 = multiply(-0.5f /* ty=float32 */, %833) /* ty=Tensor[(4, 1), float32] */;
  %836 = multiply(%834, %831) /* ty=Tensor[(4, 1), float32] */;
  %837 = multiply(%835, %836) /* ty=Tensor[(4, 1), float32] */;
  %838 = multiply(%837, 0.000217014f /* ty=float32 */) /* ty=Tensor[(4, 1), float32] */;
  %839 = multiply(%823, %838) /* ty=Tensor[(4, 4608), float32] */;
  %840 = multiply(%830, %831) /* ty=Tensor[(4, 4608), float32] */;
  %841 = multiply(%839, 2f /* ty=float32 */) /* ty=Tensor[(4, 4608), float32] */;
  %842 = add(%840, %841) /* ty=Tensor[(4, 4608), float32] */;
  %843 = sum(%842, axis=[1], keepdims=True) /* ty=Tensor[(4, 1), float32] */;
  %844 = negative(%843) /* ty=Tensor[(4, 1), float32] */;
  %845 = multiply(%844, 0.000217014f /* ty=float32 */) /* ty=Tensor[(4, 1), float32] */;
  %846 = add(%842, %845) /* ty=Tensor[(4, 4608), float32] */;
  %847 = reshape(%846, newshape=[1, 32, 24, 24]) /* ty=Tensor[(1, 32, 24, 24), float32] */;
  %848 = transpose(%847, axes=[1, 0, 2, 3]) /* ty=Tensor[(32, 1, 24, 24), float32] */;
  %849 = reshape(%819, newshape=[32, 1, 24, 24]) /* ty=Tensor[(32, 1, 24, 24), float32] */;
  %850 = reshape(%848, newshape=[32, 1, 24, 24]) /* ty=Tensor[(32, 1, 24, 24), float32] */;
  %851 = nn.conv2d(%849, %850, padding=[0, 0, 0, 0], channels=32, kernel_size=[24, 24]) /* ty=Tensor[(32, 32, 1, 1), float32] */;
  %852 = transpose(%851, axes=[1, 0, 2, 3]) /* ty=Tensor[(32, 32, 1, 1), float32] */;
  %853 = reshape(%852, newshape=[32, 1, 32, 1, 1]) /* ty=Tensor[(32, 1, 32, 1, 1), float32] */;
  %854 = sum(%853, axis=[1]) /* ty=Tensor[(32, 32, 1, 1), float32] */;
  %855 = zeros(shape=[1, 32, 24, 24], dtype="float32") /* ty=Tensor[(1, 32, 24, 24), float32] */;
  %856 = less(%nn_relu_156_x, %855) /* ty=Tensor[(1, 32, 24, 24), bool] */;
  %857 = nn.conv2d_transpose(%847, %param_31_train, channels=32, kernel_size=[1, 1], padding=[0, 0, 0, 0], kernel_layout="IOHW") /* ty=Tensor[(1, 32, 24, 24), float32] */;
  %858 = where(%856, %855, %857) /* ty=Tensor[(1, 32, 24, 24), float32] */;
  %859 = multiply(%858, %multiply_158_x) /* ty=Tensor[(1, 32, 24, 24), float32] */;
  %860 = multiply(%858, %param_29_train) /* ty=Tensor[(1, 32, 24, 24), float32] */;
  %861 = reshape(%nn_instance_norm_160_x, newshape=[4, 4608]) /* ty=Tensor[(4, 4608), float32] */;
  %862 = mean(%861, axis=[1], keepdims=True) /* ty=Tensor[(4, 1), float32] */;
  %863 = subtract(%861, %862) /* ty=Tensor[(4, 4608), float32] */;
  %864 = multiply(%863, %863) /* ty=Tensor[(4, 4608), float32] */;
  %865 = mean(%864, axis=[1], keepdims=True) /* ty=Tensor[(4, 1), float32] */;
  %866 = add(%865, 1e-05f /* ty=float32 */) /* ty=Tensor[(4, 1), float32] */;
  %867 = sqrt(%866) /* ty=Tensor[(4, 1), float32] */;
  %868 = divide(1f /* ty=float32 */, %867) /* ty=Tensor[(4, 1), float32] */;
  %869 = repeat(%868, repeats=1, axis=0) /* ty=Tensor[(4, 1), float32] */;
  %870 = reshape(%860, newshape=[4, 4608]) /* ty=Tensor[(4, 4608), float32] */;
  %871 = reshape(%869, newshape=[4, 1]) /* ty=Tensor[(4, 1), float32] */;
  %872 = multiply(%870, %863) /* ty=Tensor[(4, 4608), float32] */;
  %873 = sum(%872, axis=[1], keepdims=True) /* ty=Tensor[(4, 1), float32] */;
  %874 = multiply(%871, %871) /* ty=Tensor[(4, 1), float32] */;
  %875 = multiply(-0.5f /* ty=float32 */, %873) /* ty=Tensor[(4, 1), float32] */;
  %876 = multiply(%874, %871) /* ty=Tensor[(4, 1), float32] */;
  %877 = multiply(%875, %876) /* ty=Tensor[(4, 1), float32] */;
  %878 = multiply(%877, 0.000217014f /* ty=float32 */) /* ty=Tensor[(4, 1), float32] */;
  %879 = multiply(%863, %878) /* ty=Tensor[(4, 4608), float32] */;
  %880 = multiply(%870, %871) /* ty=Tensor[(4, 4608), float32] */;
  %881 = multiply(%879, 2f /* ty=float32 */) /* ty=Tensor[(4, 4608), float32] */;
  %882 = add(%880, %881) /* ty=Tensor[(4, 4608), float32] */;
  %883 = sum(%882, axis=[1], keepdims=True) /* ty=Tensor[(4, 1), float32] */;
  %884 = negative(%883) /* ty=Tensor[(4, 1), float32] */;
  %885 = multiply(%884, 0.000217014f /* ty=float32 */) /* ty=Tensor[(4, 1), float32] */;
  %886 = add(%882, %885) /* ty=Tensor[(4, 4608), float32] */;
  %887 = reshape(%886, newshape=[1, 32, 24, 24]) /* ty=Tensor[(1, 32, 24, 24), float32] */;
  %888 = tile(%887, reps=[1, 1, 1, 1]) /* ty=Tensor[(1, 32, 24, 24), float32] */;
  %889 = reshape(%nn_conv2d_162_x, newshape=[1, -1, 0, 0]) /* ty=Tensor[(1, 32, 24, 24), float32] */;
  %890 = reshape(%888, newshape=[-1, 1, 0, 0]) /* ty=Tensor[(32, 1, 24, 24), float32] */;
  %891 = nn.conv2d(%889, %890, padding=[1, 1, 1, 1], groups=32, channels=32, kernel_size=[24, 24]) /* ty=Tensor[(1, 32, 3, 3), float32] */;
  %892 = reshape(%891, newshape=[1, 1, 32, 3, 3]) /* ty=Tensor[(1, 1, 32, 3, 3), float32] */;
  %893 = sum(%892, axis=[0]) /* ty=Tensor[(1, 32, 3, 3), float32] */;
  %894 = zeros(shape=[1, 32, 24, 24], dtype="float32") /* ty=Tensor[(1, 32, 24, 24), float32] */;
  %895 = less(%nn_relu_163_x, %894) /* ty=Tensor[(1, 32, 24, 24), bool] */;
  %896 = nn.conv2d_transpose(%887, %param_26_train, channels=32, kernel_size=[3, 3], padding=[1, 1, 1, 1], groups=32, kernel_layout="IOHW") /* ty=Tensor[(1, 32, 24, 24), float32] */;
  %897 = where(%895, %894, %896) /* ty=Tensor[(1, 32, 24, 24), float32] */;
  %898 = multiply(%897, %multiply_165_x) /* ty=Tensor[(1, 32, 24, 24), float32] */;
  %899 = transpose(%nn_conv2d_169_x, axes=[1, 0, 2, 3]) /* ty=Tensor[(16, 1, 24, 24), float32] */;
  %900 = multiply(%897, %param_24_train) /* ty=Tensor[(1, 32, 24, 24), float32] */;
  %901 = reshape(%nn_instance_norm_167_x, newshape=[4, 4608]) /* ty=Tensor[(4, 4608), float32] */;
  %902 = mean(%901, axis=[1], keepdims=True) /* ty=Tensor[(4, 1), float32] */;
  %903 = subtract(%901, %902) /* ty=Tensor[(4, 4608), float32] */;
  %904 = multiply(%903, %903) /* ty=Tensor[(4, 4608), float32] */;
  %905 = mean(%904, axis=[1], keepdims=True) /* ty=Tensor[(4, 1), float32] */;
  %906 = add(%905, 1e-05f /* ty=float32 */) /* ty=Tensor[(4, 1), float32] */;
  %907 = sqrt(%906) /* ty=Tensor[(4, 1), float32] */;
  %908 = divide(1f /* ty=float32 */, %907) /* ty=Tensor[(4, 1), float32] */;
  %909 = repeat(%908, repeats=1, axis=0) /* ty=Tensor[(4, 1), float32] */;
  %910 = reshape(%900, newshape=[4, 4608]) /* ty=Tensor[(4, 4608), float32] */;
  %911 = reshape(%909, newshape=[4, 1]) /* ty=Tensor[(4, 1), float32] */;
  %912 = multiply(%910, %903) /* ty=Tensor[(4, 4608), float32] */;
  %913 = sum(%912, axis=[1], keepdims=True) /* ty=Tensor[(4, 1), float32] */;
  %914 = multiply(%911, %911) /* ty=Tensor[(4, 1), float32] */;
  %915 = multiply(-0.5f /* ty=float32 */, %913) /* ty=Tensor[(4, 1), float32] */;
  %916 = multiply(%914, %911) /* ty=Tensor[(4, 1), float32] */;
  %917 = multiply(%915, %916) /* ty=Tensor[(4, 1), float32] */;
  %918 = multiply(%917, 0.000217014f /* ty=float32 */) /* ty=Tensor[(4, 1), float32] */;
  %919 = multiply(%903, %918) /* ty=Tensor[(4, 4608), float32] */;
  %920 = multiply(%910, %911) /* ty=Tensor[(4, 4608), float32] */;
  %921 = multiply(%919, 2f /* ty=float32 */) /* ty=Tensor[(4, 4608), float32] */;
  %922 = add(%920, %921) /* ty=Tensor[(4, 4608), float32] */;
  %923 = sum(%922, axis=[1], keepdims=True) /* ty=Tensor[(4, 1), float32] */;
  %924 = negative(%923) /* ty=Tensor[(4, 1), float32] */;
  %925 = multiply(%924, 0.000217014f /* ty=float32 */) /* ty=Tensor[(4, 1), float32] */;
  %926 = add(%922, %925) /* ty=Tensor[(4, 4608), float32] */;
  %927 = reshape(%926, newshape=[1, 32, 24, 24]) /* ty=Tensor[(1, 32, 24, 24), float32] */;
  %928 = transpose(%927, axes=[1, 0, 2, 3]) /* ty=Tensor[(32, 1, 24, 24), float32] */;
  %929 = reshape(%899, newshape=[16, 1, 24, 24]) /* ty=Tensor[(16, 1, 24, 24), float32] */;
  %930 = reshape(%928, newshape=[32, 1, 24, 24]) /* ty=Tensor[(32, 1, 24, 24), float32] */;
  %931 = nn.conv2d(%929, %930, padding=[0, 0, 0, 0], channels=32, kernel_size=[24, 24]) /* ty=Tensor[(16, 32, 1, 1), float32] */;
  %932 = transpose(%931, axes=[1, 0, 2, 3]) /* ty=Tensor[(32, 16, 1, 1), float32] */;
  %933 = reshape(%932, newshape=[16, 1, 32, 1, 1]) /* ty=Tensor[(16, 1, 32, 1, 1), float32] */;
  %934 = sum(%933, axis=[1]) /* ty=Tensor[(16, 32, 1, 1), float32] */;
  %935 = zeros(shape=[1, 16, 24, 24], dtype="float32") /* ty=Tensor[(1, 16, 24, 24), float32] */;
  %936 = less(%nn_relu_170_x, %935) /* ty=Tensor[(1, 16, 24, 24), bool] */;
  %937 = nn.conv2d_transpose(%927, %param_21_train, channels=16, kernel_size=[1, 1], padding=[0, 0, 0, 0], kernel_layout="IOHW") /* ty=Tensor[(1, 16, 24, 24), float32] */;
  %938 = where(%936, %935, %937) /* ty=Tensor[(1, 16, 24, 24), float32] */;
  %939 = multiply(%938, %multiply_172_x) /* ty=Tensor[(1, 16, 24, 24), float32] */;
  %940 = multiply(%938, %param_19_train) /* ty=Tensor[(1, 16, 24, 24), float32] */;
  %941 = reshape(%nn_instance_norm_174_x, newshape=[2, 4608]) /* ty=Tensor[(2, 4608), float32] */;
  %942 = mean(%941, axis=[1], keepdims=True) /* ty=Tensor[(2, 1), float32] */;
  %943 = subtract(%941, %942) /* ty=Tensor[(2, 4608), float32] */;
  %944 = multiply(%943, %943) /* ty=Tensor[(2, 4608), float32] */;
  %945 = mean(%944, axis=[1], keepdims=True) /* ty=Tensor[(2, 1), float32] */;
  %946 = add(%945, 1e-05f /* ty=float32 */) /* ty=Tensor[(2, 1), float32] */;
  %947 = sqrt(%946) /* ty=Tensor[(2, 1), float32] */;
  %948 = divide(1f /* ty=float32 */, %947) /* ty=Tensor[(2, 1), float32] */;
  %949 = repeat(%948, repeats=1, axis=0) /* ty=Tensor[(2, 1), float32] */;
  %950 = reshape(%940, newshape=[2, 4608]) /* ty=Tensor[(2, 4608), float32] */;
  %951 = reshape(%949, newshape=[2, 1]) /* ty=Tensor[(2, 1), float32] */;
  %952 = multiply(%950, %943) /* ty=Tensor[(2, 4608), float32] */;
  %953 = sum(%952, axis=[1], keepdims=True) /* ty=Tensor[(2, 1), float32] */;
  %954 = multiply(%951, %951) /* ty=Tensor[(2, 1), float32] */;
  %955 = multiply(-0.5f /* ty=float32 */, %953) /* ty=Tensor[(2, 1), float32] */;
  %956 = multiply(%954, %951) /* ty=Tensor[(2, 1), float32] */;
  %957 = multiply(%955, %956) /* ty=Tensor[(2, 1), float32] */;
  %958 = multiply(%957, 0.000217014f /* ty=float32 */) /* ty=Tensor[(2, 1), float32] */;
  %959 = multiply(%943, %958) /* ty=Tensor[(2, 4608), float32] */;
  %960 = multiply(%950, %951) /* ty=Tensor[(2, 4608), float32] */;
  %961 = multiply(%959, 2f /* ty=float32 */) /* ty=Tensor[(2, 4608), float32] */;
  %962 = add(%960, %961) /* ty=Tensor[(2, 4608), float32] */;
  %963 = sum(%962, axis=[1], keepdims=True) /* ty=Tensor[(2, 1), float32] */;
  %964 = negative(%963) /* ty=Tensor[(2, 1), float32] */;
  %965 = multiply(%964, 0.000217014f /* ty=float32 */) /* ty=Tensor[(2, 1), float32] */;
  %966 = add(%962, %965) /* ty=Tensor[(2, 4608), float32] */;
  %967 = reshape(%966, newshape=[1, 16, 24, 24]) /* ty=Tensor[(1, 16, 24, 24), float32] */;
  %968 = tile(%967, reps=[1, 1, 1, 1]) /* ty=Tensor[(1, 16, 24, 24), float32] */;
  %969 = reshape(%nn_conv2d_176_x, newshape=[1, -1, 0, 0]) /* ty=Tensor[(1, 16, 48, 48), float32] */;
  %970 = reshape(%968, newshape=[-1, 1, 0, 0]) /* ty=Tensor[(16, 1, 24, 24), float32] */;
  %971 = nn.conv2d(%969, %970, padding=[1, 1, 1, 1], dilation=[2, 2], groups=16, channels=16, kernel_size=[24, 24]) /* ty=Tensor[(1, 16, 4, 4), float32] */;
  %972 = reshape(%971, newshape=[1, 1, 16, 4, 4]) /* ty=Tensor[(1, 1, 16, 4, 4), float32] */;
  %973 = sum(%972, axis=[0]) /* ty=Tensor[(1, 16, 4, 4), float32] */;
  %974 = transpose(%973, axes=[1, 0, 2, 3]) /* ty=Tensor[(16, 1, 4, 4), float32] */;
  %975 = zeros(shape=[1, 16, 48, 48], dtype="float32") /* ty=Tensor[(1, 16, 48, 48), float32] */;
  %976 = less(%nn_relu_177_x, %975) /* ty=Tensor[(1, 16, 48, 48), bool] */;
  %977 = nn.conv2d_transpose(%967, %param_16_train, channels=16, kernel_size=[3, 3], strides=[2, 2], output_padding=[1, 1], padding=[1, 1, 1, 1], groups=16, kernel_layout="IOHW") /* ty=Tensor[(1, 16, 48, 48), float32] */;
  %978 = where(%976, %975, %977) /* ty=Tensor[(1, 16, 48, 48), float32] */;
  %979 = multiply(%978, %multiply_179_x) /* ty=Tensor[(1, 16, 48, 48), float32] */;
  %980 = transpose(%nn_conv2d_183_x, axes=[1, 0, 2, 3]) /* ty=Tensor[(8, 1, 48, 48), float32] */;
  %981 = multiply(%978, %param_14_train) /* ty=Tensor[(1, 16, 48, 48), float32] */;
  %982 = reshape(%nn_instance_norm_181_x, newshape=[2, 18432]) /* ty=Tensor[(2, 18432), float32] */;
  %983 = mean(%982, axis=[1], keepdims=True) /* ty=Tensor[(2, 1), float32] */;
  %984 = subtract(%982, %983) /* ty=Tensor[(2, 18432), float32] */;
  %985 = multiply(%984, %984) /* ty=Tensor[(2, 18432), float32] */;
  %986 = mean(%985, axis=[1], keepdims=True) /* ty=Tensor[(2, 1), float32] */;
  %987 = add(%986, 1e-05f /* ty=float32 */) /* ty=Tensor[(2, 1), float32] */;
  %988 = sqrt(%987) /* ty=Tensor[(2, 1), float32] */;
  %989 = divide(1f /* ty=float32 */, %988) /* ty=Tensor[(2, 1), float32] */;
  %990 = repeat(%989, repeats=1, axis=0) /* ty=Tensor[(2, 1), float32] */;
  %991 = reshape(%981, newshape=[2, 18432]) /* ty=Tensor[(2, 18432), float32] */;
  %992 = reshape(%990, newshape=[2, 1]) /* ty=Tensor[(2, 1), float32] */;
  %993 = multiply(%991, %984) /* ty=Tensor[(2, 18432), float32] */;
  %994 = sum(%993, axis=[1], keepdims=True) /* ty=Tensor[(2, 1), float32] */;
  %995 = multiply(%992, %992) /* ty=Tensor[(2, 1), float32] */;
  %996 = multiply(-0.5f /* ty=float32 */, %994) /* ty=Tensor[(2, 1), float32] */;
  %997 = multiply(%995, %992) /* ty=Tensor[(2, 1), float32] */;
  %998 = multiply(%996, %997) /* ty=Tensor[(2, 1), float32] */;
  %999 = multiply(%998, 5.42535e-05f /* ty=float32 */) /* ty=Tensor[(2, 1), float32] */;
  %1000 = multiply(%984, %999) /* ty=Tensor[(2, 18432), float32] */;
  %1001 = multiply(%991, %992) /* ty=Tensor[(2, 18432), float32] */;
  %1002 = multiply(%1000, 2f /* ty=float32 */) /* ty=Tensor[(2, 18432), float32] */;
  %1003 = add(%1001, %1002) /* ty=Tensor[(2, 18432), float32] */;
  %1004 = sum(%1003, axis=[1], keepdims=True) /* ty=Tensor[(2, 1), float32] */;
  %1005 = negative(%1004) /* ty=Tensor[(2, 1), float32] */;
  %1006 = multiply(%1005, 5.42535e-05f /* ty=float32 */) /* ty=Tensor[(2, 1), float32] */;
  %1007 = add(%1003, %1006) /* ty=Tensor[(2, 18432), float32] */;
  %1008 = reshape(%1007, newshape=[1, 16, 48, 48]) /* ty=Tensor[(1, 16, 48, 48), float32] */;
  %1009 = transpose(%1008, axes=[1, 0, 2, 3]) /* ty=Tensor[(16, 1, 48, 48), float32] */;
  %1010 = reshape(%980, newshape=[8, 1, 48, 48]) /* ty=Tensor[(8, 1, 48, 48), float32] */;
  %1011 = reshape(%1009, newshape=[16, 1, 48, 48]) /* ty=Tensor[(16, 1, 48, 48), float32] */;
  %1012 = nn.conv2d(%1010, %1011, padding=[0, 0, 0, 0], channels=16, kernel_size=[48, 48]) /* ty=Tensor[(8, 16, 1, 1), float32] */;
  %1013 = transpose(%1012, axes=[1, 0, 2, 3]) /* ty=Tensor[(16, 8, 1, 1), float32] */;
  %1014 = reshape(%1013, newshape=[8, 1, 16, 1, 1]) /* ty=Tensor[(8, 1, 16, 1, 1), float32] */;
  %1015 = sum(%1014, axis=[1]) /* ty=Tensor[(8, 16, 1, 1), float32] */;
  %1016 = zeros(shape=[1, 8, 48, 48], dtype="float32") /* ty=Tensor[(1, 8, 48, 48), float32] */;
  %1017 = less(%nn_relu_184_x, %1016) /* ty=Tensor[(1, 8, 48, 48), bool] */;
  %1018 = nn.conv2d_transpose(%1008, %param_11_train, channels=8, kernel_size=[1, 1], padding=[0, 0, 0, 0], kernel_layout="IOHW") /* ty=Tensor[(1, 8, 48, 48), float32] */;
  %1019 = where(%1017, %1016, %1018) /* ty=Tensor[(1, 8, 48, 48), float32] */;
  %1020 = multiply(%1019, %multiply_186_x) /* ty=Tensor[(1, 8, 48, 48), float32] */;
  %1021 = multiply(%1019, %param_9_train) /* ty=Tensor[(1, 8, 48, 48), float32] */;
  %1022 = reshape(%nn_instance_norm_188_x, newshape=[1, 18432]) /* ty=Tensor[(1, 18432), float32] */;
  %1023 = mean(%1022, axis=[1], keepdims=True) /* ty=Tensor[(1, 1), float32] */;
  %1024 = subtract(%1022, %1023) /* ty=Tensor[(1, 18432), float32] */;
  %1025 = multiply(%1024, %1024) /* ty=Tensor[(1, 18432), float32] */;
  %1026 = mean(%1025, axis=[1], keepdims=True) /* ty=Tensor[(1, 1), float32] */;
  %1027 = add(%1026, 1e-05f /* ty=float32 */) /* ty=Tensor[(1, 1), float32] */;
  %1028 = sqrt(%1027) /* ty=Tensor[(1, 1), float32] */;
  %1029 = divide(1f /* ty=float32 */, %1028) /* ty=Tensor[(1, 1), float32] */;
  %1030 = repeat(%1029, repeats=1, axis=0) /* ty=Tensor[(1, 1), float32] */;
  %1031 = reshape(%1021, newshape=[1, 18432]) /* ty=Tensor[(1, 18432), float32] */;
  %1032 = reshape(%1030, newshape=[1, 1]) /* ty=Tensor[(1, 1), float32] */;
  %1033 = multiply(%1031, %1024) /* ty=Tensor[(1, 18432), float32] */;
  %1034 = sum(%1033, axis=[1], keepdims=True) /* ty=Tensor[(1, 1), float32] */;
  %1035 = multiply(%1032, %1032) /* ty=Tensor[(1, 1), float32] */;
  %1036 = multiply(-0.5f /* ty=float32 */, %1034) /* ty=Tensor[(1, 1), float32] */;
  %1037 = multiply(%1035, %1032) /* ty=Tensor[(1, 1), float32] */;
  %1038 = multiply(%1036, %1037) /* ty=Tensor[(1, 1), float32] */;
  %1039 = multiply(%1038, 5.42535e-05f /* ty=float32 */) /* ty=Tensor[(1, 1), float32] */;
  %1040 = multiply(%1024, %1039) /* ty=Tensor[(1, 18432), float32] */;
  %1041 = multiply(%1031, %1032) /* ty=Tensor[(1, 18432), float32] */;
  %1042 = multiply(%1040, 2f /* ty=float32 */) /* ty=Tensor[(1, 18432), float32] */;
  %1043 = add(%1041, %1042) /* ty=Tensor[(1, 18432), float32] */;
  %1044 = sum(%1043, axis=[1], keepdims=True) /* ty=Tensor[(1, 1), float32] */;
  %1045 = negative(%1044) /* ty=Tensor[(1, 1), float32] */;
  %1046 = multiply(%1045, 5.42535e-05f /* ty=float32 */) /* ty=Tensor[(1, 1), float32] */;
  %1047 = add(%1043, %1046) /* ty=Tensor[(1, 18432), float32] */;
  %1048 = reshape(%1047, newshape=[1, 8, 48, 48]) /* ty=Tensor[(1, 8, 48, 48), float32] */;
  %1049 = tile(%1048, reps=[1, 1, 1, 1]) /* ty=Tensor[(1, 8, 48, 48), float32] */;
  %1050 = reshape(%nn_conv2d_190_x, newshape=[1, -1, 0, 0]) /* ty=Tensor[(1, 8, 48, 48), float32] */;
  %1051 = reshape(%1049, newshape=[-1, 1, 0, 0]) /* ty=Tensor[(8, 1, 48, 48), float32] */;
  %1052 = nn.conv2d(%1050, %1051, padding=[1, 1, 1, 1], groups=8, channels=8, kernel_size=[48, 48]) /* ty=Tensor[(1, 8, 3, 3), float32] */;
  %1053 = reshape(%1052, newshape=[1, 1, 8, 3, 3]) /* ty=Tensor[(1, 1, 8, 3, 3), float32] */;
  %1054 = sum(%1053, axis=[0]) /* ty=Tensor[(1, 8, 3, 3), float32] */;
  %1055 = zeros(shape=[1, 8, 48, 48], dtype="float32") /* ty=Tensor[(1, 8, 48, 48), float32] */;
  %1056 = less(%nn_relu_191_x, %1055) /* ty=Tensor[(1, 8, 48, 48), bool] */;
  %1057 = nn.conv2d_transpose(%1048, %param_6_train, channels=8, kernel_size=[3, 3], padding=[1, 1, 1, 1], groups=8, kernel_layout="IOHW") /* ty=Tensor[(1, 8, 48, 48), float32] */;
  %1058 = where(%1056, %1055, %1057) /* ty=Tensor[(1, 8, 48, 48), float32] */;
  %1059 = multiply(%1058, %multiply_193_x) /* ty=Tensor[(1, 8, 48, 48), float32] */;
  %1060 = transpose(%nn_conv2d_197_x, axes=[1, 0, 2, 3]) /* ty=Tensor[(3, 1, 96, 96), float32] */;
  %1061 = multiply(%1058, %param_4_train) /* ty=Tensor[(1, 8, 48, 48), float32] */;
  %1062 = reshape(%nn_instance_norm_195_x, newshape=[1, 18432]) /* ty=Tensor[(1, 18432), float32] */;
  %1063 = mean(%1062, axis=[1], keepdims=True) /* ty=Tensor[(1, 1), float32] */;
  %1064 = subtract(%1062, %1063) /* ty=Tensor[(1, 18432), float32] */;
  %1065 = multiply(%1064, %1064) /* ty=Tensor[(1, 18432), float32] */;
  %1066 = mean(%1065, axis=[1], keepdims=True) /* ty=Tensor[(1, 1), float32] */;
  %1067 = add(%1066, 1e-05f /* ty=float32 */) /* ty=Tensor[(1, 1), float32] */;
  %1068 = sqrt(%1067) /* ty=Tensor[(1, 1), float32] */;
  %1069 = divide(1f /* ty=float32 */, %1068) /* ty=Tensor[(1, 1), float32] */;
  %1070 = repeat(%1069, repeats=1, axis=0) /* ty=Tensor[(1, 1), float32] */;
  %1071 = reshape(%1061, newshape=[1, 18432]) /* ty=Tensor[(1, 18432), float32] */;
  %1072 = reshape(%1070, newshape=[1, 1]) /* ty=Tensor[(1, 1), float32] */;
  %1073 = multiply(%1071, %1064) /* ty=Tensor[(1, 18432), float32] */;
  %1074 = sum(%1073, axis=[1], keepdims=True) /* ty=Tensor[(1, 1), float32] */;
  %1075 = multiply(%1072, %1072) /* ty=Tensor[(1, 1), float32] */;
  %1076 = multiply(-0.5f /* ty=float32 */, %1074) /* ty=Tensor[(1, 1), float32] */;
  %1077 = multiply(%1075, %1072) /* ty=Tensor[(1, 1), float32] */;
  %1078 = multiply(%1076, %1077) /* ty=Tensor[(1, 1), float32] */;
  %1079 = multiply(%1078, 5.42535e-05f /* ty=float32 */) /* ty=Tensor[(1, 1), float32] */;
  %1080 = multiply(%1064, %1079) /* ty=Tensor[(1, 18432), float32] */;
  %1081 = multiply(%1071, %1072) /* ty=Tensor[(1, 18432), float32] */;
  %1082 = multiply(%1080, 2f /* ty=float32 */) /* ty=Tensor[(1, 18432), float32] */;
  %1083 = add(%1081, %1082) /* ty=Tensor[(1, 18432), float32] */;
  %1084 = sum(%1083, axis=[1], keepdims=True) /* ty=Tensor[(1, 1), float32] */;
  %1085 = negative(%1084) /* ty=Tensor[(1, 1), float32] */;
  %1086 = multiply(%1085, 5.42535e-05f /* ty=float32 */) /* ty=Tensor[(1, 1), float32] */;
  %1087 = add(%1083, %1086) /* ty=Tensor[(1, 18432), float32] */;
  %1088 = reshape(%1087, newshape=[1, 8, 48, 48]) /* ty=Tensor[(1, 8, 48, 48), float32] */;
  %1089 = transpose(%1088, axes=[1, 0, 2, 3]) /* ty=Tensor[(8, 1, 48, 48), float32] */;
  %1090 = reshape(%1060, newshape=[3, 1, 96, 96]) /* ty=Tensor[(3, 1, 96, 96), float32] */;
  %1091 = reshape(%1089, newshape=[8, 1, 48, 48]) /* ty=Tensor[(8, 1, 48, 48), float32] */;
  %1092 = nn.conv2d(%1090, %1091, padding=[1, 1, 1, 1], dilation=[2, 2], channels=8, kernel_size=[48, 48]) /* ty=Tensor[(3, 8, 4, 4), float32] */;
  %1093 = reshape(%1092, newshape=[1, 3, 8, 4, 4]) /* ty=Tensor[(1, 3, 8, 4, 4), float32] */;
  %1094 = sum(%1093, axis=[0]) /* ty=Tensor[(3, 8, 4, 4), float32] */;
  %1095 = transpose(%1094, axes=[1, 0, 2, 3]) /* ty=Tensor[(8, 3, 4, 4), float32] */;
  %1096 = nn.matmul(%7, %nn_dense_5_x, units=None) /* ty=Tensor[(2, 256), float32] */;
  %1097 = sum(%14, axis=[2, 3], keepdims=True) /* ty=Tensor[(1, 256, 1, 1), float32] */;
  %1098 = sum(%15, axis=[2, 3], keepdims=True) /* ty=Tensor[(1, 256, 1, 1), float32] */;
  %1099 = zeros(shape=[32, 1], dtype="float32") /* ty=Tensor[(32, 1), float32] */;
  %1100 = zeros(shape=[32, 1], dtype="float32") /* ty=Tensor[(32, 1), float32] */;
  %1101 = reshape(%51, newshape=[256, 256, 1, 1]) /* ty=Tensor[(256, 256, 1, 1), float32] */;
  %1102 = sum(%55, axis=[2, 3], keepdims=True) /* ty=Tensor[(1, 256, 1, 1), float32] */;
  %1103 = sum(%56, axis=[2, 3], keepdims=True) /* ty=Tensor[(1, 256, 1, 1), float32] */;
  %1104 = zeros(shape=[32, 1], dtype="float32") /* ty=Tensor[(32, 1), float32] */;
  %1105 = zeros(shape=[32, 1], dtype="float32") /* ty=Tensor[(32, 1), float32] */;
  %1106 = transpose(%90, axes=[1, 0, 2, 3]) /* ty=Tensor[(256, 1, 3, 3), float32] */;
  %1107 = sum(%94, axis=[2, 3], keepdims=True) /* ty=Tensor[(1, 256, 1, 1), float32] */;
  %1108 = sum(%95, axis=[2, 3], keepdims=True) /* ty=Tensor[(1, 256, 1, 1), float32] */;
  %1109 = zeros(shape=[32, 1], dtype="float32") /* ty=Tensor[(32, 1), float32] */;
  %1110 = zeros(shape=[32, 1], dtype="float32") /* ty=Tensor[(32, 1), float32] */;
  %1111 = reshape(%131, newshape=[256, 128, 1, 1]) /* ty=Tensor[(256, 128, 1, 1), float32] */;
  %1112 = sum(%135, axis=[2, 3], keepdims=True) /* ty=Tensor[(1, 128, 1, 1), float32] */;
  %1113 = sum(%136, axis=[2, 3], keepdims=True) /* ty=Tensor[(1, 128, 1, 1), float32] */;
  %1114 = zeros(shape=[16, 1], dtype="float32") /* ty=Tensor[(16, 1), float32] */;
  %1115 = zeros(shape=[16, 1], dtype="float32") /* ty=Tensor[(16, 1), float32] */;
  %1116 = strided_slice(%171, begin=[0, 0, 0, 0], end=[128, 1, 3, 3], strides=[1], axes=None) /* ty=Tensor[(128, 1, 3, 3), float32] */;
  %1117 = sum(%175, axis=[2, 3], keepdims=True) /* ty=Tensor[(1, 128, 1, 1), float32] */;
  %1118 = sum(%176, axis=[2, 3], keepdims=True) /* ty=Tensor[(1, 128, 1, 1), float32] */;
  %1119 = zeros(shape=[16, 1], dtype="float32") /* ty=Tensor[(16, 1), float32] */;
  %1120 = zeros(shape=[16, 1], dtype="float32") /* ty=Tensor[(16, 1), float32] */;
  %1121 = reshape(%212, newshape=[128, 128, 1, 1]) /* ty=Tensor[(128, 128, 1, 1), float32] */;
  %1122 = sum(%216, axis=[2, 3], keepdims=True) /* ty=Tensor[(1, 128, 1, 1), float32] */;
  %1123 = sum(%217, axis=[2, 3], keepdims=True) /* ty=Tensor[(1, 128, 1, 1), float32] */;
  %1124 = zeros(shape=[16, 1], dtype="float32") /* ty=Tensor[(16, 1), float32] */;
  %1125 = zeros(shape=[16, 1], dtype="float32") /* ty=Tensor[(16, 1), float32] */;
  %1126 = transpose(%251, axes=[1, 0, 2, 3]) /* ty=Tensor[(128, 1, 3, 3), float32] */;
  %1127 = sum(%255, axis=[2, 3], keepdims=True) /* ty=Tensor[(1, 128, 1, 1), float32] */;
  %1128 = sum(%256, axis=[2, 3], keepdims=True) /* ty=Tensor[(1, 128, 1, 1), float32] */;
  %1129 = zeros(shape=[16, 1], dtype="float32") /* ty=Tensor[(16, 1), float32] */;
  %1130 = zeros(shape=[16, 1], dtype="float32") /* ty=Tensor[(16, 1), float32] */;
  %1131 = reshape(%292, newshape=[128, 128, 1, 1]) /* ty=Tensor[(128, 128, 1, 1), float32] */;
  %1132 = sum(%296, axis=[2, 3], keepdims=True) /* ty=Tensor[(1, 128, 1, 1), float32] */;
  %1133 = sum(%297, axis=[2, 3], keepdims=True) /* ty=Tensor[(1, 128, 1, 1), float32] */;
  %1134 = zeros(shape=[16, 1], dtype="float32") /* ty=Tensor[(16, 1), float32] */;
  %1135 = zeros(shape=[16, 1], dtype="float32") /* ty=Tensor[(16, 1), float32] */;
  %1136 = transpose(%331, axes=[1, 0, 2, 3]) /* ty=Tensor[(128, 1, 3, 3), float32] */;
  %1137 = sum(%335, axis=[2, 3], keepdims=True) /* ty=Tensor[(1, 128, 1, 1), float32] */;
  %1138 = sum(%336, axis=[2, 3], keepdims=True) /* ty=Tensor[(1, 128, 1, 1), float32] */;
  %1139 = zeros(shape=[16, 1], dtype="float32") /* ty=Tensor[(16, 1), float32] */;
  %1140 = zeros(shape=[16, 1], dtype="float32") /* ty=Tensor[(16, 1), float32] */;
  %1141 = reshape(%372, newshape=[128, 128, 1, 1]) /* ty=Tensor[(128, 128, 1, 1), float32] */;
  %1142 = sum(%376, axis=[2, 3], keepdims=True) /* ty=Tensor[(1, 128, 1, 1), float32] */;
  %1143 = sum(%377, axis=[2, 3], keepdims=True) /* ty=Tensor[(1, 128, 1, 1), float32] */;
  %1144 = zeros(shape=[16, 1], dtype="float32") /* ty=Tensor[(16, 1), float32] */;
  %1145 = zeros(shape=[16, 1], dtype="float32") /* ty=Tensor[(16, 1), float32] */;
  %1146 = transpose(%411, axes=[1, 0, 2, 3]) /* ty=Tensor[(128, 1, 3, 3), float32] */;
  %1147 = sum(%415, axis=[2, 3], keepdims=True) /* ty=Tensor[(1, 128, 1, 1), float32] */;
  %1148 = sum(%416, axis=[2, 3], keepdims=True) /* ty=Tensor[(1, 128, 1, 1), float32] */;
  %1149 = zeros(shape=[16, 1], dtype="float32") /* ty=Tensor[(16, 1), float32] */;
  %1150 = zeros(shape=[16, 1], dtype="float32") /* ty=Tensor[(16, 1), float32] */;
  %1151 = reshape(%452, newshape=[128, 128, 1, 1]) /* ty=Tensor[(128, 128, 1, 1), float32] */;
  %1152 = sum(%456, axis=[2, 3], keepdims=True) /* ty=Tensor[(1, 128, 1, 1), float32] */;
  %1153 = sum(%457, axis=[2, 3], keepdims=True) /* ty=Tensor[(1, 128, 1, 1), float32] */;
  %1154 = zeros(shape=[16, 1], dtype="float32") /* ty=Tensor[(16, 1), float32] */;
  %1155 = zeros(shape=[16, 1], dtype="float32") /* ty=Tensor[(16, 1), float32] */;
  %1156 = transpose(%491, axes=[1, 0, 2, 3]) /* ty=Tensor[(128, 1, 3, 3), float32] */;
  %1157 = sum(%495, axis=[2, 3], keepdims=True) /* ty=Tensor[(1, 128, 1, 1), float32] */;
  %1158 = sum(%496, axis=[2, 3], keepdims=True) /* ty=Tensor[(1, 128, 1, 1), float32] */;
  %1159 = zeros(shape=[16, 1], dtype="float32") /* ty=Tensor[(16, 1), float32] */;
  %1160 = zeros(shape=[16, 1], dtype="float32") /* ty=Tensor[(16, 1), float32] */;
  %1161 = reshape(%532, newshape=[128, 128, 1, 1]) /* ty=Tensor[(128, 128, 1, 1), float32] */;
  %1162 = sum(%536, axis=[2, 3], keepdims=True) /* ty=Tensor[(1, 128, 1, 1), float32] */;
  %1163 = sum(%537, axis=[2, 3], keepdims=True) /* ty=Tensor[(1, 128, 1, 1), float32] */;
  %1164 = zeros(shape=[16, 1], dtype="float32") /* ty=Tensor[(16, 1), float32] */;
  %1165 = zeros(shape=[16, 1], dtype="float32") /* ty=Tensor[(16, 1), float32] */;
  %1166 = transpose(%571, axes=[1, 0, 2, 3]) /* ty=Tensor[(128, 1, 3, 3), float32] */;
  %1167 = sum(%575, axis=[2, 3], keepdims=True) /* ty=Tensor[(1, 128, 1, 1), float32] */;
  %1168 = sum(%576, axis=[2, 3], keepdims=True) /* ty=Tensor[(1, 128, 1, 1), float32] */;
  %1169 = zeros(shape=[16, 1], dtype="float32") /* ty=Tensor[(16, 1), float32] */;
  %1170 = zeros(shape=[16, 1], dtype="float32") /* ty=Tensor[(16, 1), float32] */;
  %1171 = reshape(%612, newshape=[128, 64, 1, 1]) /* ty=Tensor[(128, 64, 1, 1), float32] */;
  %1172 = sum(%616, axis=[2, 3], keepdims=True) /* ty=Tensor[(1, 64, 1, 1), float32] */;
  %1173 = sum(%617, axis=[2, 3], keepdims=True) /* ty=Tensor[(1, 64, 1, 1), float32] */;
  %1174 = zeros(shape=[8, 1], dtype="float32") /* ty=Tensor[(8, 1), float32] */;
  %1175 = zeros(shape=[8, 1], dtype="float32") /* ty=Tensor[(8, 1), float32] */;
  %1176 = strided_slice(%652, begin=[0, 0, 0, 0], end=[64, 1, 3, 3], strides=[1], axes=None) /* ty=Tensor[(64, 1, 3, 3), float32] */;
  %1177 = sum(%656, axis=[2, 3], keepdims=True) /* ty=Tensor[(1, 64, 1, 1), float32] */;
  %1178 = sum(%657, axis=[2, 3], keepdims=True) /* ty=Tensor[(1, 64, 1, 1), float32] */;
  %1179 = zeros(shape=[8, 1], dtype="float32") /* ty=Tensor[(8, 1), float32] */;
  %1180 = zeros(shape=[8, 1], dtype="float32") /* ty=Tensor[(8, 1), float32] */;
  %1181 = reshape(%693, newshape=[64, 64, 1, 1]) /* ty=Tensor[(64, 64, 1, 1), float32] */;
  %1182 = sum(%697, axis=[2, 3], keepdims=True) /* ty=Tensor[(1, 64, 1, 1), float32] */;
  %1183 = sum(%698, axis=[2, 3], keepdims=True) /* ty=Tensor[(1, 64, 1, 1), float32] */;
  %1184 = zeros(shape=[8, 1], dtype="float32") /* ty=Tensor[(8, 1), float32] */;
  %1185 = zeros(shape=[8, 1], dtype="float32") /* ty=Tensor[(8, 1), float32] */;
  %1186 = transpose(%732, axes=[1, 0, 2, 3]) /* ty=Tensor[(64, 1, 3, 3), float32] */;
  %1187 = sum(%736, axis=[2, 3], keepdims=True) /* ty=Tensor[(1, 64, 1, 1), float32] */;
  %1188 = sum(%737, axis=[2, 3], keepdims=True) /* ty=Tensor[(1, 64, 1, 1), float32] */;
  %1189 = zeros(shape=[8, 1], dtype="float32") /* ty=Tensor[(8, 1), float32] */;
  %1190 = zeros(shape=[8, 1], dtype="float32") /* ty=Tensor[(8, 1), float32] */;
  %1191 = reshape(%773, newshape=[64, 32, 1, 1]) /* ty=Tensor[(64, 32, 1, 1), float32] */;
  %1192 = sum(%777, axis=[2, 3], keepdims=True) /* ty=Tensor[(1, 32, 1, 1), float32] */;
  %1193 = sum(%778, axis=[2, 3], keepdims=True) /* ty=Tensor[(1, 32, 1, 1), float32] */;
  %1194 = zeros(shape=[4, 1], dtype="float32") /* ty=Tensor[(4, 1), float32] */;
  %1195 = zeros(shape=[4, 1], dtype="float32") /* ty=Tensor[(4, 1), float32] */;
  %1196 = strided_slice(%813, begin=[0, 0, 0, 0], end=[32, 1, 3, 3], strides=[1], axes=None) /* ty=Tensor[(32, 1, 3, 3), float32] */;
  %1197 = sum(%817, axis=[2, 3], keepdims=True) /* ty=Tensor[(1, 32, 1, 1), float32] */;
  %1198 = sum(%818, axis=[2, 3], keepdims=True) /* ty=Tensor[(1, 32, 1, 1), float32] */;
  %1199 = zeros(shape=[4, 1], dtype="float32") /* ty=Tensor[(4, 1), float32] */;
  %1200 = zeros(shape=[4, 1], dtype="float32") /* ty=Tensor[(4, 1), float32] */;
  %1201 = reshape(%854, newshape=[32, 32, 1, 1]) /* ty=Tensor[(32, 32, 1, 1), float32] */;
  %1202 = sum(%858, axis=[2, 3], keepdims=True) /* ty=Tensor[(1, 32, 1, 1), float32] */;
  %1203 = sum(%859, axis=[2, 3], keepdims=True) /* ty=Tensor[(1, 32, 1, 1), float32] */;
  %1204 = zeros(shape=[4, 1], dtype="float32") /* ty=Tensor[(4, 1), float32] */;
  %1205 = zeros(shape=[4, 1], dtype="float32") /* ty=Tensor[(4, 1), float32] */;
  %1206 = transpose(%893, axes=[1, 0, 2, 3]) /* ty=Tensor[(32, 1, 3, 3), float32] */;
  %1207 = sum(%897, axis=[2, 3], keepdims=True) /* ty=Tensor[(1, 32, 1, 1), float32] */;
  %1208 = sum(%898, axis=[2, 3], keepdims=True) /* ty=Tensor[(1, 32, 1, 1), float32] */;
  %1209 = zeros(shape=[4, 1], dtype="float32") /* ty=Tensor[(4, 1), float32] */;
  %1210 = zeros(shape=[4, 1], dtype="float32") /* ty=Tensor[(4, 1), float32] */;
  %1211 = reshape(%934, newshape=[32, 16, 1, 1]) /* ty=Tensor[(32, 16, 1, 1), float32] */;
  %1212 = sum(%938, axis=[2, 3], keepdims=True) /* ty=Tensor[(1, 16, 1, 1), float32] */;
  %1213 = sum(%939, axis=[2, 3], keepdims=True) /* ty=Tensor[(1, 16, 1, 1), float32] */;
  %1214 = zeros(shape=[2, 1], dtype="float32") /* ty=Tensor[(2, 1), float32] */;
  %1215 = zeros(shape=[2, 1], dtype="float32") /* ty=Tensor[(2, 1), float32] */;
  %1216 = strided_slice(%974, begin=[0, 0, 0, 0], end=[16, 1, 3, 3], strides=[1], axes=None) /* ty=Tensor[(16, 1, 3, 3), float32] */;
  %1217 = sum(%978, axis=[2, 3], keepdims=True) /* ty=Tensor[(1, 16, 1, 1), float32] */;
  %1218 = sum(%979, axis=[2, 3], keepdims=True) /* ty=Tensor[(1, 16, 1, 1), float32] */;
  %1219 = zeros(shape=[2, 1], dtype="float32") /* ty=Tensor[(2, 1), float32] */;
  %1220 = zeros(shape=[2, 1], dtype="float32") /* ty=Tensor[(2, 1), float32] */;
  %1221 = reshape(%1015, newshape=[16, 8, 1, 1]) /* ty=Tensor[(16, 8, 1, 1), float32] */;
  %1222 = sum(%1019, axis=[2, 3], keepdims=True) /* ty=Tensor[(1, 8, 1, 1), float32] */;
  %1223 = sum(%1020, axis=[2, 3], keepdims=True) /* ty=Tensor[(1, 8, 1, 1), float32] */;
  %1224 = zeros(shape=[1, 1], dtype="float32") /* ty=Tensor[(1, 1), float32] */;
  %1225 = zeros(shape=[1, 1], dtype="float32") /* ty=Tensor[(1, 1), float32] */;
  %1226 = transpose(%1054, axes=[1, 0, 2, 3]) /* ty=Tensor[(8, 1, 3, 3), float32] */;
  %1227 = sum(%1058, axis=[2, 3], keepdims=True) /* ty=Tensor[(1, 8, 1, 1), float32] */;
  %1228 = sum(%1059, axis=[2, 3], keepdims=True) /* ty=Tensor[(1, 8, 1, 1), float32] */;
  %1229 = zeros(shape=[1, 1], dtype="float32") /* ty=Tensor[(1, 1), float32] */;
  %1230 = zeros(shape=[1, 1], dtype="float32") /* ty=Tensor[(1, 1), float32] */;
  %1231 = strided_slice(%1095, begin=[0, 0, 0, 0], end=[8, 3, 3, 3], strides=[1], axes=None) /* ty=Tensor[(8, 3, 3, 3), float32] */;
  (%6, %1096, %1097, %1098, %1099, %1100, %1101, %1102, %1103, %1104, %1105, %1106, %1107, %1108, %1109, %1110, %1111, %1112, %1113, %1114, %1115, %1116, %1117, %1118, %1119, %1120, %1121, %1122, %1123, %1124, %1125, %1126, %1127, %1128, %1129, %1130, %1131, %1132, %1133, %1134, %1135, %1136, %1137, %1138, %1139, %1140, %1141, %1142, %1143, %1144, %1145, %1146, %1147, %1148, %1149, %1150, %1151, %1152, %1153, %1154, %1155, %1156, %1157, %1158, %1159, %1160, %1161, %1162, %1163, %1164, %1165, %1166, %1167, %1168, %1169, %1170, %1171, %1172, %1173, %1174, %1175, %1176, %1177, %1178, %1179, %1180, %1181, %1182, %1183, %1184, %1185, %1186, %1187, %1188, %1189, %1190, %1191, %1192, %1193, %1194, %1195, %1196, %1197, %1198, %1199, %1200, %1201, %1202, %1203, %1204, %1205, %1206, %1207, %1208, %1209, %1210, %1211, %1212, %1213, %1214, %1215, %1216, %1217, %1218, %1219, %1220, %1221, %1222, %1223, %1224, %1225, %1226, %1227, %1228, %1229, %1230, %1231)
}
