def @main(%data_0: Tensor[(1, 3, 96, 96), float32], %param_1_train: Tensor[(8, 3, 3, 3), float32], %param_2_train: Tensor[(1), float32], %param_3_train: Tensor[(1), float32], %param_4_train: Tensor[(8, 1, 1), float32], %param_5_train: Tensor[(8, 1, 1), float32], %param_6_train: Tensor[(8, 1, 3, 3), float32], %param_7_train: Tensor[(1), float32], %param_8_train: Tensor[(1), float32], %param_9_train: Tensor[(8, 1, 1), float32], %param_10_train: Tensor[(8, 1, 1), float32], %param_11_train: Tensor[(16, 8, 1, 1), float32], %param_12_train: Tensor[(2), float32], %param_13_train: Tensor[(2), float32], %param_14_train: Tensor[(16, 1, 1), float32], %param_15_train: Tensor[(16, 1, 1), float32], %param_16_train: Tensor[(16, 1, 3, 3), float32], %param_17_train: Tensor[(2), float32], %param_18_train: Tensor[(2), float32], %param_19_train: Tensor[(16, 1, 1), float32], %param_20_train: Tensor[(16, 1, 1), float32], %param_21_train: Tensor[(32, 16, 1, 1), float32], %param_22_train: Tensor[(4), float32], %param_23_train: Tensor[(4), float32], %param_24_train: Tensor[(32, 1, 1), float32], %param_25_train: Tensor[(32, 1, 1), float32], %param_26_train: Tensor[(32, 1, 3, 3), float32], %param_27_train: Tensor[(4), float32], %param_28_train: Tensor[(4), float32], %param_29_train: Tensor[(32, 1, 1), float32], %param_30_train: Tensor[(32, 1, 1), float32], %param_31_train: Tensor[(32, 32, 1, 1), float32], %param_32_train: Tensor[(4), float32], %param_33_train: Tensor[(4), float32], %param_34_train: Tensor[(32, 1, 1), float32], %param_35_train: Tensor[(32, 1, 1), float32], %param_36_train: Tensor[(32, 1, 3, 3), float32], %param_37_train: Tensor[(4), float32], %param_38_train: Tensor[(4), float32], %param_39_train: Tensor[(32, 1, 1), float32], %param_40_train: Tensor[(32, 1, 1), float32], %param_41_train: Tensor[(64, 32, 1, 1), float32], %param_42_train: Tensor[(8), float32], %param_43_train: Tensor[(8), float32], %param_44_train: Tensor[(64, 1, 1), float32], %param_45_train: Tensor[(64, 1, 1), float32], %param_46_train: Tensor[(64, 1, 3, 3), float32], %param_47_train: Tensor[(8), float32], %param_48_train: Tensor[(8), float32], %param_49_train: Tensor[(64, 1, 1), float32], %param_50_train: Tensor[(64, 1, 1), float32], %param_51_train: Tensor[(64, 64, 1, 1), float32], %param_52_train: Tensor[(8), float32], %param_53_train: Tensor[(8), float32], %param_54_train: Tensor[(64, 1, 1), float32], %param_55_train: Tensor[(64, 1, 1), float32], %param_56_train: Tensor[(64, 1, 3, 3), float32], %param_57_train: Tensor[(8), float32], %param_58_train: Tensor[(8), float32], %param_59_train: Tensor[(64, 1, 1), float32], %param_60_train: Tensor[(64, 1, 1), float32], %param_61_train: Tensor[(128, 64, 1, 1), float32], %param_62_train: Tensor[(16), float32], %param_63_train: Tensor[(16), float32], %param_64_train: Tensor[(128, 1, 1), float32], %param_65_train: Tensor[(128, 1, 1), float32], %param_66_train: Tensor[(128, 1, 3, 3), float32], %param_67_train: Tensor[(16), float32], %param_68_train: Tensor[(16), float32], %param_69_train: Tensor[(128, 1, 1), float32], %param_70_train: Tensor[(128, 1, 1), float32], %param_71_train: Tensor[(128, 128, 1, 1), float32], %param_72_train: Tensor[(16), float32], %param_73_train: Tensor[(16), float32], %param_74_train: Tensor[(128, 1, 1), float32], %param_75_train: Tensor[(128, 1, 1), float32], %param_76_train: Tensor[(128, 1, 3, 3), float32], %param_77_train: Tensor[(16), float32], %param_78_train: Tensor[(16), float32], %param_79_train: Tensor[(128, 1, 1), float32], %param_80_train: Tensor[(128, 1, 1), float32], %param_81_train: Tensor[(128, 128, 1, 1), float32], %param_82_train: Tensor[(16), float32], %param_83_train: Tensor[(16), float32], %param_84_train: Tensor[(128, 1, 1), float32], %param_85_train: Tensor[(128, 1, 1), float32], %param_86_train: Tensor[(128, 1, 3, 3), float32], %param_87_train: Tensor[(16), float32], %param_88_train: Tensor[(16), float32], %param_89_train: Tensor[(128, 1, 1), float32], %param_90_train: Tensor[(128, 1, 1), float32], %param_91_train: Tensor[(128, 128, 1, 1), float32], %param_92_train: Tensor[(16), float32], %param_93_train: Tensor[(16), float32], %param_94_train: Tensor[(128, 1, 1), float32], %param_95_train: Tensor[(128, 1, 1), float32], %param_96_train: Tensor[(128, 1, 3, 3), float32], %param_97_train: Tensor[(16), float32], %param_98_train: Tensor[(16), float32], %param_99_train: Tensor[(128, 1, 1), float32], %param_100_train: Tensor[(128, 1, 1), float32], %param_101_train: Tensor[(128, 128, 1, 1), float32], %param_102_train: Tensor[(16), float32], %param_103_train: Tensor[(16), float32], %param_104_train: Tensor[(128, 1, 1), float32], %param_105_train: Tensor[(128, 1, 1), float32], %param_106_train: Tensor[(128, 1, 3, 3), float32], %param_107_train: Tensor[(16), float32], %param_108_train: Tensor[(16), float32], %param_109_train: Tensor[(128, 1, 1), float32], %param_110_train: Tensor[(128, 1, 1), float32], %param_111_train: Tensor[(128, 128, 1, 1), float32], %param_112_train: Tensor[(16), float32], %param_113_train: Tensor[(16), float32], %param_114_train: Tensor[(128, 1, 1), float32], %param_115_train: Tensor[(128, 1, 1), float32], %param_116_train: Tensor[(128, 1, 3, 3), float32], %param_117_train: Tensor[(16), float32], %param_118_train: Tensor[(16), float32], %param_119_train: Tensor[(128, 1, 1), float32], %param_120_train: Tensor[(128, 1, 1), float32], %param_121_train: Tensor[(256, 128, 1, 1), float32], %param_122_train: Tensor[(32), float32], %param_123_train: Tensor[(32), float32], %param_124_train: Tensor[(256, 1, 1), float32], %param_125_train: Tensor[(256, 1, 1), float32], %param_126_train: Tensor[(256, 1, 3, 3), float32], %param_127_train: Tensor[(32), float32], %param_128_train: Tensor[(32), float32], %param_129_train: Tensor[(256, 1, 1), float32], %param_130_train: Tensor[(256, 1, 1), float32], %param_131_train: Tensor[(256, 256, 1, 1), float32], %param_132_train: Tensor[(32), float32], %param_133_train: Tensor[(32), float32], %param_134_train: Tensor[(256, 1, 1), float32], %param_135_train: Tensor[(256, 1, 1), float32], %param_136_train: Tensor[(2, 256), float32], %param_137_train: Tensor[(2), float32], %label: Tensor[(1, 2), float32]) -> (float32, Tensor[(1, 2), float32], Tensor[(1, 2), float32], Tensor[(1, 256), float32], Tensor[(1, 256, 1, 1), float32], Tensor[(1, 256, 3, 3), float32], Tensor[(1, 256, 3, 3), float32], Tensor[(1, 256, 3, 3), float32], Tensor[(1, 32, 72), float32], Tensor[(1, 256, 3, 3), float32], Tensor[(1, 256, 3, 3), float32], Tensor[(1, 256, 3, 3), float32], Tensor[(1, 32, 72), float32], Tensor[(1, 256, 3, 3), float32], Tensor[(1, 256, 3, 3), float32], Tensor[(1, 256, 3, 3), float32], Tensor[(1, 32, 72), float32], Tensor[(1, 128, 3, 3), float32], Tensor[(1, 128, 3, 3), float32], Tensor[(1, 128, 3, 3), float32], Tensor[(1, 16, 72), float32], Tensor[(1, 128, 6, 6), float32], Tensor[(1, 128, 6, 6), float32], Tensor[(1, 128, 6, 6), float32], Tensor[(1, 16, 288), float32], Tensor[(1, 128, 6, 6), float32], Tensor[(1, 128, 6, 6), float32], Tensor[(1, 128, 6, 6), float32], Tensor[(1, 16, 288), float32], Tensor[(1, 128, 6, 6), float32], Tensor[(1, 128, 6, 6), float32], Tensor[(1, 128, 6, 6), float32], Tensor[(1, 16, 288), float32], Tensor[(1, 128, 6, 6), float32], Tensor[(1, 128, 6, 6), float32], Tensor[(1, 128, 6, 6), float32], Tensor[(1, 16, 288), float32], Tensor[(1, 128, 6, 6), float32], Tensor[(1, 128, 6, 6), float32], Tensor[(1, 128, 6, 6), float32], Tensor[(1, 16, 288), float32], Tensor[(1, 128, 6, 6), float32], Tensor[(1, 128, 6, 6), float32], Tensor[(1, 128, 6, 6), float32], Tensor[(1, 16, 288), float32], Tensor[(1, 128, 6, 6), float32], Tensor[(1, 128, 6, 6), float32], Tensor[(1, 128, 6, 6), float32], Tensor[(1, 16, 288), float32], Tensor[(1, 128, 6, 6), float32], Tensor[(1, 128, 6, 6), float32], Tensor[(1, 128, 6, 6), float32], Tensor[(1, 16, 288), float32], Tensor[(1, 128, 6, 6), float32], Tensor[(1, 128, 6, 6), float32], Tensor[(1, 128, 6, 6), float32], Tensor[(1, 16, 288), float32], Tensor[(1, 128, 6, 6), float32], Tensor[(1, 128, 6, 6), float32], Tensor[(1, 128, 6, 6), float32], Tensor[(1, 16, 288), float32], Tensor[(1, 128, 6, 6), float32], Tensor[(1, 128, 6, 6), float32], Tensor[(1, 128, 6, 6), float32], Tensor[(1, 16, 288), float32], Tensor[(1, 64, 6, 6), float32], Tensor[(1, 64, 6, 6), float32], Tensor[(1, 64, 6, 6), float32], Tensor[(1, 8, 288), float32], Tensor[(1, 64, 12, 12), float32], Tensor[(1, 64, 12, 12), float32], Tensor[(1, 64, 12, 12), float32], Tensor[(1, 8, 1152), float32], Tensor[(1, 64, 12, 12), float32], Tensor[(1, 64, 12, 12), float32], Tensor[(1, 64, 12, 12), float32], Tensor[(1, 8, 1152), float32], Tensor[(1, 64, 12, 12), float32], Tensor[(1, 64, 12, 12), float32], Tensor[(1, 64, 12, 12), float32], Tensor[(1, 8, 1152), float32], Tensor[(1, 32, 12, 12), float32], Tensor[(1, 32, 12, 12), float32], Tensor[(1, 32, 12, 12), float32], Tensor[(1, 4, 1152), float32], Tensor[(1, 32, 24, 24), float32], Tensor[(1, 32, 24, 24), float32], Tensor[(1, 32, 24, 24), float32], Tensor[(1, 4, 4608), float32], Tensor[(1, 32, 24, 24), float32], Tensor[(1, 32, 24, 24), float32], Tensor[(1, 32, 24, 24), float32], Tensor[(1, 4, 4608), float32], Tensor[(1, 32, 24, 24), float32], Tensor[(1, 32, 24, 24), float32], Tensor[(1, 32, 24, 24), float32], Tensor[(1, 4, 4608), float32], Tensor[(1, 16, 24, 24), float32], Tensor[(1, 16, 24, 24), float32], Tensor[(1, 16, 24, 24), float32], Tensor[(1, 2, 4608), float32], Tensor[(1, 16, 48, 48), float32], Tensor[(1, 16, 48, 48), float32], Tensor[(1, 16, 48, 48), float32], Tensor[(1, 2, 18432), float32], Tensor[(1, 8, 48, 48), float32], Tensor[(1, 8, 48, 48), float32], Tensor[(1, 8, 48, 48), float32], Tensor[(1, 1, 18432), float32], Tensor[(1, 8, 48, 48), float32], Tensor[(1, 8, 48, 48), float32], Tensor[(1, 8, 48, 48), float32], Tensor[(1, 1, 18432), float32], Tensor[(1, 3, 96, 96), float32]) {
  %0 = nn.conv2d(%data_0, %param_1_train, strides=[2, 2], padding=[1, 1, 1, 1], channels=8, kernel_size=[3, 3]) /* ty=Tensor[(1, 8, 48, 48), float32] */;
  %1 = reshape(%0, newshape=[0, 1, -1]) /* ty=Tensor[(1, 1, 18432), float32] */;
  %2 = nn.instance_norm(%1, %param_2_train, %param_3_train) /* ty=Tensor[(1, 1, 18432), float32] */;
  %3 = reshape(%2, newshape=[1, 8, 48, 48]) /* ty=Tensor[(1, 8, 48, 48), float32] */;
  %4 = multiply(%3, %param_4_train) /* ty=Tensor[(1, 8, 48, 48), float32] */;
  %5 = add(%4, %param_5_train) /* ty=Tensor[(1, 8, 48, 48), float32] */;
  %6 = nn.relu(%5) /* ty=Tensor[(1, 8, 48, 48), float32] */;
  %7 = nn.conv2d(%6, %param_6_train, padding=[1, 1, 1, 1], groups=8, channels=8, kernel_size=[3, 3]) /* ty=Tensor[(1, 8, 48, 48), float32] */;
  %8 = reshape(%7, newshape=[0, 1, -1]) /* ty=Tensor[(1, 1, 18432), float32] */;
  %9 = nn.instance_norm(%8, %param_7_train, %param_8_train) /* ty=Tensor[(1, 1, 18432), float32] */;
  %10 = reshape(%9, newshape=[1, 8, 48, 48]) /* ty=Tensor[(1, 8, 48, 48), float32] */;
  %11 = multiply(%10, %param_9_train) /* ty=Tensor[(1, 8, 48, 48), float32] */;
  %12 = add(%11, %param_10_train) /* ty=Tensor[(1, 8, 48, 48), float32] */;
  %13 = nn.relu(%12) /* ty=Tensor[(1, 8, 48, 48), float32] */;
  %14 = nn.conv2d(%13, %param_11_train, padding=[0, 0, 0, 0], channels=16, kernel_size=[1, 1]) /* ty=Tensor[(1, 16, 48, 48), float32] */;
  %15 = reshape(%14, newshape=[0, 2, -1]) /* ty=Tensor[(1, 2, 18432), float32] */;
  %16 = nn.instance_norm(%15, %param_12_train, %param_13_train) /* ty=Tensor[(1, 2, 18432), float32] */;
  %17 = reshape(%16, newshape=[1, 16, 48, 48]) /* ty=Tensor[(1, 16, 48, 48), float32] */;
  %18 = multiply(%17, %param_14_train) /* ty=Tensor[(1, 16, 48, 48), float32] */;
  %19 = add(%18, %param_15_train) /* ty=Tensor[(1, 16, 48, 48), float32] */;
  %20 = nn.relu(%19) /* ty=Tensor[(1, 16, 48, 48), float32] */;
  %21 = nn.conv2d(%20, %param_16_train, strides=[2, 2], padding=[1, 1, 1, 1], groups=16, channels=16, kernel_size=[3, 3]) /* ty=Tensor[(1, 16, 24, 24), float32] */;
  %22 = reshape(%21, newshape=[0, 2, -1]) /* ty=Tensor[(1, 2, 4608), float32] */;
  %23 = nn.instance_norm(%22, %param_17_train, %param_18_train) /* ty=Tensor[(1, 2, 4608), float32] */;
  %24 = reshape(%23, newshape=[1, 16, 24, 24]) /* ty=Tensor[(1, 16, 24, 24), float32] */;
  %25 = multiply(%24, %param_19_train) /* ty=Tensor[(1, 16, 24, 24), float32] */;
  %26 = add(%25, %param_20_train) /* ty=Tensor[(1, 16, 24, 24), float32] */;
  %27 = nn.relu(%26) /* ty=Tensor[(1, 16, 24, 24), float32] */;
  %28 = nn.conv2d(%27, %param_21_train, padding=[0, 0, 0, 0], channels=32, kernel_size=[1, 1]) /* ty=Tensor[(1, 32, 24, 24), float32] */;
  %29 = reshape(%28, newshape=[0, 4, -1]) /* ty=Tensor[(1, 4, 4608), float32] */;
  %30 = nn.instance_norm(%29, %param_22_train, %param_23_train) /* ty=Tensor[(1, 4, 4608), float32] */;
  %31 = reshape(%30, newshape=[1, 32, 24, 24]) /* ty=Tensor[(1, 32, 24, 24), float32] */;
  %32 = multiply(%31, %param_24_train) /* ty=Tensor[(1, 32, 24, 24), float32] */;
  %33 = add(%32, %param_25_train) /* ty=Tensor[(1, 32, 24, 24), float32] */;
  %34 = nn.relu(%33) /* ty=Tensor[(1, 32, 24, 24), float32] */;
  %35 = nn.conv2d(%34, %param_26_train, padding=[1, 1, 1, 1], groups=32, channels=32, kernel_size=[3, 3]) /* ty=Tensor[(1, 32, 24, 24), float32] */;
  %36 = reshape(%35, newshape=[0, 4, -1]) /* ty=Tensor[(1, 4, 4608), float32] */;
  %37 = nn.instance_norm(%36, %param_27_train, %param_28_train) /* ty=Tensor[(1, 4, 4608), float32] */;
  %38 = reshape(%37, newshape=[1, 32, 24, 24]) /* ty=Tensor[(1, 32, 24, 24), float32] */;
  %39 = multiply(%38, %param_29_train) /* ty=Tensor[(1, 32, 24, 24), float32] */;
  %40 = add(%39, %param_30_train) /* ty=Tensor[(1, 32, 24, 24), float32] */;
  %41 = nn.relu(%40) /* ty=Tensor[(1, 32, 24, 24), float32] */;
  %42 = nn.conv2d(%41, %param_31_train, padding=[0, 0, 0, 0], channels=32, kernel_size=[1, 1]) /* ty=Tensor[(1, 32, 24, 24), float32] */;
  %43 = reshape(%42, newshape=[0, 4, -1]) /* ty=Tensor[(1, 4, 4608), float32] */;
  %44 = nn.instance_norm(%43, %param_32_train, %param_33_train) /* ty=Tensor[(1, 4, 4608), float32] */;
  %45 = reshape(%44, newshape=[1, 32, 24, 24]) /* ty=Tensor[(1, 32, 24, 24), float32] */;
  %46 = multiply(%45, %param_34_train) /* ty=Tensor[(1, 32, 24, 24), float32] */;
  %47 = add(%46, %param_35_train) /* ty=Tensor[(1, 32, 24, 24), float32] */;
  %48 = nn.relu(%47) /* ty=Tensor[(1, 32, 24, 24), float32] */;
  %49 = nn.conv2d(%48, %param_36_train, strides=[2, 2], padding=[1, 1, 1, 1], groups=32, channels=32, kernel_size=[3, 3]) /* ty=Tensor[(1, 32, 12, 12), float32] */;
  %50 = reshape(%49, newshape=[0, 4, -1]) /* ty=Tensor[(1, 4, 1152), float32] */;
  %51 = nn.instance_norm(%50, %param_37_train, %param_38_train) /* ty=Tensor[(1, 4, 1152), float32] */;
  %52 = reshape(%51, newshape=[1, 32, 12, 12]) /* ty=Tensor[(1, 32, 12, 12), float32] */;
  %53 = multiply(%52, %param_39_train) /* ty=Tensor[(1, 32, 12, 12), float32] */;
  %54 = add(%53, %param_40_train) /* ty=Tensor[(1, 32, 12, 12), float32] */;
  %55 = nn.relu(%54) /* ty=Tensor[(1, 32, 12, 12), float32] */;
  %56 = nn.conv2d(%55, %param_41_train, padding=[0, 0, 0, 0], channels=64, kernel_size=[1, 1]) /* ty=Tensor[(1, 64, 12, 12), float32] */;
  %57 = reshape(%56, newshape=[0, 8, -1]) /* ty=Tensor[(1, 8, 1152), float32] */;
  %58 = nn.instance_norm(%57, %param_42_train, %param_43_train) /* ty=Tensor[(1, 8, 1152), float32] */;
  %59 = reshape(%58, newshape=[1, 64, 12, 12]) /* ty=Tensor[(1, 64, 12, 12), float32] */;
  %60 = multiply(%59, %param_44_train) /* ty=Tensor[(1, 64, 12, 12), float32] */;
  %61 = add(%60, %param_45_train) /* ty=Tensor[(1, 64, 12, 12), float32] */;
  %62 = nn.relu(%61) /* ty=Tensor[(1, 64, 12, 12), float32] */;
  %63 = nn.conv2d(%62, %param_46_train, padding=[1, 1, 1, 1], groups=64, channels=64, kernel_size=[3, 3]) /* ty=Tensor[(1, 64, 12, 12), float32] */;
  %64 = reshape(%63, newshape=[0, 8, -1]) /* ty=Tensor[(1, 8, 1152), float32] */;
  %65 = nn.instance_norm(%64, %param_47_train, %param_48_train) /* ty=Tensor[(1, 8, 1152), float32] */;
  %66 = reshape(%65, newshape=[1, 64, 12, 12]) /* ty=Tensor[(1, 64, 12, 12), float32] */;
  %67 = multiply(%66, %param_49_train) /* ty=Tensor[(1, 64, 12, 12), float32] */;
  %68 = add(%67, %param_50_train) /* ty=Tensor[(1, 64, 12, 12), float32] */;
  %69 = nn.relu(%68) /* ty=Tensor[(1, 64, 12, 12), float32] */;
  %70 = nn.conv2d(%69, %param_51_train, padding=[0, 0, 0, 0], channels=64, kernel_size=[1, 1]) /* ty=Tensor[(1, 64, 12, 12), float32] */;
  %71 = reshape(%70, newshape=[0, 8, -1]) /* ty=Tensor[(1, 8, 1152), float32] */;
  %72 = nn.instance_norm(%71, %param_52_train, %param_53_train) /* ty=Tensor[(1, 8, 1152), float32] */;
  %73 = reshape(%72, newshape=[1, 64, 12, 12]) /* ty=Tensor[(1, 64, 12, 12), float32] */;
  %74 = multiply(%73, %param_54_train) /* ty=Tensor[(1, 64, 12, 12), float32] */;
  %75 = add(%74, %param_55_train) /* ty=Tensor[(1, 64, 12, 12), float32] */;
  %76 = nn.relu(%75) /* ty=Tensor[(1, 64, 12, 12), float32] */;
  %77 = nn.conv2d(%76, %param_56_train, strides=[2, 2], padding=[1, 1, 1, 1], groups=64, channels=64, kernel_size=[3, 3]) /* ty=Tensor[(1, 64, 6, 6), float32] */;
  %78 = reshape(%77, newshape=[0, 8, -1]) /* ty=Tensor[(1, 8, 288), float32] */;
  %79 = nn.instance_norm(%78, %param_57_train, %param_58_train) /* ty=Tensor[(1, 8, 288), float32] */;
  %80 = reshape(%79, newshape=[1, 64, 6, 6]) /* ty=Tensor[(1, 64, 6, 6), float32] */;
  %81 = multiply(%80, %param_59_train) /* ty=Tensor[(1, 64, 6, 6), float32] */;
  %82 = add(%81, %param_60_train) /* ty=Tensor[(1, 64, 6, 6), float32] */;
  %83 = nn.relu(%82) /* ty=Tensor[(1, 64, 6, 6), float32] */;
  %84 = nn.conv2d(%83, %param_61_train, padding=[0, 0, 0, 0], channels=128, kernel_size=[1, 1]) /* ty=Tensor[(1, 128, 6, 6), float32] */;
  %85 = reshape(%84, newshape=[0, 16, -1]) /* ty=Tensor[(1, 16, 288), float32] */;
  %86 = nn.instance_norm(%85, %param_62_train, %param_63_train) /* ty=Tensor[(1, 16, 288), float32] */;
  %87 = reshape(%86, newshape=[1, 128, 6, 6]) /* ty=Tensor[(1, 128, 6, 6), float32] */;
  %88 = multiply(%87, %param_64_train) /* ty=Tensor[(1, 128, 6, 6), float32] */;
  %89 = add(%88, %param_65_train) /* ty=Tensor[(1, 128, 6, 6), float32] */;
  %90 = nn.relu(%89) /* ty=Tensor[(1, 128, 6, 6), float32] */;
  %91 = nn.conv2d(%90, %param_66_train, padding=[1, 1, 1, 1], groups=128, channels=128, kernel_size=[3, 3]) /* ty=Tensor[(1, 128, 6, 6), float32] */;
  %92 = reshape(%91, newshape=[0, 16, -1]) /* ty=Tensor[(1, 16, 288), float32] */;
  %93 = nn.instance_norm(%92, %param_67_train, %param_68_train) /* ty=Tensor[(1, 16, 288), float32] */;
  %94 = reshape(%93, newshape=[1, 128, 6, 6]) /* ty=Tensor[(1, 128, 6, 6), float32] */;
  %95 = multiply(%94, %param_69_train) /* ty=Tensor[(1, 128, 6, 6), float32] */;
  %96 = add(%95, %param_70_train) /* ty=Tensor[(1, 128, 6, 6), float32] */;
  %97 = nn.relu(%96) /* ty=Tensor[(1, 128, 6, 6), float32] */;
  %98 = nn.conv2d(%97, %param_71_train, padding=[0, 0, 0, 0], channels=128, kernel_size=[1, 1]) /* ty=Tensor[(1, 128, 6, 6), float32] */;
  %99 = reshape(%98, newshape=[0, 16, -1]) /* ty=Tensor[(1, 16, 288), float32] */;
  %100 = nn.instance_norm(%99, %param_72_train, %param_73_train) /* ty=Tensor[(1, 16, 288), float32] */;
  %101 = reshape(%100, newshape=[1, 128, 6, 6]) /* ty=Tensor[(1, 128, 6, 6), float32] */;
  %102 = multiply(%101, %param_74_train) /* ty=Tensor[(1, 128, 6, 6), float32] */;
  %103 = add(%102, %param_75_train) /* ty=Tensor[(1, 128, 6, 6), float32] */;
  %104 = nn.relu(%103) /* ty=Tensor[(1, 128, 6, 6), float32] */;
  %105 = nn.conv2d(%104, %param_76_train, padding=[1, 1, 1, 1], groups=128, channels=128, kernel_size=[3, 3]) /* ty=Tensor[(1, 128, 6, 6), float32] */;
  %106 = reshape(%105, newshape=[0, 16, -1]) /* ty=Tensor[(1, 16, 288), float32] */;
  %107 = nn.instance_norm(%106, %param_77_train, %param_78_train) /* ty=Tensor[(1, 16, 288), float32] */;
  %108 = reshape(%107, newshape=[1, 128, 6, 6]) /* ty=Tensor[(1, 128, 6, 6), float32] */;
  %109 = multiply(%108, %param_79_train) /* ty=Tensor[(1, 128, 6, 6), float32] */;
  %110 = add(%109, %param_80_train) /* ty=Tensor[(1, 128, 6, 6), float32] */;
  %111 = nn.relu(%110) /* ty=Tensor[(1, 128, 6, 6), float32] */;
  %112 = nn.conv2d(%111, %param_81_train, padding=[0, 0, 0, 0], channels=128, kernel_size=[1, 1]) /* ty=Tensor[(1, 128, 6, 6), float32] */;
  %113 = reshape(%112, newshape=[0, 16, -1]) /* ty=Tensor[(1, 16, 288), float32] */;
  %114 = nn.instance_norm(%113, %param_82_train, %param_83_train) /* ty=Tensor[(1, 16, 288), float32] */;
  %115 = reshape(%114, newshape=[1, 128, 6, 6]) /* ty=Tensor[(1, 128, 6, 6), float32] */;
  %116 = multiply(%115, %param_84_train) /* ty=Tensor[(1, 128, 6, 6), float32] */;
  %117 = add(%116, %param_85_train) /* ty=Tensor[(1, 128, 6, 6), float32] */;
  %118 = nn.relu(%117) /* ty=Tensor[(1, 128, 6, 6), float32] */;
  %119 = nn.conv2d(%118, %param_86_train, padding=[1, 1, 1, 1], groups=128, channels=128, kernel_size=[3, 3]) /* ty=Tensor[(1, 128, 6, 6), float32] */;
  %120 = reshape(%119, newshape=[0, 16, -1]) /* ty=Tensor[(1, 16, 288), float32] */;
  %121 = nn.instance_norm(%120, %param_87_train, %param_88_train) /* ty=Tensor[(1, 16, 288), float32] */;
  %122 = reshape(%121, newshape=[1, 128, 6, 6]) /* ty=Tensor[(1, 128, 6, 6), float32] */;
  %123 = multiply(%122, %param_89_train) /* ty=Tensor[(1, 128, 6, 6), float32] */;
  %124 = add(%123, %param_90_train) /* ty=Tensor[(1, 128, 6, 6), float32] */;
  %125 = nn.relu(%124) /* ty=Tensor[(1, 128, 6, 6), float32] */;
  %126 = nn.conv2d(%125, %param_91_train, padding=[0, 0, 0, 0], channels=128, kernel_size=[1, 1]) /* ty=Tensor[(1, 128, 6, 6), float32] */;
  %127 = reshape(%126, newshape=[0, 16, -1]) /* ty=Tensor[(1, 16, 288), float32] */;
  %128 = nn.instance_norm(%127, %param_92_train, %param_93_train) /* ty=Tensor[(1, 16, 288), float32] */;
  %129 = reshape(%128, newshape=[1, 128, 6, 6]) /* ty=Tensor[(1, 128, 6, 6), float32] */;
  %130 = multiply(%129, %param_94_train) /* ty=Tensor[(1, 128, 6, 6), float32] */;
  %131 = add(%130, %param_95_train) /* ty=Tensor[(1, 128, 6, 6), float32] */;
  %132 = nn.relu(%131) /* ty=Tensor[(1, 128, 6, 6), float32] */;
  %133 = nn.conv2d(%132, %param_96_train, padding=[1, 1, 1, 1], groups=128, channels=128, kernel_size=[3, 3]) /* ty=Tensor[(1, 128, 6, 6), float32] */;
  %134 = reshape(%133, newshape=[0, 16, -1]) /* ty=Tensor[(1, 16, 288), float32] */;
  %135 = nn.instance_norm(%134, %param_97_train, %param_98_train) /* ty=Tensor[(1, 16, 288), float32] */;
  %136 = reshape(%135, newshape=[1, 128, 6, 6]) /* ty=Tensor[(1, 128, 6, 6), float32] */;
  %137 = multiply(%136, %param_99_train) /* ty=Tensor[(1, 128, 6, 6), float32] */;
  %138 = add(%137, %param_100_train) /* ty=Tensor[(1, 128, 6, 6), float32] */;
  %139 = nn.relu(%138) /* ty=Tensor[(1, 128, 6, 6), float32] */;
  %140 = nn.conv2d(%139, %param_101_train, padding=[0, 0, 0, 0], channels=128, kernel_size=[1, 1]) /* ty=Tensor[(1, 128, 6, 6), float32] */;
  %141 = reshape(%140, newshape=[0, 16, -1]) /* ty=Tensor[(1, 16, 288), float32] */;
  %142 = nn.instance_norm(%141, %param_102_train, %param_103_train) /* ty=Tensor[(1, 16, 288), float32] */;
  %143 = reshape(%142, newshape=[1, 128, 6, 6]) /* ty=Tensor[(1, 128, 6, 6), float32] */;
  %144 = multiply(%143, %param_104_train) /* ty=Tensor[(1, 128, 6, 6), float32] */;
  %145 = add(%144, %param_105_train) /* ty=Tensor[(1, 128, 6, 6), float32] */;
  %146 = nn.relu(%145) /* ty=Tensor[(1, 128, 6, 6), float32] */;
  %147 = nn.conv2d(%146, %param_106_train, padding=[1, 1, 1, 1], groups=128, channels=128, kernel_size=[3, 3]) /* ty=Tensor[(1, 128, 6, 6), float32] */;
  %148 = reshape(%147, newshape=[0, 16, -1]) /* ty=Tensor[(1, 16, 288), float32] */;
  %149 = nn.instance_norm(%148, %param_107_train, %param_108_train) /* ty=Tensor[(1, 16, 288), float32] */;
  %150 = reshape(%149, newshape=[1, 128, 6, 6]) /* ty=Tensor[(1, 128, 6, 6), float32] */;
  %151 = multiply(%150, %param_109_train) /* ty=Tensor[(1, 128, 6, 6), float32] */;
  %152 = add(%151, %param_110_train) /* ty=Tensor[(1, 128, 6, 6), float32] */;
  %153 = nn.relu(%152) /* ty=Tensor[(1, 128, 6, 6), float32] */;
  %154 = nn.conv2d(%153, %param_111_train, padding=[0, 0, 0, 0], channels=128, kernel_size=[1, 1]) /* ty=Tensor[(1, 128, 6, 6), float32] */;
  %155 = reshape(%154, newshape=[0, 16, -1]) /* ty=Tensor[(1, 16, 288), float32] */;
  %156 = nn.instance_norm(%155, %param_112_train, %param_113_train) /* ty=Tensor[(1, 16, 288), float32] */;
  %157 = reshape(%156, newshape=[1, 128, 6, 6]) /* ty=Tensor[(1, 128, 6, 6), float32] */;
  %158 = multiply(%157, %param_114_train) /* ty=Tensor[(1, 128, 6, 6), float32] */;
  %159 = add(%158, %param_115_train) /* ty=Tensor[(1, 128, 6, 6), float32] */;
  %160 = nn.relu(%159) /* ty=Tensor[(1, 128, 6, 6), float32] */;
  %161 = nn.conv2d(%160, %param_116_train, strides=[2, 2], padding=[1, 1, 1, 1], groups=128, channels=128, kernel_size=[3, 3]) /* ty=Tensor[(1, 128, 3, 3), float32] */;
  %162 = reshape(%161, newshape=[0, 16, -1]) /* ty=Tensor[(1, 16, 72), float32] */;
  %163 = nn.instance_norm(%162, %param_117_train, %param_118_train) /* ty=Tensor[(1, 16, 72), float32] */;
  %164 = reshape(%163, newshape=[1, 128, 3, 3]) /* ty=Tensor[(1, 128, 3, 3), float32] */;
  %165 = multiply(%164, %param_119_train) /* ty=Tensor[(1, 128, 3, 3), float32] */;
  %166 = add(%165, %param_120_train) /* ty=Tensor[(1, 128, 3, 3), float32] */;
  %167 = nn.relu(%166) /* ty=Tensor[(1, 128, 3, 3), float32] */;
  %168 = nn.conv2d(%167, %param_121_train, padding=[0, 0, 0, 0], channels=256, kernel_size=[1, 1]) /* ty=Tensor[(1, 256, 3, 3), float32] */;
  %169 = reshape(%168, newshape=[0, 32, -1]) /* ty=Tensor[(1, 32, 72), float32] */;
  %170 = nn.instance_norm(%169, %param_122_train, %param_123_train) /* ty=Tensor[(1, 32, 72), float32] */;
  %171 = reshape(%170, newshape=[1, 256, 3, 3]) /* ty=Tensor[(1, 256, 3, 3), float32] */;
  %172 = multiply(%171, %param_124_train) /* ty=Tensor[(1, 256, 3, 3), float32] */;
  %173 = add(%172, %param_125_train) /* ty=Tensor[(1, 256, 3, 3), float32] */;
  %174 = nn.relu(%173) /* ty=Tensor[(1, 256, 3, 3), float32] */;
  %175 = nn.conv2d(%174, %param_126_train, padding=[1, 1, 1, 1], groups=256, channels=256, kernel_size=[3, 3]) /* ty=Tensor[(1, 256, 3, 3), float32] */;
  %176 = reshape(%175, newshape=[0, 32, -1]) /* ty=Tensor[(1, 32, 72), float32] */;
  %177 = nn.instance_norm(%176, %param_127_train, %param_128_train) /* ty=Tensor[(1, 32, 72), float32] */;
  %178 = reshape(%177, newshape=[1, 256, 3, 3]) /* ty=Tensor[(1, 256, 3, 3), float32] */;
  %179 = multiply(%178, %param_129_train) /* ty=Tensor[(1, 256, 3, 3), float32] */;
  %180 = add(%179, %param_130_train) /* ty=Tensor[(1, 256, 3, 3), float32] */;
  %181 = nn.relu(%180) /* ty=Tensor[(1, 256, 3, 3), float32] */;
  %182 = nn.conv2d(%181, %param_131_train, padding=[0, 0, 0, 0], channels=256, kernel_size=[1, 1]) /* ty=Tensor[(1, 256, 3, 3), float32] */;
  %183 = reshape(%182, newshape=[0, 32, -1]) /* ty=Tensor[(1, 32, 72), float32] */;
  %184 = nn.instance_norm(%183, %param_132_train, %param_133_train) /* ty=Tensor[(1, 32, 72), float32] */;
  %185 = reshape(%184, newshape=[1, 256, 3, 3]) /* ty=Tensor[(1, 256, 3, 3), float32] */;
  %186 = multiply(%185, %param_134_train) /* ty=Tensor[(1, 256, 3, 3), float32] */;
  %187 = add(%186, %param_135_train) /* ty=Tensor[(1, 256, 3, 3), float32] */;
  %188 = nn.relu(%187) /* ty=Tensor[(1, 256, 3, 3), float32] */;
  %189 = nn.pad(%188, 0f /* ty=float32 */, pad_width=[[0, 0], [0, 0], [0, 0], [0, 0]]) /* ty=Tensor[(1, 256, 3, 3), float32] */;
  %190 = nn.avg_pool2d(%189, pool_size=[3, 3], strides=[3, 3], padding=[0, 0, 0, 0]) /* ty=Tensor[(1, 256, 1, 1), float32] */;
  %191 = nn.batch_flatten(%190) /* ty=Tensor[(1, 256), float32] */;
  %192 = nn.dense(%191, %param_136_train, units=2) /* ty=Tensor[(1, 2), float32] */;
  %193 = add(%192, %param_137_train) /* ty=Tensor[(1, 2), float32] */;
  %194 = reshape(%193, newshape=[0, 0]) /* ty=Tensor[(1, 2), float32] */;
  %195 = nn.log_softmax(%194) /* ty=Tensor[(1, 2), float32] */;
  %196 = nn.cross_entropy_with_logits(%195, %label) /* ty=float32 */;
  %197 = copy(%data_0) /* ty=Tensor[(1, 3, 96, 96), float32] */;
  (%196, %195, %195, %191, %190, %189, %187, %185, %183, %181, %180, %178, %176, %174, %173, %171, %169, %167, %166, %164, %162, %160, %159, %157, %155, %153, %152, %150, %148, %146, %145, %143, %141, %139, %138, %136, %134, %132, %131, %129, %127, %125, %124, %122, %120, %118, %117, %115, %113, %111, %110, %108, %106, %104, %103, %101, %99, %97, %96, %94, %92, %90, %89, %87, %85, %83, %82, %80, %78, %76, %75, %73, %71, %69, %68, %66, %64, %62, %61, %59, %57, %55, %54, %52, %50, %48, %47, %45, %43, %41, %40, %38, %36, %34, %33, %31, %29, %27, %26, %24, %22, %20, %19, %17, %15, %13, %12, %10, %8, %6, %5, %3, %1, %197)
}
