def @main(%data_0: Tensor[(1, 3, 96, 96), float32], %param1_weight: Tensor[(8, 3, 3, 3), float32], %param2_bias: Tensor[(1), float32], %param3_bias: Tensor[(1), float32], %param4_weight: Tensor[(8, 1, 1), float32], %param5_weight: Tensor[(8, 1, 1), float32], %param6_weight: Tensor[(8, 1, 3, 3), float32], %param7_bias: Tensor[(1), float32], %param8_bias: Tensor[(1), float32], %param9_weight: Tensor[(8, 1, 1), float32], %param10_weight: Tensor[(8, 1, 1), float32], %param11_weight: Tensor[(16, 8, 1, 1), float32], %param12_bias: Tensor[(2), float32], %param13_bias: Tensor[(2), float32], %param14_weight: Tensor[(16, 1, 1), float32], %param15_weight: Tensor[(16, 1, 1), float32], %param16_weight: Tensor[(16, 1, 3, 3), float32], %param17_bias: Tensor[(2), float32], %param18_bias: Tensor[(2), float32], %param19_weight: Tensor[(16, 1, 1), float32], %param20_weight: Tensor[(16, 1, 1), float32], %param21_weight: Tensor[(32, 16, 1, 1), float32], %param22_bias: Tensor[(4), float32], %param23_bias: Tensor[(4), float32], %param24_weight: Tensor[(32, 1, 1), float32], %param25_weight: Tensor[(32, 1, 1), float32], %param26_weight: Tensor[(32, 1, 3, 3), float32], %param27_bias: Tensor[(4), float32], %param28_bias: Tensor[(4), float32], %param29_weight: Tensor[(32, 1, 1), float32], %param30_weight: Tensor[(32, 1, 1), float32], %param31_weight: Tensor[(32, 32, 1, 1), float32], %param32_bias: Tensor[(4), float32], %param33_bias: Tensor[(4), float32], %param34_weight: Tensor[(32, 1, 1), float32], %param35_weight: Tensor[(32, 1, 1), float32], %param36_weight: Tensor[(32, 1, 3, 3), float32], %param37_bias: Tensor[(4), float32], %param38_bias: Tensor[(4), float32], %param39_weight: Tensor[(32, 1, 1), float32], %param40_weight: Tensor[(32, 1, 1), float32], %param41_weight: Tensor[(64, 32, 1, 1), float32], %param42_bias: Tensor[(8), float32], %param43_bias: Tensor[(8), float32], %param44_weight: Tensor[(64, 1, 1), float32], %param45_weight: Tensor[(64, 1, 1), float32], %param46_weight: Tensor[(64, 1, 3, 3), float32], %param47_bias: Tensor[(8), float32], %param48_bias: Tensor[(8), float32], %param49_weight: Tensor[(64, 1, 1), float32], %param50_weight: Tensor[(64, 1, 1), float32], %param51_weight: Tensor[(64, 64, 1, 1), float32], %param52_bias: Tensor[(8), float32], %param53_bias: Tensor[(8), float32], %param54_weight: Tensor[(64, 1, 1), float32], %param55_weight: Tensor[(64, 1, 1), float32], %param56_weight: Tensor[(64, 1, 3, 3), float32], %param57_bias: Tensor[(8), float32], %param58_bias: Tensor[(8), float32], %param59_weight: Tensor[(64, 1, 1), float32], %param60_weight: Tensor[(64, 1, 1), float32], %param61_weight: Tensor[(128, 64, 1, 1), float32], %param62_bias: Tensor[(16), float32], %param63_bias: Tensor[(16), float32], %param64_weight: Tensor[(128, 1, 1), float32], %param65_weight: Tensor[(128, 1, 1), float32], %param66_weight: Tensor[(128, 1, 3, 3), float32], %param67_bias: Tensor[(16), float32], %param68_bias: Tensor[(16), float32], %param69_weight: Tensor[(128, 1, 1), float32], %param70_weight: Tensor[(128, 1, 1), float32], %param71_weight: Tensor[(128, 128, 1, 1), float32], %param72_bias: Tensor[(16), float32], %param73_bias: Tensor[(16), float32], %param74_weight: Tensor[(128, 1, 1), float32], %param75_weight: Tensor[(128, 1, 1), float32], %param76_weight: Tensor[(128, 1, 3, 3), float32], %param77_bias: Tensor[(16), float32], %param78_bias: Tensor[(16), float32], %param79_weight: Tensor[(128, 1, 1), float32], %param80_weight: Tensor[(128, 1, 1), float32], %param81_weight: Tensor[(128, 128, 1, 1), float32], %param82_bias: Tensor[(16), float32], %param83_bias: Tensor[(16), float32], %param84_weight: Tensor[(128, 1, 1), float32], %param85_weight: Tensor[(128, 1, 1), float32], %param86_weight: Tensor[(128, 1, 3, 3), float32], %param87_bias: Tensor[(16), float32], %param88_bias: Tensor[(16), float32], %param89_weight: Tensor[(128, 1, 1), float32], %param90_weight: Tensor[(128, 1, 1), float32], %param91_weight: Tensor[(128, 128, 1, 1), float32], %param92_bias: Tensor[(16), float32], %param93_bias: Tensor[(16), float32], %param94_weight: Tensor[(128, 1, 1), float32], %param95_weight: Tensor[(128, 1, 1), float32], %param96_weight: Tensor[(128, 1, 3, 3), float32], %param97_bias: Tensor[(16), float32], %param98_bias: Tensor[(16), float32], %param99_weight: Tensor[(128, 1, 1), float32], %param100_weight: Tensor[(128, 1, 1), float32], %param101_weight: Tensor[(128, 128, 1, 1), float32], %param102_bias: Tensor[(16), float32], %param103_bias: Tensor[(16), float32], %param104_weight: Tensor[(128, 1, 1), float32], %param105_weight: Tensor[(128, 1, 1), float32], %param106_weight: Tensor[(128, 1, 3, 3), float32], %param107_bias: Tensor[(16), float32], %param108_bias: Tensor[(16), float32], %param109_weight: Tensor[(128, 1, 1), float32], %param110_weight: Tensor[(128, 1, 1), float32], %param111_weight: Tensor[(128, 128, 1, 1), float32], %param112_bias: Tensor[(16), float32], %param113_bias: Tensor[(16), float32], %param114_weight: Tensor[(128, 1, 1), float32], %param115_weight: Tensor[(128, 1, 1), float32], %param116_weight: Tensor[(128, 1, 3, 3), float32], %param117_bias: Tensor[(16), float32], %param118_bias: Tensor[(16), float32], %param119_weight: Tensor[(128, 1, 1), float32], %param120_weight: Tensor[(128, 1, 1), float32], %param121_weight: Tensor[(256, 128, 1, 1), float32], %param122_bias: Tensor[(32), float32], %param123_bias: Tensor[(32), float32], %param124_weight: Tensor[(256, 1, 1), float32], %param125_weight: Tensor[(256, 1, 1), float32], %param126_weight: Tensor[(256, 1, 3, 3), float32], %param127_bias: Tensor[(32), float32], %param128_bias: Tensor[(32), float32], %param129_weight: Tensor[(256, 1, 1), float32], %param130_weight: Tensor[(256, 1, 1), float32], %param131_weight: Tensor[(256, 256, 1, 1), float32], %param132_bias: Tensor[(32), float32], %param133_bias: Tensor[(32), float32], %param134_weight: Tensor[(256, 1, 1), float32], %param135_weight: Tensor[(256, 1, 1), float32], %param136_weight: Tensor[(2, 256), float32], %param137_bias: Tensor[(2), float32], %label: Tensor[(1, 2), float32]) -> (float32, Tensor[(1, 2), float32], Tensor[(1, 2), float32], Tensor[(1, 256), float32], Tensor[(1, 256, 1, 1), float32], Tensor[(1, 256, 3, 3), float32], Tensor[(1, 256, 3, 3), float32], Tensor[(1, 256, 3, 3), float32], Tensor[(1, 32, 72), float32], Tensor[(1, 256, 3, 3), float32], Tensor[(1, 256, 3, 3), float32], Tensor[(1, 256, 3, 3), float32], Tensor[(1, 32, 72), float32], Tensor[(1, 256, 3, 3), float32], Tensor[(1, 256, 3, 3), float32], Tensor[(1, 256, 3, 3), float32], Tensor[(1, 32, 72), float32], Tensor[(1, 128, 3, 3), float32], Tensor[(1, 128, 3, 3), float32], Tensor[(1, 128, 3, 3), float32], Tensor[(1, 16, 72), float32], Tensor[(1, 128, 6, 6), float32], Tensor[(1, 128, 6, 6), float32], Tensor[(1, 128, 6, 6), float32], Tensor[(1, 16, 288), float32], Tensor[(1, 128, 6, 6), float32], Tensor[(1, 128, 6, 6), float32], Tensor[(1, 128, 6, 6), float32], Tensor[(1, 16, 288), float32], Tensor[(1, 128, 6, 6), float32], Tensor[(1, 128, 6, 6), float32], Tensor[(1, 128, 6, 6), float32], Tensor[(1, 16, 288), float32], Tensor[(1, 128, 6, 6), float32], Tensor[(1, 128, 6, 6), float32], Tensor[(1, 128, 6, 6), float32], Tensor[(1, 16, 288), float32], Tensor[(1, 128, 6, 6), float32], Tensor[(1, 128, 6, 6), float32], Tensor[(1, 128, 6, 6), float32], Tensor[(1, 16, 288), float32], Tensor[(1, 128, 6, 6), float32], Tensor[(1, 128, 6, 6), float32], Tensor[(1, 128, 6, 6), float32], Tensor[(1, 16, 288), float32], Tensor[(1, 128, 6, 6), float32], Tensor[(1, 128, 6, 6), float32], Tensor[(1, 128, 6, 6), float32], Tensor[(1, 16, 288), float32], Tensor[(1, 128, 6, 6), float32], Tensor[(1, 128, 6, 6), float32], Tensor[(1, 128, 6, 6), float32], Tensor[(1, 16, 288), float32], Tensor[(1, 128, 6, 6), float32], Tensor[(1, 128, 6, 6), float32], Tensor[(1, 128, 6, 6), float32], Tensor[(1, 16, 288), float32], Tensor[(1, 128, 6, 6), float32], Tensor[(1, 128, 6, 6), float32], Tensor[(1, 128, 6, 6), float32], Tensor[(1, 16, 288), float32], Tensor[(1, 128, 6, 6), float32], Tensor[(1, 128, 6, 6), float32], Tensor[(1, 128, 6, 6), float32], Tensor[(1, 16, 288), float32], Tensor[(1, 64, 6, 6), float32], Tensor[(1, 64, 6, 6), float32], Tensor[(1, 64, 6, 6), float32], Tensor[(1, 8, 288), float32], Tensor[(1, 64, 12, 12), float32], Tensor[(1, 64, 12, 12), float32], Tensor[(1, 64, 12, 12), float32], Tensor[(1, 8, 1152), float32], Tensor[(1, 64, 12, 12), float32], Tensor[(1, 64, 12, 12), float32], Tensor[(1, 64, 12, 12), float32], Tensor[(1, 8, 1152), float32], Tensor[(1, 64, 12, 12), float32], Tensor[(1, 64, 12, 12), float32], Tensor[(1, 64, 12, 12), float32], Tensor[(1, 8, 1152), float32], Tensor[(1, 32, 12, 12), float32], Tensor[(1, 32, 12, 12), float32], Tensor[(1, 32, 12, 12), float32], Tensor[(1, 4, 1152), float32], Tensor[(1, 32, 24, 24), float32], Tensor[(1, 32, 24, 24), float32], Tensor[(1, 32, 24, 24), float32], Tensor[(1, 4, 4608), float32], Tensor[(1, 32, 24, 24), float32], Tensor[(1, 32, 24, 24), float32], Tensor[(1, 32, 24, 24), float32], Tensor[(1, 4, 4608), float32], Tensor[(1, 32, 24, 24), float32], Tensor[(1, 32, 24, 24), float32], Tensor[(1, 32, 24, 24), float32], Tensor[(1, 4, 4608), float32], Tensor[(1, 16, 24, 24), float32], Tensor[(1, 16, 24, 24), float32], Tensor[(1, 16, 24, 24), float32], Tensor[(1, 2, 4608), float32], Tensor[(1, 16, 48, 48), float32], Tensor[(1, 16, 48, 48), float32], Tensor[(1, 16, 48, 48), float32], Tensor[(1, 2, 18432), float32], Tensor[(1, 8, 48, 48), float32], Tensor[(1, 8, 48, 48), float32], Tensor[(1, 8, 48, 48), float32], Tensor[(1, 1, 18432), float32], Tensor[(1, 8, 48, 48), float32], Tensor[(1, 8, 48, 48), float32], Tensor[(1, 8, 48, 48), float32], Tensor[(1, 1, 18432), float32], Tensor[(1, 3, 96, 96), float32]) {
  %0 = nn.conv2d(%data_0, %param1_weight, strides=[2, 2], padding=[1, 1, 1, 1], channels=8, kernel_size=[3, 3]) /* ty=Tensor[(1, 8, 48, 48), float32] */;
  %1 = reshape(%0, newshape=[0, 1, -1]) /* ty=Tensor[(1, 1, 18432), float32] */;
  %2 = nn.instance_norm(%1, %param2_bias, %param3_bias) /* ty=Tensor[(1, 1, 18432), float32] */;
  %3 = reshape(%2, newshape=[1, 8, 48, 48]) /* ty=Tensor[(1, 8, 48, 48), float32] */;
  %4 = multiply(%3, %param4_weight) /* ty=Tensor[(1, 8, 48, 48), float32] */;
  %5 = add(%4, %param5_weight) /* ty=Tensor[(1, 8, 48, 48), float32] */;
  %6 = nn.relu(%5) /* ty=Tensor[(1, 8, 48, 48), float32] */;
  %7 = nn.conv2d(%6, %param6_weight, padding=[1, 1, 1, 1], groups=8, channels=8, kernel_size=[3, 3]) /* ty=Tensor[(1, 8, 48, 48), float32] */;
  %8 = reshape(%7, newshape=[0, 1, -1]) /* ty=Tensor[(1, 1, 18432), float32] */;
  %9 = nn.instance_norm(%8, %param7_bias, %param8_bias) /* ty=Tensor[(1, 1, 18432), float32] */;
  %10 = reshape(%9, newshape=[1, 8, 48, 48]) /* ty=Tensor[(1, 8, 48, 48), float32] */;
  %11 = multiply(%10, %param9_weight) /* ty=Tensor[(1, 8, 48, 48), float32] */;
  %12 = add(%11, %param10_weight) /* ty=Tensor[(1, 8, 48, 48), float32] */;
  %13 = nn.relu(%12) /* ty=Tensor[(1, 8, 48, 48), float32] */;
  %14 = nn.conv2d(%13, %param11_weight, padding=[0, 0, 0, 0], channels=16, kernel_size=[1, 1]) /* ty=Tensor[(1, 16, 48, 48), float32] */;
  %15 = reshape(%14, newshape=[0, 2, -1]) /* ty=Tensor[(1, 2, 18432), float32] */;
  %16 = nn.instance_norm(%15, %param12_bias, %param13_bias) /* ty=Tensor[(1, 2, 18432), float32] */;
  %17 = reshape(%16, newshape=[1, 16, 48, 48]) /* ty=Tensor[(1, 16, 48, 48), float32] */;
  %18 = multiply(%17, %param14_weight) /* ty=Tensor[(1, 16, 48, 48), float32] */;
  %19 = add(%18, %param15_weight) /* ty=Tensor[(1, 16, 48, 48), float32] */;
  %20 = nn.relu(%19) /* ty=Tensor[(1, 16, 48, 48), float32] */;
  %21 = nn.conv2d(%20, %param16_weight, strides=[2, 2], padding=[1, 1, 1, 1], groups=16, channels=16, kernel_size=[3, 3]) /* ty=Tensor[(1, 16, 24, 24), float32] */;
  %22 = reshape(%21, newshape=[0, 2, -1]) /* ty=Tensor[(1, 2, 4608), float32] */;
  %23 = nn.instance_norm(%22, %param17_bias, %param18_bias) /* ty=Tensor[(1, 2, 4608), float32] */;
  %24 = reshape(%23, newshape=[1, 16, 24, 24]) /* ty=Tensor[(1, 16, 24, 24), float32] */;
  %25 = multiply(%24, %param19_weight) /* ty=Tensor[(1, 16, 24, 24), float32] */;
  %26 = add(%25, %param20_weight) /* ty=Tensor[(1, 16, 24, 24), float32] */;
  %27 = nn.relu(%26) /* ty=Tensor[(1, 16, 24, 24), float32] */;
  %28 = nn.conv2d(%27, %param21_weight, padding=[0, 0, 0, 0], channels=32, kernel_size=[1, 1]) /* ty=Tensor[(1, 32, 24, 24), float32] */;
  %29 = reshape(%28, newshape=[0, 4, -1]) /* ty=Tensor[(1, 4, 4608), float32] */;
  %30 = nn.instance_norm(%29, %param22_bias, %param23_bias) /* ty=Tensor[(1, 4, 4608), float32] */;
  %31 = reshape(%30, newshape=[1, 32, 24, 24]) /* ty=Tensor[(1, 32, 24, 24), float32] */;
  %32 = multiply(%31, %param24_weight) /* ty=Tensor[(1, 32, 24, 24), float32] */;
  %33 = add(%32, %param25_weight) /* ty=Tensor[(1, 32, 24, 24), float32] */;
  %34 = nn.relu(%33) /* ty=Tensor[(1, 32, 24, 24), float32] */;
  %35 = nn.conv2d(%34, %param26_weight, padding=[1, 1, 1, 1], groups=32, channels=32, kernel_size=[3, 3]) /* ty=Tensor[(1, 32, 24, 24), float32] */;
  %36 = reshape(%35, newshape=[0, 4, -1]) /* ty=Tensor[(1, 4, 4608), float32] */;
  %37 = nn.instance_norm(%36, %param27_bias, %param28_bias) /* ty=Tensor[(1, 4, 4608), float32] */;
  %38 = reshape(%37, newshape=[1, 32, 24, 24]) /* ty=Tensor[(1, 32, 24, 24), float32] */;
  %39 = multiply(%38, %param29_weight) /* ty=Tensor[(1, 32, 24, 24), float32] */;
  %40 = add(%39, %param30_weight) /* ty=Tensor[(1, 32, 24, 24), float32] */;
  %41 = nn.relu(%40) /* ty=Tensor[(1, 32, 24, 24), float32] */;
  %42 = nn.conv2d(%41, %param31_weight, padding=[0, 0, 0, 0], channels=32, kernel_size=[1, 1]) /* ty=Tensor[(1, 32, 24, 24), float32] */;
  %43 = reshape(%42, newshape=[0, 4, -1]) /* ty=Tensor[(1, 4, 4608), float32] */;
  %44 = nn.instance_norm(%43, %param32_bias, %param33_bias) /* ty=Tensor[(1, 4, 4608), float32] */;
  %45 = reshape(%44, newshape=[1, 32, 24, 24]) /* ty=Tensor[(1, 32, 24, 24), float32] */;
  %46 = multiply(%45, %param34_weight) /* ty=Tensor[(1, 32, 24, 24), float32] */;
  %47 = add(%46, %param35_weight) /* ty=Tensor[(1, 32, 24, 24), float32] */;
  %48 = nn.relu(%47) /* ty=Tensor[(1, 32, 24, 24), float32] */;
  %49 = nn.conv2d(%48, %param36_weight, strides=[2, 2], padding=[1, 1, 1, 1], groups=32, channels=32, kernel_size=[3, 3]) /* ty=Tensor[(1, 32, 12, 12), float32] */;
  %50 = reshape(%49, newshape=[0, 4, -1]) /* ty=Tensor[(1, 4, 1152), float32] */;
  %51 = nn.instance_norm(%50, %param37_bias, %param38_bias) /* ty=Tensor[(1, 4, 1152), float32] */;
  %52 = reshape(%51, newshape=[1, 32, 12, 12]) /* ty=Tensor[(1, 32, 12, 12), float32] */;
  %53 = multiply(%52, %param39_weight) /* ty=Tensor[(1, 32, 12, 12), float32] */;
  %54 = add(%53, %param40_weight) /* ty=Tensor[(1, 32, 12, 12), float32] */;
  %55 = nn.relu(%54) /* ty=Tensor[(1, 32, 12, 12), float32] */;
  %56 = nn.conv2d(%55, %param41_weight, padding=[0, 0, 0, 0], channels=64, kernel_size=[1, 1]) /* ty=Tensor[(1, 64, 12, 12), float32] */;
  %57 = reshape(%56, newshape=[0, 8, -1]) /* ty=Tensor[(1, 8, 1152), float32] */;
  %58 = nn.instance_norm(%57, %param42_bias, %param43_bias) /* ty=Tensor[(1, 8, 1152), float32] */;
  %59 = reshape(%58, newshape=[1, 64, 12, 12]) /* ty=Tensor[(1, 64, 12, 12), float32] */;
  %60 = multiply(%59, %param44_weight) /* ty=Tensor[(1, 64, 12, 12), float32] */;
  %61 = add(%60, %param45_weight) /* ty=Tensor[(1, 64, 12, 12), float32] */;
  %62 = nn.relu(%61) /* ty=Tensor[(1, 64, 12, 12), float32] */;
  %63 = nn.conv2d(%62, %param46_weight, padding=[1, 1, 1, 1], groups=64, channels=64, kernel_size=[3, 3]) /* ty=Tensor[(1, 64, 12, 12), float32] */;
  %64 = reshape(%63, newshape=[0, 8, -1]) /* ty=Tensor[(1, 8, 1152), float32] */;
  %65 = nn.instance_norm(%64, %param47_bias, %param48_bias) /* ty=Tensor[(1, 8, 1152), float32] */;
  %66 = reshape(%65, newshape=[1, 64, 12, 12]) /* ty=Tensor[(1, 64, 12, 12), float32] */;
  %67 = multiply(%66, %param49_weight) /* ty=Tensor[(1, 64, 12, 12), float32] */;
  %68 = add(%67, %param50_weight) /* ty=Tensor[(1, 64, 12, 12), float32] */;
  %69 = nn.relu(%68) /* ty=Tensor[(1, 64, 12, 12), float32] */;
  %70 = nn.conv2d(%69, %param51_weight, padding=[0, 0, 0, 0], channels=64, kernel_size=[1, 1]) /* ty=Tensor[(1, 64, 12, 12), float32] */;
  %71 = reshape(%70, newshape=[0, 8, -1]) /* ty=Tensor[(1, 8, 1152), float32] */;
  %72 = nn.instance_norm(%71, %param52_bias, %param53_bias) /* ty=Tensor[(1, 8, 1152), float32] */;
  %73 = reshape(%72, newshape=[1, 64, 12, 12]) /* ty=Tensor[(1, 64, 12, 12), float32] */;
  %74 = multiply(%73, %param54_weight) /* ty=Tensor[(1, 64, 12, 12), float32] */;
  %75 = add(%74, %param55_weight) /* ty=Tensor[(1, 64, 12, 12), float32] */;
  %76 = nn.relu(%75) /* ty=Tensor[(1, 64, 12, 12), float32] */;
  %77 = nn.conv2d(%76, %param56_weight, strides=[2, 2], padding=[1, 1, 1, 1], groups=64, channels=64, kernel_size=[3, 3]) /* ty=Tensor[(1, 64, 6, 6), float32] */;
  %78 = reshape(%77, newshape=[0, 8, -1]) /* ty=Tensor[(1, 8, 288), float32] */;
  %79 = nn.instance_norm(%78, %param57_bias, %param58_bias) /* ty=Tensor[(1, 8, 288), float32] */;
  %80 = reshape(%79, newshape=[1, 64, 6, 6]) /* ty=Tensor[(1, 64, 6, 6), float32] */;
  %81 = multiply(%80, %param59_weight) /* ty=Tensor[(1, 64, 6, 6), float32] */;
  %82 = add(%81, %param60_weight) /* ty=Tensor[(1, 64, 6, 6), float32] */;
  %83 = nn.relu(%82) /* ty=Tensor[(1, 64, 6, 6), float32] */;
  %84 = nn.conv2d(%83, %param61_weight, padding=[0, 0, 0, 0], channels=128, kernel_size=[1, 1]) /* ty=Tensor[(1, 128, 6, 6), float32] */;
  %85 = reshape(%84, newshape=[0, 16, -1]) /* ty=Tensor[(1, 16, 288), float32] */;
  %86 = nn.instance_norm(%85, %param62_bias, %param63_bias) /* ty=Tensor[(1, 16, 288), float32] */;
  %87 = reshape(%86, newshape=[1, 128, 6, 6]) /* ty=Tensor[(1, 128, 6, 6), float32] */;
  %88 = multiply(%87, %param64_weight) /* ty=Tensor[(1, 128, 6, 6), float32] */;
  %89 = add(%88, %param65_weight) /* ty=Tensor[(1, 128, 6, 6), float32] */;
  %90 = nn.relu(%89) /* ty=Tensor[(1, 128, 6, 6), float32] */;
  %91 = nn.conv2d(%90, %param66_weight, padding=[1, 1, 1, 1], groups=128, channels=128, kernel_size=[3, 3]) /* ty=Tensor[(1, 128, 6, 6), float32] */;
  %92 = reshape(%91, newshape=[0, 16, -1]) /* ty=Tensor[(1, 16, 288), float32] */;
  %93 = nn.instance_norm(%92, %param67_bias, %param68_bias) /* ty=Tensor[(1, 16, 288), float32] */;
  %94 = reshape(%93, newshape=[1, 128, 6, 6]) /* ty=Tensor[(1, 128, 6, 6), float32] */;
  %95 = multiply(%94, %param69_weight) /* ty=Tensor[(1, 128, 6, 6), float32] */;
  %96 = add(%95, %param70_weight) /* ty=Tensor[(1, 128, 6, 6), float32] */;
  %97 = nn.relu(%96) /* ty=Tensor[(1, 128, 6, 6), float32] */;
  %98 = nn.conv2d(%97, %param71_weight, padding=[0, 0, 0, 0], channels=128, kernel_size=[1, 1]) /* ty=Tensor[(1, 128, 6, 6), float32] */;
  %99 = reshape(%98, newshape=[0, 16, -1]) /* ty=Tensor[(1, 16, 288), float32] */;
  %100 = nn.instance_norm(%99, %param72_bias, %param73_bias) /* ty=Tensor[(1, 16, 288), float32] */;
  %101 = reshape(%100, newshape=[1, 128, 6, 6]) /* ty=Tensor[(1, 128, 6, 6), float32] */;
  %102 = multiply(%101, %param74_weight) /* ty=Tensor[(1, 128, 6, 6), float32] */;
  %103 = add(%102, %param75_weight) /* ty=Tensor[(1, 128, 6, 6), float32] */;
  %104 = nn.relu(%103) /* ty=Tensor[(1, 128, 6, 6), float32] */;
  %105 = nn.conv2d(%104, %param76_weight, padding=[1, 1, 1, 1], groups=128, channels=128, kernel_size=[3, 3]) /* ty=Tensor[(1, 128, 6, 6), float32] */;
  %106 = reshape(%105, newshape=[0, 16, -1]) /* ty=Tensor[(1, 16, 288), float32] */;
  %107 = nn.instance_norm(%106, %param77_bias, %param78_bias) /* ty=Tensor[(1, 16, 288), float32] */;
  %108 = reshape(%107, newshape=[1, 128, 6, 6]) /* ty=Tensor[(1, 128, 6, 6), float32] */;
  %109 = multiply(%108, %param79_weight) /* ty=Tensor[(1, 128, 6, 6), float32] */;
  %110 = add(%109, %param80_weight) /* ty=Tensor[(1, 128, 6, 6), float32] */;
  %111 = nn.relu(%110) /* ty=Tensor[(1, 128, 6, 6), float32] */;
  %112 = nn.conv2d(%111, %param81_weight, padding=[0, 0, 0, 0], channels=128, kernel_size=[1, 1]) /* ty=Tensor[(1, 128, 6, 6), float32] */;
  %113 = reshape(%112, newshape=[0, 16, -1]) /* ty=Tensor[(1, 16, 288), float32] */;
  %114 = nn.instance_norm(%113, %param82_bias, %param83_bias) /* ty=Tensor[(1, 16, 288), float32] */;
  %115 = reshape(%114, newshape=[1, 128, 6, 6]) /* ty=Tensor[(1, 128, 6, 6), float32] */;
  %116 = multiply(%115, %param84_weight) /* ty=Tensor[(1, 128, 6, 6), float32] */;
  %117 = add(%116, %param85_weight) /* ty=Tensor[(1, 128, 6, 6), float32] */;
  %118 = nn.relu(%117) /* ty=Tensor[(1, 128, 6, 6), float32] */;
  %119 = nn.conv2d(%118, %param86_weight, padding=[1, 1, 1, 1], groups=128, channels=128, kernel_size=[3, 3]) /* ty=Tensor[(1, 128, 6, 6), float32] */;
  %120 = reshape(%119, newshape=[0, 16, -1]) /* ty=Tensor[(1, 16, 288), float32] */;
  %121 = nn.instance_norm(%120, %param87_bias, %param88_bias) /* ty=Tensor[(1, 16, 288), float32] */;
  %122 = reshape(%121, newshape=[1, 128, 6, 6]) /* ty=Tensor[(1, 128, 6, 6), float32] */;
  %123 = multiply(%122, %param89_weight) /* ty=Tensor[(1, 128, 6, 6), float32] */;
  %124 = add(%123, %param90_weight) /* ty=Tensor[(1, 128, 6, 6), float32] */;
  %125 = nn.relu(%124) /* ty=Tensor[(1, 128, 6, 6), float32] */;
  %126 = nn.conv2d(%125, %param91_weight, padding=[0, 0, 0, 0], channels=128, kernel_size=[1, 1]) /* ty=Tensor[(1, 128, 6, 6), float32] */;
  %127 = reshape(%126, newshape=[0, 16, -1]) /* ty=Tensor[(1, 16, 288), float32] */;
  %128 = nn.instance_norm(%127, %param92_bias, %param93_bias) /* ty=Tensor[(1, 16, 288), float32] */;
  %129 = reshape(%128, newshape=[1, 128, 6, 6]) /* ty=Tensor[(1, 128, 6, 6), float32] */;
  %130 = multiply(%129, %param94_weight) /* ty=Tensor[(1, 128, 6, 6), float32] */;
  %131 = add(%130, %param95_weight) /* ty=Tensor[(1, 128, 6, 6), float32] */;
  %132 = nn.relu(%131) /* ty=Tensor[(1, 128, 6, 6), float32] */;
  %133 = nn.conv2d(%132, %param96_weight, padding=[1, 1, 1, 1], groups=128, channels=128, kernel_size=[3, 3]) /* ty=Tensor[(1, 128, 6, 6), float32] */;
  %134 = reshape(%133, newshape=[0, 16, -1]) /* ty=Tensor[(1, 16, 288), float32] */;
  %135 = nn.instance_norm(%134, %param97_bias, %param98_bias) /* ty=Tensor[(1, 16, 288), float32] */;
  %136 = reshape(%135, newshape=[1, 128, 6, 6]) /* ty=Tensor[(1, 128, 6, 6), float32] */;
  %137 = multiply(%136, %param99_weight) /* ty=Tensor[(1, 128, 6, 6), float32] */;
  %138 = add(%137, %param100_weight) /* ty=Tensor[(1, 128, 6, 6), float32] */;
  %139 = nn.relu(%138) /* ty=Tensor[(1, 128, 6, 6), float32] */;
  %140 = nn.conv2d(%139, %param101_weight, padding=[0, 0, 0, 0], channels=128, kernel_size=[1, 1]) /* ty=Tensor[(1, 128, 6, 6), float32] */;
  %141 = reshape(%140, newshape=[0, 16, -1]) /* ty=Tensor[(1, 16, 288), float32] */;
  %142 = nn.instance_norm(%141, %param102_bias, %param103_bias) /* ty=Tensor[(1, 16, 288), float32] */;
  %143 = reshape(%142, newshape=[1, 128, 6, 6]) /* ty=Tensor[(1, 128, 6, 6), float32] */;
  %144 = multiply(%143, %param104_weight) /* ty=Tensor[(1, 128, 6, 6), float32] */;
  %145 = add(%144, %param105_weight) /* ty=Tensor[(1, 128, 6, 6), float32] */;
  %146 = nn.relu(%145) /* ty=Tensor[(1, 128, 6, 6), float32] */;
  %147 = nn.conv2d(%146, %param106_weight, padding=[1, 1, 1, 1], groups=128, channels=128, kernel_size=[3, 3]) /* ty=Tensor[(1, 128, 6, 6), float32] */;
  %148 = reshape(%147, newshape=[0, 16, -1]) /* ty=Tensor[(1, 16, 288), float32] */;
  %149 = nn.instance_norm(%148, %param107_bias, %param108_bias) /* ty=Tensor[(1, 16, 288), float32] */;
  %150 = reshape(%149, newshape=[1, 128, 6, 6]) /* ty=Tensor[(1, 128, 6, 6), float32] */;
  %151 = multiply(%150, %param109_weight) /* ty=Tensor[(1, 128, 6, 6), float32] */;
  %152 = add(%151, %param110_weight) /* ty=Tensor[(1, 128, 6, 6), float32] */;
  %153 = nn.relu(%152) /* ty=Tensor[(1, 128, 6, 6), float32] */;
  %154 = nn.conv2d(%153, %param111_weight, padding=[0, 0, 0, 0], channels=128, kernel_size=[1, 1]) /* ty=Tensor[(1, 128, 6, 6), float32] */;
  %155 = reshape(%154, newshape=[0, 16, -1]) /* ty=Tensor[(1, 16, 288), float32] */;
  %156 = nn.instance_norm(%155, %param112_bias, %param113_bias) /* ty=Tensor[(1, 16, 288), float32] */;
  %157 = reshape(%156, newshape=[1, 128, 6, 6]) /* ty=Tensor[(1, 128, 6, 6), float32] */;
  %158 = multiply(%157, %param114_weight) /* ty=Tensor[(1, 128, 6, 6), float32] */;
  %159 = add(%158, %param115_weight) /* ty=Tensor[(1, 128, 6, 6), float32] */;
  %160 = nn.relu(%159) /* ty=Tensor[(1, 128, 6, 6), float32] */;
  %161 = nn.conv2d(%160, %param116_weight, strides=[2, 2], padding=[1, 1, 1, 1], groups=128, channels=128, kernel_size=[3, 3]) /* ty=Tensor[(1, 128, 3, 3), float32] */;
  %162 = reshape(%161, newshape=[0, 16, -1]) /* ty=Tensor[(1, 16, 72), float32] */;
  %163 = nn.instance_norm(%162, %param117_bias, %param118_bias) /* ty=Tensor[(1, 16, 72), float32] */;
  %164 = reshape(%163, newshape=[1, 128, 3, 3]) /* ty=Tensor[(1, 128, 3, 3), float32] */;
  %165 = multiply(%164, %param119_weight) /* ty=Tensor[(1, 128, 3, 3), float32] */;
  %166 = add(%165, %param120_weight) /* ty=Tensor[(1, 128, 3, 3), float32] */;
  %167 = nn.relu(%166) /* ty=Tensor[(1, 128, 3, 3), float32] */;
  %168 = nn.conv2d(%167, %param121_weight, padding=[0, 0, 0, 0], channels=256, kernel_size=[1, 1]) /* ty=Tensor[(1, 256, 3, 3), float32] */;
  %169 = reshape(%168, newshape=[0, 32, -1]) /* ty=Tensor[(1, 32, 72), float32] */;
  %170 = nn.instance_norm(%169, %param122_bias, %param123_bias) /* ty=Tensor[(1, 32, 72), float32] */;
  %171 = reshape(%170, newshape=[1, 256, 3, 3]) /* ty=Tensor[(1, 256, 3, 3), float32] */;
  %172 = multiply(%171, %param124_weight) /* ty=Tensor[(1, 256, 3, 3), float32] */;
  %173 = add(%172, %param125_weight) /* ty=Tensor[(1, 256, 3, 3), float32] */;
  %174 = nn.relu(%173) /* ty=Tensor[(1, 256, 3, 3), float32] */;
  %175 = nn.conv2d(%174, %param126_weight, padding=[1, 1, 1, 1], groups=256, channels=256, kernel_size=[3, 3]) /* ty=Tensor[(1, 256, 3, 3), float32] */;
  %176 = reshape(%175, newshape=[0, 32, -1]) /* ty=Tensor[(1, 32, 72), float32] */;
  %177 = nn.instance_norm(%176, %param127_bias, %param128_bias) /* ty=Tensor[(1, 32, 72), float32] */;
  %178 = reshape(%177, newshape=[1, 256, 3, 3]) /* ty=Tensor[(1, 256, 3, 3), float32] */;
  %179 = multiply(%178, %param129_weight) /* ty=Tensor[(1, 256, 3, 3), float32] */;
  %180 = add(%179, %param130_weight) /* ty=Tensor[(1, 256, 3, 3), float32] */;
  %181 = nn.relu(%180) /* ty=Tensor[(1, 256, 3, 3), float32] */;
  %182 = nn.conv2d(%181, %param131_weight, padding=[0, 0, 0, 0], channels=256, kernel_size=[1, 1]) /* ty=Tensor[(1, 256, 3, 3), float32] */;
  %183 = reshape(%182, newshape=[0, 32, -1]) /* ty=Tensor[(1, 32, 72), float32] */;
  %184 = nn.instance_norm(%183, %param132_bias, %param133_bias) /* ty=Tensor[(1, 32, 72), float32] */;
  %185 = reshape(%184, newshape=[1, 256, 3, 3]) /* ty=Tensor[(1, 256, 3, 3), float32] */;
  %186 = multiply(%185, %param134_weight) /* ty=Tensor[(1, 256, 3, 3), float32] */;
  %187 = add(%186, %param135_weight) /* ty=Tensor[(1, 256, 3, 3), float32] */;
  %188 = nn.relu(%187) /* ty=Tensor[(1, 256, 3, 3), float32] */;
  %189 = nn.pad(%188, 0f /* ty=float32 */, pad_width=[[0, 0], [0, 0], [0, 0], [0, 0]]) /* ty=Tensor[(1, 256, 3, 3), float32] */;
  %190 = nn.avg_pool2d(%189, pool_size=[3, 3], strides=[3, 3], padding=[0, 0, 0, 0]) /* ty=Tensor[(1, 256, 1, 1), float32] */;
  %191 = nn.batch_flatten(%190) /* ty=Tensor[(1, 256), float32] */;
  %192 = nn.dense(%191, %param136_weight, units=2) /* ty=Tensor[(1, 2), float32] */;
  %193 = add(%192, %param137_bias) /* ty=Tensor[(1, 2), float32] */;
  %194 = reshape(%193, newshape=[0, 0]) /* ty=Tensor[(1, 2), float32] */;
  %195 = nn.log_softmax(%194) /* ty=Tensor[(1, 2), float32] */;
  %196 = nn.cross_entropy_with_logits(%195, %label) /* ty=float32 */;
  %197 = copy(%data_0) /* ty=Tensor[(1, 3, 96, 96), float32] */;
  (%196, %195, %195, %191, %190, %189, %187, %185, %183, %181, %180, %178, %176, %174, %173, %171, %169, %167, %166, %164, %162, %160, %159, %157, %155, %153, %152, %150, %148, %146, %145, %143, %141, %139, %138, %136, %134, %132, %131, %129, %127, %125, %124, %122, %120, %118, %117, %115, %113, %111, %110, %108, %106, %104, %103, %101, %99, %97, %96, %94, %92, %90, %89, %87, %85, %83, %82, %80, %78, %76, %75, %73, %71, %69, %68, %66, %64, %62, %61, %59, %57, %55, %54, %52, %50, %48, %47, %45, %43, %41, %40, %38, %36, %34, %33, %31, %29, %27, %26, %24, %22, %20, %19, %17, %15, %13, %12, %10, %8, %6, %5, %3, %1, %197)
}
