def @main(%nn_cross_entropy_with_logits_0_pred: Tensor[(1, 2), float32], %nn_log_softmax_1_y: Tensor[(1, 2), float32], %nn_dense_5_x: Tensor[(1, 256), float32], %nn_batch_flatten_6_x: Tensor[(1, 256, 1, 1), float32], %nn_avg_pool2d_7_x: Tensor[(1, 256, 3, 3), float32], %nn_relu_9_x: Tensor[(1, 256, 3, 3), float32], %multiply_11_x: Tensor[(1, 256, 3, 3), float32], %nn_instance_norm_13_x: Tensor[(1, 32, 72), float32], %nn_conv2d_15_x: Tensor[(1, 256, 3, 3), float32], %nn_relu_16_x: Tensor[(1, 256, 3, 3), float32], %multiply_18_x: Tensor[(1, 256, 3, 3), float32], %nn_instance_norm_20_x: Tensor[(1, 32, 72), float32], %nn_conv2d_22_x: Tensor[(1, 256, 3, 3), float32], %nn_relu_23_x: Tensor[(1, 256, 3, 3), float32], %multiply_25_x: Tensor[(1, 256, 3, 3), float32], %nn_instance_norm_27_x: Tensor[(1, 32, 72), float32], %nn_conv2d_29_x: Tensor[(1, 128, 3, 3), float32], %nn_relu_30_x: Tensor[(1, 128, 3, 3), float32], %multiply_32_x: Tensor[(1, 128, 3, 3), float32], %nn_instance_norm_34_x: Tensor[(1, 16, 72), float32], %nn_conv2d_36_x: Tensor[(1, 128, 6, 6), float32], %nn_relu_37_x: Tensor[(1, 128, 6, 6), float32], %multiply_39_x: Tensor[(1, 128, 6, 6), float32], %nn_instance_norm_41_x: Tensor[(1, 16, 288), float32], %nn_conv2d_43_x: Tensor[(1, 128, 6, 6), float32], %nn_relu_44_x: Tensor[(1, 128, 6, 6), float32], %multiply_46_x: Tensor[(1, 128, 6, 6), float32], %nn_instance_norm_48_x: Tensor[(1, 16, 288), float32], %nn_conv2d_50_x: Tensor[(1, 128, 6, 6), float32], %nn_relu_51_x: Tensor[(1, 128, 6, 6), float32], %multiply_53_x: Tensor[(1, 128, 6, 6), float32], %nn_instance_norm_55_x: Tensor[(1, 16, 288), float32], %nn_conv2d_57_x: Tensor[(1, 128, 6, 6), float32], %nn_relu_58_x: Tensor[(1, 128, 6, 6), float32], %multiply_60_x: Tensor[(1, 128, 6, 6), float32], %nn_instance_norm_62_x: Tensor[(1, 16, 288), float32], %nn_conv2d_64_x: Tensor[(1, 128, 6, 6), float32], %nn_relu_65_x: Tensor[(1, 128, 6, 6), float32], %multiply_67_x: Tensor[(1, 128, 6, 6), float32], %nn_instance_norm_69_x: Tensor[(1, 16, 288), float32], %nn_conv2d_71_x: Tensor[(1, 128, 6, 6), float32], %nn_relu_72_x: Tensor[(1, 128, 6, 6), float32], %multiply_74_x: Tensor[(1, 128, 6, 6), float32], %nn_instance_norm_76_x: Tensor[(1, 16, 288), float32], %nn_conv2d_78_x: Tensor[(1, 128, 6, 6), float32], %nn_relu_79_x: Tensor[(1, 128, 6, 6), float32], %multiply_81_x: Tensor[(1, 128, 6, 6), float32], %nn_instance_norm_83_x: Tensor[(1, 16, 288), float32], %nn_conv2d_85_x: Tensor[(1, 128, 6, 6), float32], %nn_relu_86_x: Tensor[(1, 128, 6, 6), float32], %multiply_88_x: Tensor[(1, 128, 6, 6), float32], %nn_instance_norm_90_x: Tensor[(1, 16, 288), float32], %nn_conv2d_92_x: Tensor[(1, 128, 6, 6), float32], %nn_relu_93_x: Tensor[(1, 128, 6, 6), float32], %multiply_95_x: Tensor[(1, 128, 6, 6), float32], %nn_instance_norm_97_x: Tensor[(1, 16, 288), float32], %nn_conv2d_99_x: Tensor[(1, 128, 6, 6), float32], %nn_relu_100_x: Tensor[(1, 128, 6, 6), float32], %multiply_102_x: Tensor[(1, 128, 6, 6), float32], %nn_instance_norm_104_x: Tensor[(1, 16, 288), float32], %nn_conv2d_106_x: Tensor[(1, 128, 6, 6), float32], %nn_relu_107_x: Tensor[(1, 128, 6, 6), float32], %multiply_109_x: Tensor[(1, 128, 6, 6), float32], %nn_instance_norm_111_x: Tensor[(1, 16, 288), float32], %nn_conv2d_113_x: Tensor[(1, 64, 6, 6), float32], %nn_relu_114_x: Tensor[(1, 64, 6, 6), float32], %multiply_116_x: Tensor[(1, 64, 6, 6), float32], %nn_instance_norm_118_x: Tensor[(1, 8, 288), float32], %nn_conv2d_120_x: Tensor[(1, 64, 12, 12), float32], %nn_relu_121_x: Tensor[(1, 64, 12, 12), float32], %multiply_123_x: Tensor[(1, 64, 12, 12), float32], %nn_instance_norm_125_x: Tensor[(1, 8, 1152), float32], %nn_conv2d_127_x: Tensor[(1, 64, 12, 12), float32], %nn_relu_128_x: Tensor[(1, 64, 12, 12), float32], %multiply_130_x: Tensor[(1, 64, 12, 12), float32], %nn_instance_norm_132_x: Tensor[(1, 8, 1152), float32], %nn_conv2d_134_x: Tensor[(1, 64, 12, 12), float32], %nn_relu_135_x: Tensor[(1, 64, 12, 12), float32], %multiply_137_x: Tensor[(1, 64, 12, 12), float32], %nn_instance_norm_139_x: Tensor[(1, 8, 1152), float32], %nn_conv2d_141_x: Tensor[(1, 32, 12, 12), float32], %nn_relu_142_x: Tensor[(1, 32, 12, 12), float32], %multiply_144_x: Tensor[(1, 32, 12, 12), float32], %nn_instance_norm_146_x: Tensor[(1, 4, 1152), float32], %nn_conv2d_148_x: Tensor[(1, 32, 24, 24), float32], %nn_relu_149_x: Tensor[(1, 32, 24, 24), float32], %multiply_151_x: Tensor[(1, 32, 24, 24), float32], %nn_instance_norm_153_x: Tensor[(1, 4, 4608), float32], %nn_conv2d_155_x: Tensor[(1, 32, 24, 24), float32], %nn_relu_156_x: Tensor[(1, 32, 24, 24), float32], %multiply_158_x: Tensor[(1, 32, 24, 24), float32], %nn_instance_norm_160_x: Tensor[(1, 4, 4608), float32], %nn_conv2d_162_x: Tensor[(1, 32, 24, 24), float32], %nn_relu_163_x: Tensor[(1, 32, 24, 24), float32], %multiply_165_x: Tensor[(1, 32, 24, 24), float32], %nn_instance_norm_167_x: Tensor[(1, 4, 4608), float32], %nn_conv2d_169_x: Tensor[(1, 16, 24, 24), float32], %nn_relu_170_x: Tensor[(1, 16, 24, 24), float32], %multiply_172_x: Tensor[(1, 16, 24, 24), float32], %nn_instance_norm_174_x: Tensor[(1, 2, 4608), float32], %nn_conv2d_176_x: Tensor[(1, 16, 48, 48), float32], %nn_relu_177_x: Tensor[(1, 16, 48, 48), float32], %multiply_179_x: Tensor[(1, 16, 48, 48), float32], %nn_instance_norm_181_x: Tensor[(1, 2, 18432), float32], %nn_conv2d_183_x: Tensor[(1, 8, 48, 48), float32], %nn_relu_184_x: Tensor[(1, 8, 48, 48), float32], %multiply_186_x: Tensor[(1, 8, 48, 48), float32], %nn_instance_norm_188_x: Tensor[(1, 1, 18432), float32], %nn_conv2d_190_x: Tensor[(1, 8, 48, 48), float32], %nn_relu_191_x: Tensor[(1, 8, 48, 48), float32], %multiply_193_x: Tensor[(1, 8, 48, 48), float32], %nn_instance_norm_195_x: Tensor[(1, 1, 18432), float32], %nn_conv2d_197_x: Tensor[(1, 3, 96, 96), float32], %data_0: Tensor[(1, 3, 96, 96), float32], %param1_weight: Tensor[(8, 3, 3, 3), float32], %param2_bias: Tensor[(1), float32], %param3_bias: Tensor[(1), float32], %param4_weight: Tensor[(8, 1, 1), float32], %param5_weight: Tensor[(8, 1, 1), float32], %param6_weight: Tensor[(8, 1, 3, 3), float32], %param7_bias: Tensor[(1), float32], %param8_bias: Tensor[(1), float32], %param9_weight: Tensor[(8, 1, 1), float32], %param10_weight: Tensor[(8, 1, 1), float32], %param11_weight: Tensor[(16, 8, 1, 1), float32], %param12_bias: Tensor[(2), float32], %param13_bias: Tensor[(2), float32], %param14_weight: Tensor[(16, 1, 1), float32], %param15_weight: Tensor[(16, 1, 1), float32], %param16_weight: Tensor[(16, 1, 3, 3), float32], %param17_bias: Tensor[(2), float32], %param18_bias: Tensor[(2), float32], %param19_weight: Tensor[(16, 1, 1), float32], %param20_weight: Tensor[(16, 1, 1), float32], %param21_weight: Tensor[(32, 16, 1, 1), float32], %param22_bias: Tensor[(4), float32], %param23_bias: Tensor[(4), float32], %param24_weight: Tensor[(32, 1, 1), float32], %param25_weight: Tensor[(32, 1, 1), float32], %param26_weight: Tensor[(32, 1, 3, 3), float32], %param27_bias: Tensor[(4), float32], %param28_bias: Tensor[(4), float32], %param29_weight: Tensor[(32, 1, 1), float32], %param30_weight: Tensor[(32, 1, 1), float32], %param31_weight: Tensor[(32, 32, 1, 1), float32], %param32_bias: Tensor[(4), float32], %param33_bias: Tensor[(4), float32], %param34_weight: Tensor[(32, 1, 1), float32], %param35_weight: Tensor[(32, 1, 1), float32], %param36_weight: Tensor[(32, 1, 3, 3), float32], %param37_bias: Tensor[(4), float32], %param38_bias: Tensor[(4), float32], %param39_weight: Tensor[(32, 1, 1), float32], %param40_weight: Tensor[(32, 1, 1), float32], %param41_weight: Tensor[(64, 32, 1, 1), float32], %param42_bias: Tensor[(8), float32], %param43_bias: Tensor[(8), float32], %param44_weight: Tensor[(64, 1, 1), float32], %param45_weight: Tensor[(64, 1, 1), float32], %param46_weight: Tensor[(64, 1, 3, 3), float32], %param47_bias: Tensor[(8), float32], %param48_bias: Tensor[(8), float32], %param49_weight: Tensor[(64, 1, 1), float32], %param50_weight: Tensor[(64, 1, 1), float32], %param51_weight: Tensor[(64, 64, 1, 1), float32], %param52_bias: Tensor[(8), float32], %param53_bias: Tensor[(8), float32], %param54_weight: Tensor[(64, 1, 1), float32], %param55_weight: Tensor[(64, 1, 1), float32], %param56_weight: Tensor[(64, 1, 3, 3), float32], %param57_bias: Tensor[(8), float32], %param58_bias: Tensor[(8), float32], %param59_weight: Tensor[(64, 1, 1), float32], %param60_weight: Tensor[(64, 1, 1), float32], %param61_weight: Tensor[(128, 64, 1, 1), float32], %param62_bias: Tensor[(16), float32], %param63_bias: Tensor[(16), float32], %param64_weight: Tensor[(128, 1, 1), float32], %param65_weight: Tensor[(128, 1, 1), float32], %param66_weight: Tensor[(128, 1, 3, 3), float32], %param67_bias: Tensor[(16), float32], %param68_bias: Tensor[(16), float32], %param69_weight: Tensor[(128, 1, 1), float32], %param70_weight: Tensor[(128, 1, 1), float32], %param71_weight: Tensor[(128, 128, 1, 1), float32], %param72_bias: Tensor[(16), float32], %param73_bias: Tensor[(16), float32], %param74_weight: Tensor[(128, 1, 1), float32], %param75_weight: Tensor[(128, 1, 1), float32], %param76_weight: Tensor[(128, 1, 3, 3), float32], %param77_bias: Tensor[(16), float32], %param78_bias: Tensor[(16), float32], %param79_weight: Tensor[(128, 1, 1), float32], %param80_weight: Tensor[(128, 1, 1), float32], %param81_weight: Tensor[(128, 128, 1, 1), float32], %param82_bias: Tensor[(16), float32], %param83_bias: Tensor[(16), float32], %param84_weight: Tensor[(128, 1, 1), float32], %param85_weight: Tensor[(128, 1, 1), float32], %param86_weight: Tensor[(128, 1, 3, 3), float32], %param87_bias: Tensor[(16), float32], %param88_bias: Tensor[(16), float32], %param89_weight: Tensor[(128, 1, 1), float32], %param90_weight: Tensor[(128, 1, 1), float32], %param91_weight: Tensor[(128, 128, 1, 1), float32], %param92_bias: Tensor[(16), float32], %param93_bias: Tensor[(16), float32], %param94_weight: Tensor[(128, 1, 1), float32], %param95_weight: Tensor[(128, 1, 1), float32], %param96_weight: Tensor[(128, 1, 3, 3), float32], %param97_bias: Tensor[(16), float32], %param98_bias: Tensor[(16), float32], %param99_weight: Tensor[(128, 1, 1), float32], %param100_weight: Tensor[(128, 1, 1), float32], %param101_weight: Tensor[(128, 128, 1, 1), float32], %param102_bias: Tensor[(16), float32], %param103_bias: Tensor[(16), float32], %param104_weight: Tensor[(128, 1, 1), float32], %param105_weight: Tensor[(128, 1, 1), float32], %param106_weight: Tensor[(128, 1, 3, 3), float32], %param107_bias: Tensor[(16), float32], %param108_bias: Tensor[(16), float32], %param109_weight: Tensor[(128, 1, 1), float32], %param110_weight: Tensor[(128, 1, 1), float32], %param111_weight: Tensor[(128, 128, 1, 1), float32], %param112_bias: Tensor[(16), float32], %param113_bias: Tensor[(16), float32], %param114_weight: Tensor[(128, 1, 1), float32], %param115_weight: Tensor[(128, 1, 1), float32], %param116_weight: Tensor[(128, 1, 3, 3), float32], %param117_bias: Tensor[(16), float32], %param118_bias: Tensor[(16), float32], %param119_weight: Tensor[(128, 1, 1), float32], %param120_weight: Tensor[(128, 1, 1), float32], %param121_weight: Tensor[(256, 128, 1, 1), float32], %param122_bias: Tensor[(32), float32], %param123_bias: Tensor[(32), float32], %param124_weight: Tensor[(256, 1, 1), float32], %param125_weight: Tensor[(256, 1, 1), float32], %param126_weight: Tensor[(256, 1, 3, 3), float32], %param127_bias: Tensor[(32), float32], %param128_bias: Tensor[(32), float32], %param129_weight: Tensor[(256, 1, 1), float32], %param130_weight: Tensor[(256, 1, 1), float32], %param131_weight: Tensor[(256, 256, 1, 1), float32], %param132_bias: Tensor[(32), float32], %param133_bias: Tensor[(32), float32], %param134_weight: Tensor[(256, 1, 1), float32], %param135_weight: Tensor[(256, 1, 1), float32], %param136_weight: Tensor[(2, 256), float32], %param137_bias: Tensor[(2), float32], %label: Tensor[(1, 2), float32]) -> (Tensor[(1, 2), float32], Tensor[(2, 256), float32], Tensor[(1, 256, 3, 3), float32], Tensor[(1, 256, 3, 3), float32], Tensor[(32), float32], Tensor[(32), float32], Tensor[(256, 256, 1, 1), float32], Tensor[(1, 256, 3, 3), float32], Tensor[(1, 256, 3, 3), float32], Tensor[(32), float32], Tensor[(32), float32], Tensor[(256, 1, 3, 3), float32], Tensor[(1, 256, 3, 3), float32], Tensor[(1, 256, 3, 3), float32], Tensor[(32), float32], Tensor[(32), float32], Tensor[(256, 128, 1, 1), float32], Tensor[(1, 128, 3, 3), float32], Tensor[(1, 128, 3, 3), float32], Tensor[(16), float32], Tensor[(16), float32], Tensor[(128, 1, 3, 3), float32], Tensor[(1, 128, 6, 6), float32], Tensor[(1, 128, 6, 6), float32], Tensor[(16), float32], Tensor[(16), float32], Tensor[(128, 128, 1, 1), float32], Tensor[(1, 128, 6, 6), float32], Tensor[(1, 128, 6, 6), float32], Tensor[(16), float32], Tensor[(16), float32], Tensor[(128, 1, 3, 3), float32], Tensor[(1, 128, 6, 6), float32], Tensor[(1, 128, 6, 6), float32], Tensor[(16), float32], Tensor[(16), float32], Tensor[(128, 128, 1, 1), float32], Tensor[(1, 128, 6, 6), float32], Tensor[(1, 128, 6, 6), float32], Tensor[(16), float32], Tensor[(16), float32], Tensor[(128, 1, 3, 3), float32], Tensor[(1, 128, 6, 6), float32], Tensor[(1, 128, 6, 6), float32], Tensor[(16), float32], Tensor[(16), float32], Tensor[(128, 128, 1, 1), float32], Tensor[(1, 128, 6, 6), float32], Tensor[(1, 128, 6, 6), float32], Tensor[(16), float32], Tensor[(16), float32], Tensor[(128, 1, 3, 3), float32], Tensor[(1, 128, 6, 6), float32], Tensor[(1, 128, 6, 6), float32], Tensor[(16), float32], Tensor[(16), float32], Tensor[(128, 128, 1, 1), float32], Tensor[(1, 128, 6, 6), float32], Tensor[(1, 128, 6, 6), float32], Tensor[(16), float32], Tensor[(16), float32], Tensor[(128, 1, 3, 3), float32], Tensor[(1, 128, 6, 6), float32], Tensor[(1, 128, 6, 6), float32], Tensor[(16), float32], Tensor[(16), float32], Tensor[(128, 128, 1, 1), float32], Tensor[(1, 128, 6, 6), float32], Tensor[(1, 128, 6, 6), float32], Tensor[(16), float32], Tensor[(16), float32], Tensor[(128, 1, 3, 3), float32], Tensor[(1, 128, 6, 6), float32], Tensor[(1, 128, 6, 6), float32], Tensor[(16), float32], Tensor[(16), float32], Tensor[(128, 64, 1, 1), float32], Tensor[(1, 64, 6, 6), float32], Tensor[(1, 64, 6, 6), float32], Tensor[(8), float32], Tensor[(8), float32], Tensor[(64, 1, 3, 3), float32], Tensor[(1, 64, 12, 12), float32], Tensor[(1, 64, 12, 12), float32], Tensor[(8), float32], Tensor[(8), float32], Tensor[(64, 64, 1, 1), float32], Tensor[(1, 64, 12, 12), float32], Tensor[(1, 64, 12, 12), float32], Tensor[(8), float32], Tensor[(8), float32], Tensor[(64, 1, 3, 3), float32], Tensor[(1, 64, 12, 12), float32], Tensor[(1, 64, 12, 12), float32], Tensor[(8), float32], Tensor[(8), float32], Tensor[(64, 32, 1, 1), float32], Tensor[(1, 32, 12, 12), float32], Tensor[(1, 32, 12, 12), float32], Tensor[(4), float32], Tensor[(4), float32], Tensor[(32, 1, 3, 3), float32], Tensor[(1, 32, 24, 24), float32], Tensor[(1, 32, 24, 24), float32], Tensor[(4), float32], Tensor[(4), float32], Tensor[(32, 32, 1, 1), float32], Tensor[(1, 32, 24, 24), float32], Tensor[(1, 32, 24, 24), float32], Tensor[(4), float32], Tensor[(4), float32], Tensor[(32, 1, 3, 3), float32], Tensor[(1, 32, 24, 24), float32], Tensor[(1, 32, 24, 24), float32], Tensor[(4), float32], Tensor[(4), float32], Tensor[(32, 16, 1, 1), float32], Tensor[(1, 16, 24, 24), float32], Tensor[(1, 16, 24, 24), float32], Tensor[(2), float32], Tensor[(2), float32], Tensor[(16, 1, 3, 3), float32], Tensor[(1, 16, 48, 48), float32], Tensor[(1, 16, 48, 48), float32], Tensor[(2), float32], Tensor[(2), float32], Tensor[(16, 8, 1, 1), float32], Tensor[(1, 8, 48, 48), float32], Tensor[(1, 8, 48, 48), float32], Tensor[(1), float32], Tensor[(1), float32], Tensor[(8, 1, 3, 3), float32], Tensor[(1, 8, 48, 48), float32], Tensor[(1, 8, 48, 48), float32], Tensor[(1), float32], Tensor[(1), float32], Tensor[(8, 3, 3, 3), float32]) {
  %0 = ones(shape=[], dtype="float32") /* ty=float32 */;
  %1 = negative(%0) /* ty=float32 */;
  %2 = multiply(%1, %label) /* ty=Tensor[(1, 2), float32] */;
  %3 = sum(%2, axis=[-1], keepdims=True) /* ty=Tensor[(1, 1), float32] */;
  %4 = exp(%nn_log_softmax_1_y) /* ty=Tensor[(1, 2), float32] */;
  %5 = multiply(%3, %4) /* ty=Tensor[(1, 2), float32] */;
  %6 = subtract(%2, %5) /* ty=Tensor[(1, 2), float32] */;
  %7 = reshape(%6, newshape=[1, 2]) /* ty=Tensor[(1, 2), float32] */;
  %8 = transpose(%7, axes=None) /* ty=Tensor[(2, 1), float32] */;
  %9 = zeros(shape=[1, 256, 3, 3], dtype="float32") /* ty=Tensor[(1, 256, 3, 3), float32] */;
  %10 = nn.matmul(%7, %param136_weight, units=None) /* ty=Tensor[(1, 256), float32] */;
  %11 = reshape(%10, newshape=[1, 256, 1, 1]) /* ty=Tensor[(1, 256, 1, 1), float32] */;
  %12 = nn.avg_pool2d_grad(%11, %nn_avg_pool2d_7_x, pool_size=[3, 3], strides=[3, 3], dilation=[], padding=[0, 0, 0, 0]) /* ty=Tensor[(1, 256, 3, 3), float32] */;
  %13 = less(%nn_relu_9_x, %9) /* ty=Tensor[(1, 256, 3, 3), bool] */;
  %14 = strided_slice(%12, begin=[0, 0, 0, 0], end=[None, None, None, None], strides=[1], axes=None) /* ty=Tensor[(1, 256, 3, 3), float32] */;
  %15 = where(%13, %9, %14) /* ty=Tensor[(1, 256, 3, 3), float32] */;
  %16 = multiply(%15, %param134_weight) /* ty=Tensor[(1, 256, 3, 3), float32] */;
  %17 = reshape(%16, newshape=[1, 256, 3, 3]) /* ty=Tensor[(1, 256, 3, 3), float32] */;
  %18 = tile(%17, reps=[1, 256, 1, 1]) /* ty=Tensor[(1, 65536, 3, 3), float32] */;
  %19 = reshape(%nn_conv2d_15_x, newshape=[1, -1, 0, 0]) /* ty=Tensor[(1, 256, 3, 3), float32] */;
  %20 = reshape(%18, newshape=[-1, 1, 0, 0]) /* ty=Tensor[(65536, 1, 3, 3), float32] */;
  %21 = nn.conv2d(%19, %20, padding=[0, 0, 0, 0], groups=256, channels=65536, kernel_size=[3, 3]) /* ty=Tensor[(1, 65536, 1, 1), float32] */;
  %22 = reshape(%21, newshape=[1, 256, 256, 1, 1]) /* ty=Tensor[(1, 256, 256, 1, 1), float32] */;
  %23 = sum(%22, axis=[0]) /* ty=Tensor[(256, 256, 1, 1), float32] */;
  %24 = zeros(shape=[1, 256, 3, 3], dtype="float32") /* ty=Tensor[(1, 256, 3, 3), float32] */;
  %25 = less(%nn_relu_16_x, %24) /* ty=Tensor[(1, 256, 3, 3), bool] */;
  %26 = nn.conv2d_transpose(%17, %param131_weight, channels=256, kernel_size=[1, 1], padding=[0, 0, 0, 0], kernel_layout="IOHW") /* ty=Tensor[(1, 256, 3, 3), float32] */;
  %27 = where(%25, %24, %26) /* ty=Tensor[(1, 256, 3, 3), float32] */;
  %28 = multiply(%27, %param129_weight) /* ty=Tensor[(1, 256, 3, 3), float32] */;
  %29 = reshape(%28, newshape=[1, 256, 3, 3]) /* ty=Tensor[(1, 256, 3, 3), float32] */;
  %30 = tile(%29, reps=[1, 1, 1, 1]) /* ty=Tensor[(1, 256, 3, 3), float32] */;
  %31 = reshape(%nn_conv2d_22_x, newshape=[1, -1, 0, 0]) /* ty=Tensor[(1, 256, 3, 3), float32] */;
  %32 = reshape(%30, newshape=[-1, 1, 0, 0]) /* ty=Tensor[(256, 1, 3, 3), float32] */;
  %33 = nn.conv2d(%31, %32, padding=[1, 1, 1, 1], groups=256, channels=256, kernel_size=[3, 3]) /* ty=Tensor[(1, 256, 3, 3), float32] */;
  %34 = reshape(%33, newshape=[1, 1, 256, 3, 3]) /* ty=Tensor[(1, 1, 256, 3, 3), float32] */;
  %35 = sum(%34, axis=[0]) /* ty=Tensor[(1, 256, 3, 3), float32] */;
  %36 = zeros(shape=[1, 256, 3, 3], dtype="float32") /* ty=Tensor[(1, 256, 3, 3), float32] */;
  %37 = less(%nn_relu_23_x, %36) /* ty=Tensor[(1, 256, 3, 3), bool] */;
  %38 = nn.conv2d_transpose(%29, %param126_weight, channels=256, kernel_size=[3, 3], padding=[1, 1, 1, 1], groups=256, kernel_layout="IOHW") /* ty=Tensor[(1, 256, 3, 3), float32] */;
  %39 = where(%37, %36, %38) /* ty=Tensor[(1, 256, 3, 3), float32] */;
  %40 = multiply(%39, %param124_weight) /* ty=Tensor[(1, 256, 3, 3), float32] */;
  %41 = reshape(%40, newshape=[1, 256, 3, 3]) /* ty=Tensor[(1, 256, 3, 3), float32] */;
  %42 = tile(%41, reps=[1, 128, 1, 1]) /* ty=Tensor[(1, 32768, 3, 3), float32] */;
  %43 = reshape(%nn_conv2d_29_x, newshape=[1, -1, 0, 0]) /* ty=Tensor[(1, 128, 3, 3), float32] */;
  %44 = reshape(%42, newshape=[-1, 1, 0, 0]) /* ty=Tensor[(32768, 1, 3, 3), float32] */;
  %45 = nn.conv2d(%43, %44, padding=[0, 0, 0, 0], groups=128, channels=32768, kernel_size=[3, 3]) /* ty=Tensor[(1, 32768, 1, 1), float32] */;
  %46 = reshape(%45, newshape=[1, 128, 256, 1, 1]) /* ty=Tensor[(1, 128, 256, 1, 1), float32] */;
  %47 = sum(%46, axis=[0]) /* ty=Tensor[(128, 256, 1, 1), float32] */;
  %48 = zeros(shape=[1, 128, 3, 3], dtype="float32") /* ty=Tensor[(1, 128, 3, 3), float32] */;
  %49 = less(%nn_relu_30_x, %48) /* ty=Tensor[(1, 128, 3, 3), bool] */;
  %50 = nn.conv2d_transpose(%41, %param121_weight, channels=128, kernel_size=[1, 1], padding=[0, 0, 0, 0], kernel_layout="IOHW") /* ty=Tensor[(1, 128, 3, 3), float32] */;
  %51 = where(%49, %48, %50) /* ty=Tensor[(1, 128, 3, 3), float32] */;
  %52 = multiply(%51, %param119_weight) /* ty=Tensor[(1, 128, 3, 3), float32] */;
  %53 = reshape(%52, newshape=[1, 128, 3, 3]) /* ty=Tensor[(1, 128, 3, 3), float32] */;
  %54 = tile(%53, reps=[1, 1, 1, 1]) /* ty=Tensor[(1, 128, 3, 3), float32] */;
  %55 = reshape(%nn_conv2d_36_x, newshape=[1, -1, 0, 0]) /* ty=Tensor[(1, 128, 6, 6), float32] */;
  %56 = reshape(%54, newshape=[-1, 1, 0, 0]) /* ty=Tensor[(128, 1, 3, 3), float32] */;
  %57 = nn.conv2d(%55, %56, padding=[1, 1, 1, 1], dilation=[2, 2], groups=128, channels=128, kernel_size=[3, 3]) /* ty=Tensor[(1, 128, 4, 4), float32] */;
  %58 = reshape(%57, newshape=[1, 1, 128, 4, 4]) /* ty=Tensor[(1, 1, 128, 4, 4), float32] */;
  %59 = sum(%58, axis=[0]) /* ty=Tensor[(1, 128, 4, 4), float32] */;
  %60 = transpose(%59, axes=[1, 0, 2, 3]) /* ty=Tensor[(128, 1, 4, 4), float32] */;
  %61 = zeros(shape=[1, 128, 6, 6], dtype="float32") /* ty=Tensor[(1, 128, 6, 6), float32] */;
  %62 = less(%nn_relu_37_x, %61) /* ty=Tensor[(1, 128, 6, 6), bool] */;
  %63 = nn.conv2d_transpose(%53, %param116_weight, channels=128, kernel_size=[3, 3], strides=[2, 2], output_padding=[1, 1], padding=[1, 1, 1, 1], groups=128, kernel_layout="IOHW") /* ty=Tensor[(1, 128, 6, 6), float32] */;
  %64 = where(%62, %61, %63) /* ty=Tensor[(1, 128, 6, 6), float32] */;
  %65 = multiply(%64, %param114_weight) /* ty=Tensor[(1, 128, 6, 6), float32] */;
  %66 = reshape(%65, newshape=[1, 128, 6, 6]) /* ty=Tensor[(1, 128, 6, 6), float32] */;
  %67 = tile(%66, reps=[1, 128, 1, 1]) /* ty=Tensor[(1, 16384, 6, 6), float32] */;
  %68 = reshape(%nn_conv2d_43_x, newshape=[1, -1, 0, 0]) /* ty=Tensor[(1, 128, 6, 6), float32] */;
  %69 = reshape(%67, newshape=[-1, 1, 0, 0]) /* ty=Tensor[(16384, 1, 6, 6), float32] */;
  %70 = nn.conv2d(%68, %69, padding=[0, 0, 0, 0], groups=128, channels=16384, kernel_size=[6, 6]) /* ty=Tensor[(1, 16384, 1, 1), float32] */;
  %71 = reshape(%70, newshape=[1, 128, 128, 1, 1]) /* ty=Tensor[(1, 128, 128, 1, 1), float32] */;
  %72 = sum(%71, axis=[0]) /* ty=Tensor[(128, 128, 1, 1), float32] */;
  %73 = zeros(shape=[1, 128, 6, 6], dtype="float32") /* ty=Tensor[(1, 128, 6, 6), float32] */;
  %74 = less(%nn_relu_44_x, %73) /* ty=Tensor[(1, 128, 6, 6), bool] */;
  %75 = nn.conv2d_transpose(%66, %param111_weight, channels=128, kernel_size=[1, 1], padding=[0, 0, 0, 0], kernel_layout="IOHW") /* ty=Tensor[(1, 128, 6, 6), float32] */;
  %76 = where(%74, %73, %75) /* ty=Tensor[(1, 128, 6, 6), float32] */;
  %77 = multiply(%76, %param109_weight) /* ty=Tensor[(1, 128, 6, 6), float32] */;
  %78 = reshape(%77, newshape=[1, 128, 6, 6]) /* ty=Tensor[(1, 128, 6, 6), float32] */;
  %79 = tile(%78, reps=[1, 1, 1, 1]) /* ty=Tensor[(1, 128, 6, 6), float32] */;
  %80 = reshape(%nn_conv2d_50_x, newshape=[1, -1, 0, 0]) /* ty=Tensor[(1, 128, 6, 6), float32] */;
  %81 = reshape(%79, newshape=[-1, 1, 0, 0]) /* ty=Tensor[(128, 1, 6, 6), float32] */;
  %82 = nn.conv2d(%80, %81, padding=[1, 1, 1, 1], groups=128, channels=128, kernel_size=[6, 6]) /* ty=Tensor[(1, 128, 3, 3), float32] */;
  %83 = reshape(%82, newshape=[1, 1, 128, 3, 3]) /* ty=Tensor[(1, 1, 128, 3, 3), float32] */;
  %84 = sum(%83, axis=[0]) /* ty=Tensor[(1, 128, 3, 3), float32] */;
  %85 = zeros(shape=[1, 128, 6, 6], dtype="float32") /* ty=Tensor[(1, 128, 6, 6), float32] */;
  %86 = less(%nn_relu_51_x, %85) /* ty=Tensor[(1, 128, 6, 6), bool] */;
  %87 = nn.conv2d_transpose(%78, %param106_weight, channels=128, kernel_size=[3, 3], padding=[1, 1, 1, 1], groups=128, kernel_layout="IOHW") /* ty=Tensor[(1, 128, 6, 6), float32] */;
  %88 = where(%86, %85, %87) /* ty=Tensor[(1, 128, 6, 6), float32] */;
  %89 = multiply(%88, %param104_weight) /* ty=Tensor[(1, 128, 6, 6), float32] */;
  %90 = reshape(%89, newshape=[1, 128, 6, 6]) /* ty=Tensor[(1, 128, 6, 6), float32] */;
  %91 = tile(%90, reps=[1, 128, 1, 1]) /* ty=Tensor[(1, 16384, 6, 6), float32] */;
  %92 = reshape(%nn_conv2d_57_x, newshape=[1, -1, 0, 0]) /* ty=Tensor[(1, 128, 6, 6), float32] */;
  %93 = reshape(%91, newshape=[-1, 1, 0, 0]) /* ty=Tensor[(16384, 1, 6, 6), float32] */;
  %94 = nn.conv2d(%92, %93, padding=[0, 0, 0, 0], groups=128, channels=16384, kernel_size=[6, 6]) /* ty=Tensor[(1, 16384, 1, 1), float32] */;
  %95 = reshape(%94, newshape=[1, 128, 128, 1, 1]) /* ty=Tensor[(1, 128, 128, 1, 1), float32] */;
  %96 = sum(%95, axis=[0]) /* ty=Tensor[(128, 128, 1, 1), float32] */;
  %97 = zeros(shape=[1, 128, 6, 6], dtype="float32") /* ty=Tensor[(1, 128, 6, 6), float32] */;
  %98 = less(%nn_relu_58_x, %97) /* ty=Tensor[(1, 128, 6, 6), bool] */;
  %99 = nn.conv2d_transpose(%90, %param101_weight, channels=128, kernel_size=[1, 1], padding=[0, 0, 0, 0], kernel_layout="IOHW") /* ty=Tensor[(1, 128, 6, 6), float32] */;
  %100 = where(%98, %97, %99) /* ty=Tensor[(1, 128, 6, 6), float32] */;
  %101 = multiply(%100, %param99_weight) /* ty=Tensor[(1, 128, 6, 6), float32] */;
  %102 = reshape(%101, newshape=[1, 128, 6, 6]) /* ty=Tensor[(1, 128, 6, 6), float32] */;
  %103 = tile(%102, reps=[1, 1, 1, 1]) /* ty=Tensor[(1, 128, 6, 6), float32] */;
  %104 = reshape(%nn_conv2d_64_x, newshape=[1, -1, 0, 0]) /* ty=Tensor[(1, 128, 6, 6), float32] */;
  %105 = reshape(%103, newshape=[-1, 1, 0, 0]) /* ty=Tensor[(128, 1, 6, 6), float32] */;
  %106 = nn.conv2d(%104, %105, padding=[1, 1, 1, 1], groups=128, channels=128, kernel_size=[6, 6]) /* ty=Tensor[(1, 128, 3, 3), float32] */;
  %107 = reshape(%106, newshape=[1, 1, 128, 3, 3]) /* ty=Tensor[(1, 1, 128, 3, 3), float32] */;
  %108 = sum(%107, axis=[0]) /* ty=Tensor[(1, 128, 3, 3), float32] */;
  %109 = zeros(shape=[1, 128, 6, 6], dtype="float32") /* ty=Tensor[(1, 128, 6, 6), float32] */;
  %110 = less(%nn_relu_65_x, %109) /* ty=Tensor[(1, 128, 6, 6), bool] */;
  %111 = nn.conv2d_transpose(%102, %param96_weight, channels=128, kernel_size=[3, 3], padding=[1, 1, 1, 1], groups=128, kernel_layout="IOHW") /* ty=Tensor[(1, 128, 6, 6), float32] */;
  %112 = where(%110, %109, %111) /* ty=Tensor[(1, 128, 6, 6), float32] */;
  %113 = multiply(%112, %param94_weight) /* ty=Tensor[(1, 128, 6, 6), float32] */;
  %114 = reshape(%113, newshape=[1, 128, 6, 6]) /* ty=Tensor[(1, 128, 6, 6), float32] */;
  %115 = tile(%114, reps=[1, 128, 1, 1]) /* ty=Tensor[(1, 16384, 6, 6), float32] */;
  %116 = reshape(%nn_conv2d_71_x, newshape=[1, -1, 0, 0]) /* ty=Tensor[(1, 128, 6, 6), float32] */;
  %117 = reshape(%115, newshape=[-1, 1, 0, 0]) /* ty=Tensor[(16384, 1, 6, 6), float32] */;
  %118 = nn.conv2d(%116, %117, padding=[0, 0, 0, 0], groups=128, channels=16384, kernel_size=[6, 6]) /* ty=Tensor[(1, 16384, 1, 1), float32] */;
  %119 = reshape(%118, newshape=[1, 128, 128, 1, 1]) /* ty=Tensor[(1, 128, 128, 1, 1), float32] */;
  %120 = sum(%119, axis=[0]) /* ty=Tensor[(128, 128, 1, 1), float32] */;
  %121 = zeros(shape=[1, 128, 6, 6], dtype="float32") /* ty=Tensor[(1, 128, 6, 6), float32] */;
  %122 = less(%nn_relu_72_x, %121) /* ty=Tensor[(1, 128, 6, 6), bool] */;
  %123 = nn.conv2d_transpose(%114, %param91_weight, channels=128, kernel_size=[1, 1], padding=[0, 0, 0, 0], kernel_layout="IOHW") /* ty=Tensor[(1, 128, 6, 6), float32] */;
  %124 = where(%122, %121, %123) /* ty=Tensor[(1, 128, 6, 6), float32] */;
  %125 = multiply(%124, %param89_weight) /* ty=Tensor[(1, 128, 6, 6), float32] */;
  %126 = reshape(%125, newshape=[1, 128, 6, 6]) /* ty=Tensor[(1, 128, 6, 6), float32] */;
  %127 = tile(%126, reps=[1, 1, 1, 1]) /* ty=Tensor[(1, 128, 6, 6), float32] */;
  %128 = reshape(%nn_conv2d_78_x, newshape=[1, -1, 0, 0]) /* ty=Tensor[(1, 128, 6, 6), float32] */;
  %129 = reshape(%127, newshape=[-1, 1, 0, 0]) /* ty=Tensor[(128, 1, 6, 6), float32] */;
  %130 = nn.conv2d(%128, %129, padding=[1, 1, 1, 1], groups=128, channels=128, kernel_size=[6, 6]) /* ty=Tensor[(1, 128, 3, 3), float32] */;
  %131 = reshape(%130, newshape=[1, 1, 128, 3, 3]) /* ty=Tensor[(1, 1, 128, 3, 3), float32] */;
  %132 = sum(%131, axis=[0]) /* ty=Tensor[(1, 128, 3, 3), float32] */;
  %133 = zeros(shape=[1, 128, 6, 6], dtype="float32") /* ty=Tensor[(1, 128, 6, 6), float32] */;
  %134 = less(%nn_relu_79_x, %133) /* ty=Tensor[(1, 128, 6, 6), bool] */;
  %135 = nn.conv2d_transpose(%126, %param86_weight, channels=128, kernel_size=[3, 3], padding=[1, 1, 1, 1], groups=128, kernel_layout="IOHW") /* ty=Tensor[(1, 128, 6, 6), float32] */;
  %136 = where(%134, %133, %135) /* ty=Tensor[(1, 128, 6, 6), float32] */;
  %137 = multiply(%136, %param84_weight) /* ty=Tensor[(1, 128, 6, 6), float32] */;
  %138 = reshape(%137, newshape=[1, 128, 6, 6]) /* ty=Tensor[(1, 128, 6, 6), float32] */;
  %139 = tile(%138, reps=[1, 128, 1, 1]) /* ty=Tensor[(1, 16384, 6, 6), float32] */;
  %140 = reshape(%nn_conv2d_85_x, newshape=[1, -1, 0, 0]) /* ty=Tensor[(1, 128, 6, 6), float32] */;
  %141 = reshape(%139, newshape=[-1, 1, 0, 0]) /* ty=Tensor[(16384, 1, 6, 6), float32] */;
  %142 = nn.conv2d(%140, %141, padding=[0, 0, 0, 0], groups=128, channels=16384, kernel_size=[6, 6]) /* ty=Tensor[(1, 16384, 1, 1), float32] */;
  %143 = reshape(%142, newshape=[1, 128, 128, 1, 1]) /* ty=Tensor[(1, 128, 128, 1, 1), float32] */;
  %144 = sum(%143, axis=[0]) /* ty=Tensor[(128, 128, 1, 1), float32] */;
  %145 = zeros(shape=[1, 128, 6, 6], dtype="float32") /* ty=Tensor[(1, 128, 6, 6), float32] */;
  %146 = less(%nn_relu_86_x, %145) /* ty=Tensor[(1, 128, 6, 6), bool] */;
  %147 = nn.conv2d_transpose(%138, %param81_weight, channels=128, kernel_size=[1, 1], padding=[0, 0, 0, 0], kernel_layout="IOHW") /* ty=Tensor[(1, 128, 6, 6), float32] */;
  %148 = where(%146, %145, %147) /* ty=Tensor[(1, 128, 6, 6), float32] */;
  %149 = multiply(%148, %param79_weight) /* ty=Tensor[(1, 128, 6, 6), float32] */;
  %150 = reshape(%149, newshape=[1, 128, 6, 6]) /* ty=Tensor[(1, 128, 6, 6), float32] */;
  %151 = tile(%150, reps=[1, 1, 1, 1]) /* ty=Tensor[(1, 128, 6, 6), float32] */;
  %152 = reshape(%nn_conv2d_92_x, newshape=[1, -1, 0, 0]) /* ty=Tensor[(1, 128, 6, 6), float32] */;
  %153 = reshape(%151, newshape=[-1, 1, 0, 0]) /* ty=Tensor[(128, 1, 6, 6), float32] */;
  %154 = nn.conv2d(%152, %153, padding=[1, 1, 1, 1], groups=128, channels=128, kernel_size=[6, 6]) /* ty=Tensor[(1, 128, 3, 3), float32] */;
  %155 = reshape(%154, newshape=[1, 1, 128, 3, 3]) /* ty=Tensor[(1, 1, 128, 3, 3), float32] */;
  %156 = sum(%155, axis=[0]) /* ty=Tensor[(1, 128, 3, 3), float32] */;
  %157 = zeros(shape=[1, 128, 6, 6], dtype="float32") /* ty=Tensor[(1, 128, 6, 6), float32] */;
  %158 = less(%nn_relu_93_x, %157) /* ty=Tensor[(1, 128, 6, 6), bool] */;
  %159 = nn.conv2d_transpose(%150, %param76_weight, channels=128, kernel_size=[3, 3], padding=[1, 1, 1, 1], groups=128, kernel_layout="IOHW") /* ty=Tensor[(1, 128, 6, 6), float32] */;
  %160 = where(%158, %157, %159) /* ty=Tensor[(1, 128, 6, 6), float32] */;
  %161 = multiply(%160, %param74_weight) /* ty=Tensor[(1, 128, 6, 6), float32] */;
  %162 = reshape(%161, newshape=[1, 128, 6, 6]) /* ty=Tensor[(1, 128, 6, 6), float32] */;
  %163 = tile(%162, reps=[1, 128, 1, 1]) /* ty=Tensor[(1, 16384, 6, 6), float32] */;
  %164 = reshape(%nn_conv2d_99_x, newshape=[1, -1, 0, 0]) /* ty=Tensor[(1, 128, 6, 6), float32] */;
  %165 = reshape(%163, newshape=[-1, 1, 0, 0]) /* ty=Tensor[(16384, 1, 6, 6), float32] */;
  %166 = nn.conv2d(%164, %165, padding=[0, 0, 0, 0], groups=128, channels=16384, kernel_size=[6, 6]) /* ty=Tensor[(1, 16384, 1, 1), float32] */;
  %167 = reshape(%166, newshape=[1, 128, 128, 1, 1]) /* ty=Tensor[(1, 128, 128, 1, 1), float32] */;
  %168 = sum(%167, axis=[0]) /* ty=Tensor[(128, 128, 1, 1), float32] */;
  %169 = zeros(shape=[1, 128, 6, 6], dtype="float32") /* ty=Tensor[(1, 128, 6, 6), float32] */;
  %170 = less(%nn_relu_100_x, %169) /* ty=Tensor[(1, 128, 6, 6), bool] */;
  %171 = nn.conv2d_transpose(%162, %param71_weight, channels=128, kernel_size=[1, 1], padding=[0, 0, 0, 0], kernel_layout="IOHW") /* ty=Tensor[(1, 128, 6, 6), float32] */;
  %172 = where(%170, %169, %171) /* ty=Tensor[(1, 128, 6, 6), float32] */;
  %173 = multiply(%172, %param69_weight) /* ty=Tensor[(1, 128, 6, 6), float32] */;
  %174 = reshape(%173, newshape=[1, 128, 6, 6]) /* ty=Tensor[(1, 128, 6, 6), float32] */;
  %175 = tile(%174, reps=[1, 1, 1, 1]) /* ty=Tensor[(1, 128, 6, 6), float32] */;
  %176 = reshape(%nn_conv2d_106_x, newshape=[1, -1, 0, 0]) /* ty=Tensor[(1, 128, 6, 6), float32] */;
  %177 = reshape(%175, newshape=[-1, 1, 0, 0]) /* ty=Tensor[(128, 1, 6, 6), float32] */;
  %178 = nn.conv2d(%176, %177, padding=[1, 1, 1, 1], groups=128, channels=128, kernel_size=[6, 6]) /* ty=Tensor[(1, 128, 3, 3), float32] */;
  %179 = reshape(%178, newshape=[1, 1, 128, 3, 3]) /* ty=Tensor[(1, 1, 128, 3, 3), float32] */;
  %180 = sum(%179, axis=[0]) /* ty=Tensor[(1, 128, 3, 3), float32] */;
  %181 = zeros(shape=[1, 128, 6, 6], dtype="float32") /* ty=Tensor[(1, 128, 6, 6), float32] */;
  %182 = less(%nn_relu_107_x, %181) /* ty=Tensor[(1, 128, 6, 6), bool] */;
  %183 = nn.conv2d_transpose(%174, %param66_weight, channels=128, kernel_size=[3, 3], padding=[1, 1, 1, 1], groups=128, kernel_layout="IOHW") /* ty=Tensor[(1, 128, 6, 6), float32] */;
  %184 = where(%182, %181, %183) /* ty=Tensor[(1, 128, 6, 6), float32] */;
  %185 = multiply(%184, %param64_weight) /* ty=Tensor[(1, 128, 6, 6), float32] */;
  %186 = reshape(%185, newshape=[1, 128, 6, 6]) /* ty=Tensor[(1, 128, 6, 6), float32] */;
  %187 = tile(%186, reps=[1, 64, 1, 1]) /* ty=Tensor[(1, 8192, 6, 6), float32] */;
  %188 = reshape(%nn_conv2d_113_x, newshape=[1, -1, 0, 0]) /* ty=Tensor[(1, 64, 6, 6), float32] */;
  %189 = reshape(%187, newshape=[-1, 1, 0, 0]) /* ty=Tensor[(8192, 1, 6, 6), float32] */;
  %190 = nn.conv2d(%188, %189, padding=[0, 0, 0, 0], groups=64, channels=8192, kernel_size=[6, 6]) /* ty=Tensor[(1, 8192, 1, 1), float32] */;
  %191 = reshape(%190, newshape=[1, 64, 128, 1, 1]) /* ty=Tensor[(1, 64, 128, 1, 1), float32] */;
  %192 = sum(%191, axis=[0]) /* ty=Tensor[(64, 128, 1, 1), float32] */;
  %193 = zeros(shape=[1, 64, 6, 6], dtype="float32") /* ty=Tensor[(1, 64, 6, 6), float32] */;
  %194 = less(%nn_relu_114_x, %193) /* ty=Tensor[(1, 64, 6, 6), bool] */;
  %195 = nn.conv2d_transpose(%186, %param61_weight, channels=64, kernel_size=[1, 1], padding=[0, 0, 0, 0], kernel_layout="IOHW") /* ty=Tensor[(1, 64, 6, 6), float32] */;
  %196 = where(%194, %193, %195) /* ty=Tensor[(1, 64, 6, 6), float32] */;
  %197 = multiply(%196, %param59_weight) /* ty=Tensor[(1, 64, 6, 6), float32] */;
  %198 = reshape(%197, newshape=[1, 64, 6, 6]) /* ty=Tensor[(1, 64, 6, 6), float32] */;
  %199 = tile(%198, reps=[1, 1, 1, 1]) /* ty=Tensor[(1, 64, 6, 6), float32] */;
  %200 = reshape(%nn_conv2d_120_x, newshape=[1, -1, 0, 0]) /* ty=Tensor[(1, 64, 12, 12), float32] */;
  %201 = reshape(%199, newshape=[-1, 1, 0, 0]) /* ty=Tensor[(64, 1, 6, 6), float32] */;
  %202 = nn.conv2d(%200, %201, padding=[1, 1, 1, 1], dilation=[2, 2], groups=64, channels=64, kernel_size=[6, 6]) /* ty=Tensor[(1, 64, 4, 4), float32] */;
  %203 = reshape(%202, newshape=[1, 1, 64, 4, 4]) /* ty=Tensor[(1, 1, 64, 4, 4), float32] */;
  %204 = sum(%203, axis=[0]) /* ty=Tensor[(1, 64, 4, 4), float32] */;
  %205 = transpose(%204, axes=[1, 0, 2, 3]) /* ty=Tensor[(64, 1, 4, 4), float32] */;
  %206 = zeros(shape=[1, 64, 12, 12], dtype="float32") /* ty=Tensor[(1, 64, 12, 12), float32] */;
  %207 = less(%nn_relu_121_x, %206) /* ty=Tensor[(1, 64, 12, 12), bool] */;
  %208 = nn.conv2d_transpose(%198, %param56_weight, channels=64, kernel_size=[3, 3], strides=[2, 2], output_padding=[1, 1], padding=[1, 1, 1, 1], groups=64, kernel_layout="IOHW") /* ty=Tensor[(1, 64, 12, 12), float32] */;
  %209 = where(%207, %206, %208) /* ty=Tensor[(1, 64, 12, 12), float32] */;
  %210 = multiply(%209, %param54_weight) /* ty=Tensor[(1, 64, 12, 12), float32] */;
  %211 = reshape(%210, newshape=[1, 64, 12, 12]) /* ty=Tensor[(1, 64, 12, 12), float32] */;
  %212 = tile(%211, reps=[1, 64, 1, 1]) /* ty=Tensor[(1, 4096, 12, 12), float32] */;
  %213 = reshape(%nn_conv2d_127_x, newshape=[1, -1, 0, 0]) /* ty=Tensor[(1, 64, 12, 12), float32] */;
  %214 = reshape(%212, newshape=[-1, 1, 0, 0]) /* ty=Tensor[(4096, 1, 12, 12), float32] */;
  %215 = nn.conv2d(%213, %214, padding=[0, 0, 0, 0], groups=64, channels=4096, kernel_size=[12, 12]) /* ty=Tensor[(1, 4096, 1, 1), float32] */;
  %216 = reshape(%215, newshape=[1, 64, 64, 1, 1]) /* ty=Tensor[(1, 64, 64, 1, 1), float32] */;
  %217 = sum(%216, axis=[0]) /* ty=Tensor[(64, 64, 1, 1), float32] */;
  %218 = zeros(shape=[1, 64, 12, 12], dtype="float32") /* ty=Tensor[(1, 64, 12, 12), float32] */;
  %219 = less(%nn_relu_128_x, %218) /* ty=Tensor[(1, 64, 12, 12), bool] */;
  %220 = nn.conv2d_transpose(%211, %param51_weight, channels=64, kernel_size=[1, 1], padding=[0, 0, 0, 0], kernel_layout="IOHW") /* ty=Tensor[(1, 64, 12, 12), float32] */;
  %221 = where(%219, %218, %220) /* ty=Tensor[(1, 64, 12, 12), float32] */;
  %222 = multiply(%221, %param49_weight) /* ty=Tensor[(1, 64, 12, 12), float32] */;
  %223 = reshape(%222, newshape=[1, 64, 12, 12]) /* ty=Tensor[(1, 64, 12, 12), float32] */;
  %224 = tile(%223, reps=[1, 1, 1, 1]) /* ty=Tensor[(1, 64, 12, 12), float32] */;
  %225 = reshape(%nn_conv2d_134_x, newshape=[1, -1, 0, 0]) /* ty=Tensor[(1, 64, 12, 12), float32] */;
  %226 = reshape(%224, newshape=[-1, 1, 0, 0]) /* ty=Tensor[(64, 1, 12, 12), float32] */;
  %227 = nn.conv2d(%225, %226, padding=[1, 1, 1, 1], groups=64, channels=64, kernel_size=[12, 12]) /* ty=Tensor[(1, 64, 3, 3), float32] */;
  %228 = reshape(%227, newshape=[1, 1, 64, 3, 3]) /* ty=Tensor[(1, 1, 64, 3, 3), float32] */;
  %229 = sum(%228, axis=[0]) /* ty=Tensor[(1, 64, 3, 3), float32] */;
  %230 = zeros(shape=[1, 64, 12, 12], dtype="float32") /* ty=Tensor[(1, 64, 12, 12), float32] */;
  %231 = less(%nn_relu_135_x, %230) /* ty=Tensor[(1, 64, 12, 12), bool] */;
  %232 = nn.conv2d_transpose(%223, %param46_weight, channels=64, kernel_size=[3, 3], padding=[1, 1, 1, 1], groups=64, kernel_layout="IOHW") /* ty=Tensor[(1, 64, 12, 12), float32] */;
  %233 = where(%231, %230, %232) /* ty=Tensor[(1, 64, 12, 12), float32] */;
  %234 = multiply(%233, %param44_weight) /* ty=Tensor[(1, 64, 12, 12), float32] */;
  %235 = reshape(%234, newshape=[1, 64, 12, 12]) /* ty=Tensor[(1, 64, 12, 12), float32] */;
  %236 = tile(%235, reps=[1, 32, 1, 1]) /* ty=Tensor[(1, 2048, 12, 12), float32] */;
  %237 = reshape(%nn_conv2d_141_x, newshape=[1, -1, 0, 0]) /* ty=Tensor[(1, 32, 12, 12), float32] */;
  %238 = reshape(%236, newshape=[-1, 1, 0, 0]) /* ty=Tensor[(2048, 1, 12, 12), float32] */;
  %239 = nn.conv2d(%237, %238, padding=[0, 0, 0, 0], groups=32, channels=2048, kernel_size=[12, 12]) /* ty=Tensor[(1, 2048, 1, 1), float32] */;
  %240 = reshape(%239, newshape=[1, 32, 64, 1, 1]) /* ty=Tensor[(1, 32, 64, 1, 1), float32] */;
  %241 = sum(%240, axis=[0]) /* ty=Tensor[(32, 64, 1, 1), float32] */;
  %242 = zeros(shape=[1, 32, 12, 12], dtype="float32") /* ty=Tensor[(1, 32, 12, 12), float32] */;
  %243 = less(%nn_relu_142_x, %242) /* ty=Tensor[(1, 32, 12, 12), bool] */;
  %244 = nn.conv2d_transpose(%235, %param41_weight, channels=32, kernel_size=[1, 1], padding=[0, 0, 0, 0], kernel_layout="IOHW") /* ty=Tensor[(1, 32, 12, 12), float32] */;
  %245 = where(%243, %242, %244) /* ty=Tensor[(1, 32, 12, 12), float32] */;
  %246 = multiply(%245, %param39_weight) /* ty=Tensor[(1, 32, 12, 12), float32] */;
  %247 = reshape(%246, newshape=[1, 32, 12, 12]) /* ty=Tensor[(1, 32, 12, 12), float32] */;
  %248 = tile(%247, reps=[1, 1, 1, 1]) /* ty=Tensor[(1, 32, 12, 12), float32] */;
  %249 = reshape(%nn_conv2d_148_x, newshape=[1, -1, 0, 0]) /* ty=Tensor[(1, 32, 24, 24), float32] */;
  %250 = reshape(%248, newshape=[-1, 1, 0, 0]) /* ty=Tensor[(32, 1, 12, 12), float32] */;
  %251 = nn.conv2d(%249, %250, padding=[1, 1, 1, 1], dilation=[2, 2], groups=32, channels=32, kernel_size=[12, 12]) /* ty=Tensor[(1, 32, 4, 4), float32] */;
  %252 = reshape(%251, newshape=[1, 1, 32, 4, 4]) /* ty=Tensor[(1, 1, 32, 4, 4), float32] */;
  %253 = sum(%252, axis=[0]) /* ty=Tensor[(1, 32, 4, 4), float32] */;
  %254 = transpose(%253, axes=[1, 0, 2, 3]) /* ty=Tensor[(32, 1, 4, 4), float32] */;
  %255 = zeros(shape=[1, 32, 24, 24], dtype="float32") /* ty=Tensor[(1, 32, 24, 24), float32] */;
  %256 = less(%nn_relu_149_x, %255) /* ty=Tensor[(1, 32, 24, 24), bool] */;
  %257 = nn.conv2d_transpose(%247, %param36_weight, channels=32, kernel_size=[3, 3], strides=[2, 2], output_padding=[1, 1], padding=[1, 1, 1, 1], groups=32, kernel_layout="IOHW") /* ty=Tensor[(1, 32, 24, 24), float32] */;
  %258 = where(%256, %255, %257) /* ty=Tensor[(1, 32, 24, 24), float32] */;
  %259 = multiply(%258, %param34_weight) /* ty=Tensor[(1, 32, 24, 24), float32] */;
  %260 = reshape(%259, newshape=[1, 32, 24, 24]) /* ty=Tensor[(1, 32, 24, 24), float32] */;
  %261 = tile(%260, reps=[1, 32, 1, 1]) /* ty=Tensor[(1, 1024, 24, 24), float32] */;
  %262 = reshape(%nn_conv2d_155_x, newshape=[1, -1, 0, 0]) /* ty=Tensor[(1, 32, 24, 24), float32] */;
  %263 = reshape(%261, newshape=[-1, 1, 0, 0]) /* ty=Tensor[(1024, 1, 24, 24), float32] */;
  %264 = nn.conv2d(%262, %263, padding=[0, 0, 0, 0], groups=32, channels=1024, kernel_size=[24, 24]) /* ty=Tensor[(1, 1024, 1, 1), float32] */;
  %265 = reshape(%264, newshape=[1, 32, 32, 1, 1]) /* ty=Tensor[(1, 32, 32, 1, 1), float32] */;
  %266 = sum(%265, axis=[0]) /* ty=Tensor[(32, 32, 1, 1), float32] */;
  %267 = zeros(shape=[1, 32, 24, 24], dtype="float32") /* ty=Tensor[(1, 32, 24, 24), float32] */;
  %268 = less(%nn_relu_156_x, %267) /* ty=Tensor[(1, 32, 24, 24), bool] */;
  %269 = nn.conv2d_transpose(%260, %param31_weight, channels=32, kernel_size=[1, 1], padding=[0, 0, 0, 0], kernel_layout="IOHW") /* ty=Tensor[(1, 32, 24, 24), float32] */;
  %270 = where(%268, %267, %269) /* ty=Tensor[(1, 32, 24, 24), float32] */;
  %271 = multiply(%270, %param29_weight) /* ty=Tensor[(1, 32, 24, 24), float32] */;
  %272 = reshape(%271, newshape=[1, 32, 24, 24]) /* ty=Tensor[(1, 32, 24, 24), float32] */;
  %273 = tile(%272, reps=[1, 1, 1, 1]) /* ty=Tensor[(1, 32, 24, 24), float32] */;
  %274 = reshape(%nn_conv2d_162_x, newshape=[1, -1, 0, 0]) /* ty=Tensor[(1, 32, 24, 24), float32] */;
  %275 = reshape(%273, newshape=[-1, 1, 0, 0]) /* ty=Tensor[(32, 1, 24, 24), float32] */;
  %276 = nn.conv2d(%274, %275, padding=[1, 1, 1, 1], groups=32, channels=32, kernel_size=[24, 24]) /* ty=Tensor[(1, 32, 3, 3), float32] */;
  %277 = reshape(%276, newshape=[1, 1, 32, 3, 3]) /* ty=Tensor[(1, 1, 32, 3, 3), float32] */;
  %278 = sum(%277, axis=[0]) /* ty=Tensor[(1, 32, 3, 3), float32] */;
  %279 = zeros(shape=[1, 32, 24, 24], dtype="float32") /* ty=Tensor[(1, 32, 24, 24), float32] */;
  %280 = less(%nn_relu_163_x, %279) /* ty=Tensor[(1, 32, 24, 24), bool] */;
  %281 = nn.conv2d_transpose(%272, %param26_weight, channels=32, kernel_size=[3, 3], padding=[1, 1, 1, 1], groups=32, kernel_layout="IOHW") /* ty=Tensor[(1, 32, 24, 24), float32] */;
  %282 = where(%280, %279, %281) /* ty=Tensor[(1, 32, 24, 24), float32] */;
  %283 = multiply(%282, %param24_weight) /* ty=Tensor[(1, 32, 24, 24), float32] */;
  %284 = reshape(%283, newshape=[1, 32, 24, 24]) /* ty=Tensor[(1, 32, 24, 24), float32] */;
  %285 = tile(%284, reps=[1, 16, 1, 1]) /* ty=Tensor[(1, 512, 24, 24), float32] */;
  %286 = reshape(%nn_conv2d_169_x, newshape=[1, -1, 0, 0]) /* ty=Tensor[(1, 16, 24, 24), float32] */;
  %287 = reshape(%285, newshape=[-1, 1, 0, 0]) /* ty=Tensor[(512, 1, 24, 24), float32] */;
  %288 = nn.conv2d(%286, %287, padding=[0, 0, 0, 0], groups=16, channels=512, kernel_size=[24, 24]) /* ty=Tensor[(1, 512, 1, 1), float32] */;
  %289 = reshape(%288, newshape=[1, 16, 32, 1, 1]) /* ty=Tensor[(1, 16, 32, 1, 1), float32] */;
  %290 = sum(%289, axis=[0]) /* ty=Tensor[(16, 32, 1, 1), float32] */;
  %291 = zeros(shape=[1, 16, 24, 24], dtype="float32") /* ty=Tensor[(1, 16, 24, 24), float32] */;
  %292 = less(%nn_relu_170_x, %291) /* ty=Tensor[(1, 16, 24, 24), bool] */;
  %293 = nn.conv2d_transpose(%284, %param21_weight, channels=16, kernel_size=[1, 1], padding=[0, 0, 0, 0], kernel_layout="IOHW") /* ty=Tensor[(1, 16, 24, 24), float32] */;
  %294 = where(%292, %291, %293) /* ty=Tensor[(1, 16, 24, 24), float32] */;
  %295 = multiply(%294, %param19_weight) /* ty=Tensor[(1, 16, 24, 24), float32] */;
  %296 = reshape(%295, newshape=[1, 16, 24, 24]) /* ty=Tensor[(1, 16, 24, 24), float32] */;
  %297 = tile(%296, reps=[1, 1, 1, 1]) /* ty=Tensor[(1, 16, 24, 24), float32] */;
  %298 = reshape(%nn_conv2d_176_x, newshape=[1, -1, 0, 0]) /* ty=Tensor[(1, 16, 48, 48), float32] */;
  %299 = reshape(%297, newshape=[-1, 1, 0, 0]) /* ty=Tensor[(16, 1, 24, 24), float32] */;
  %300 = nn.conv2d(%298, %299, padding=[1, 1, 1, 1], dilation=[2, 2], groups=16, channels=16, kernel_size=[24, 24]) /* ty=Tensor[(1, 16, 4, 4), float32] */;
  %301 = reshape(%300, newshape=[1, 1, 16, 4, 4]) /* ty=Tensor[(1, 1, 16, 4, 4), float32] */;
  %302 = sum(%301, axis=[0]) /* ty=Tensor[(1, 16, 4, 4), float32] */;
  %303 = transpose(%302, axes=[1, 0, 2, 3]) /* ty=Tensor[(16, 1, 4, 4), float32] */;
  %304 = zeros(shape=[1, 16, 48, 48], dtype="float32") /* ty=Tensor[(1, 16, 48, 48), float32] */;
  %305 = less(%nn_relu_177_x, %304) /* ty=Tensor[(1, 16, 48, 48), bool] */;
  %306 = nn.conv2d_transpose(%296, %param16_weight, channels=16, kernel_size=[3, 3], strides=[2, 2], output_padding=[1, 1], padding=[1, 1, 1, 1], groups=16, kernel_layout="IOHW") /* ty=Tensor[(1, 16, 48, 48), float32] */;
  %307 = where(%305, %304, %306) /* ty=Tensor[(1, 16, 48, 48), float32] */;
  %308 = multiply(%307, %param14_weight) /* ty=Tensor[(1, 16, 48, 48), float32] */;
  %309 = reshape(%308, newshape=[1, 16, 48, 48]) /* ty=Tensor[(1, 16, 48, 48), float32] */;
  %310 = tile(%309, reps=[1, 8, 1, 1]) /* ty=Tensor[(1, 128, 48, 48), float32] */;
  %311 = reshape(%nn_conv2d_183_x, newshape=[1, -1, 0, 0]) /* ty=Tensor[(1, 8, 48, 48), float32] */;
  %312 = reshape(%310, newshape=[-1, 1, 0, 0]) /* ty=Tensor[(128, 1, 48, 48), float32] */;
  %313 = nn.conv2d(%311, %312, padding=[0, 0, 0, 0], groups=8, channels=128, kernel_size=[48, 48]) /* ty=Tensor[(1, 128, 1, 1), float32] */;
  %314 = reshape(%313, newshape=[1, 8, 16, 1, 1]) /* ty=Tensor[(1, 8, 16, 1, 1), float32] */;
  %315 = sum(%314, axis=[0]) /* ty=Tensor[(8, 16, 1, 1), float32] */;
  %316 = zeros(shape=[1, 8, 48, 48], dtype="float32") /* ty=Tensor[(1, 8, 48, 48), float32] */;
  %317 = less(%nn_relu_184_x, %316) /* ty=Tensor[(1, 8, 48, 48), bool] */;
  %318 = nn.conv2d_transpose(%309, %param11_weight, channels=8, kernel_size=[1, 1], padding=[0, 0, 0, 0], kernel_layout="IOHW") /* ty=Tensor[(1, 8, 48, 48), float32] */;
  %319 = where(%317, %316, %318) /* ty=Tensor[(1, 8, 48, 48), float32] */;
  %320 = multiply(%319, %param9_weight) /* ty=Tensor[(1, 8, 48, 48), float32] */;
  %321 = reshape(%320, newshape=[1, 8, 48, 48]) /* ty=Tensor[(1, 8, 48, 48), float32] */;
  %322 = tile(%321, reps=[1, 1, 1, 1]) /* ty=Tensor[(1, 8, 48, 48), float32] */;
  %323 = reshape(%nn_conv2d_190_x, newshape=[1, -1, 0, 0]) /* ty=Tensor[(1, 8, 48, 48), float32] */;
  %324 = reshape(%322, newshape=[-1, 1, 0, 0]) /* ty=Tensor[(8, 1, 48, 48), float32] */;
  %325 = nn.conv2d(%323, %324, padding=[1, 1, 1, 1], groups=8, channels=8, kernel_size=[48, 48]) /* ty=Tensor[(1, 8, 3, 3), float32] */;
  %326 = reshape(%325, newshape=[1, 1, 8, 3, 3]) /* ty=Tensor[(1, 1, 8, 3, 3), float32] */;
  %327 = sum(%326, axis=[0]) /* ty=Tensor[(1, 8, 3, 3), float32] */;
  %328 = zeros(shape=[1, 8, 48, 48], dtype="float32") /* ty=Tensor[(1, 8, 48, 48), float32] */;
  %329 = less(%nn_relu_191_x, %328) /* ty=Tensor[(1, 8, 48, 48), bool] */;
  %330 = nn.conv2d_transpose(%321, %param6_weight, channels=8, kernel_size=[3, 3], padding=[1, 1, 1, 1], groups=8, kernel_layout="IOHW") /* ty=Tensor[(1, 8, 48, 48), float32] */;
  %331 = where(%329, %328, %330) /* ty=Tensor[(1, 8, 48, 48), float32] */;
  %332 = multiply(%331, %param4_weight) /* ty=Tensor[(1, 8, 48, 48), float32] */;
  %333 = reshape(%332, newshape=[1, 8, 48, 48]) /* ty=Tensor[(1, 8, 48, 48), float32] */;
  %334 = tile(%333, reps=[1, 3, 1, 1]) /* ty=Tensor[(1, 24, 48, 48), float32] */;
  %335 = reshape(%nn_conv2d_197_x, newshape=[1, -1, 0, 0]) /* ty=Tensor[(1, 3, 96, 96), float32] */;
  %336 = reshape(%334, newshape=[-1, 1, 0, 0]) /* ty=Tensor[(24, 1, 48, 48), float32] */;
  %337 = nn.conv2d(%335, %336, padding=[1, 1, 1, 1], dilation=[2, 2], groups=3, channels=24, kernel_size=[48, 48]) /* ty=Tensor[(1, 24, 4, 4), float32] */;
  %338 = reshape(%337, newshape=[1, 3, 8, 4, 4]) /* ty=Tensor[(1, 3, 8, 4, 4), float32] */;
  %339 = sum(%338, axis=[0]) /* ty=Tensor[(3, 8, 4, 4), float32] */;
  %340 = transpose(%339, axes=[1, 0, 2, 3]) /* ty=Tensor[(8, 3, 4, 4), float32] */;
  %341 = nn.matmul(%8, %nn_dense_5_x, units=None) /* ty=Tensor[(2, 256), float32] */;
  %342 = multiply(%15, %multiply_11_x) /* ty=Tensor[(1, 256, 3, 3), float32] */;
  %343 = zeros(shape=[32], dtype="float32") /* ty=Tensor[(32), float32] */;
  %344 = zeros(shape=[32], dtype="float32") /* ty=Tensor[(32), float32] */;
  %345 = transpose(%23, axes=[1, 0, 2, 3]) /* ty=Tensor[(256, 256, 1, 1), float32] */;
  %346 = multiply(%27, %multiply_18_x) /* ty=Tensor[(1, 256, 3, 3), float32] */;
  %347 = zeros(shape=[32], dtype="float32") /* ty=Tensor[(32), float32] */;
  %348 = zeros(shape=[32], dtype="float32") /* ty=Tensor[(32), float32] */;
  %349 = transpose(%35, axes=[1, 0, 2, 3]) /* ty=Tensor[(256, 1, 3, 3), float32] */;
  %350 = multiply(%39, %multiply_25_x) /* ty=Tensor[(1, 256, 3, 3), float32] */;
  %351 = zeros(shape=[32], dtype="float32") /* ty=Tensor[(32), float32] */;
  %352 = zeros(shape=[32], dtype="float32") /* ty=Tensor[(32), float32] */;
  %353 = transpose(%47, axes=[1, 0, 2, 3]) /* ty=Tensor[(256, 128, 1, 1), float32] */;
  %354 = multiply(%51, %multiply_32_x) /* ty=Tensor[(1, 128, 3, 3), float32] */;
  %355 = zeros(shape=[16], dtype="float32") /* ty=Tensor[(16), float32] */;
  %356 = zeros(shape=[16], dtype="float32") /* ty=Tensor[(16), float32] */;
  %357 = strided_slice(%60, begin=[0, 0, 0, 0], end=[128, 1, 3, 3], strides=[1], axes=None) /* ty=Tensor[(128, 1, 3, 3), float32] */;
  %358 = multiply(%64, %multiply_39_x) /* ty=Tensor[(1, 128, 6, 6), float32] */;
  %359 = zeros(shape=[16], dtype="float32") /* ty=Tensor[(16), float32] */;
  %360 = zeros(shape=[16], dtype="float32") /* ty=Tensor[(16), float32] */;
  %361 = transpose(%72, axes=[1, 0, 2, 3]) /* ty=Tensor[(128, 128, 1, 1), float32] */;
  %362 = multiply(%76, %multiply_46_x) /* ty=Tensor[(1, 128, 6, 6), float32] */;
  %363 = zeros(shape=[16], dtype="float32") /* ty=Tensor[(16), float32] */;
  %364 = zeros(shape=[16], dtype="float32") /* ty=Tensor[(16), float32] */;
  %365 = transpose(%84, axes=[1, 0, 2, 3]) /* ty=Tensor[(128, 1, 3, 3), float32] */;
  %366 = multiply(%88, %multiply_53_x) /* ty=Tensor[(1, 128, 6, 6), float32] */;
  %367 = zeros(shape=[16], dtype="float32") /* ty=Tensor[(16), float32] */;
  %368 = zeros(shape=[16], dtype="float32") /* ty=Tensor[(16), float32] */;
  %369 = transpose(%96, axes=[1, 0, 2, 3]) /* ty=Tensor[(128, 128, 1, 1), float32] */;
  %370 = multiply(%100, %multiply_60_x) /* ty=Tensor[(1, 128, 6, 6), float32] */;
  %371 = zeros(shape=[16], dtype="float32") /* ty=Tensor[(16), float32] */;
  %372 = zeros(shape=[16], dtype="float32") /* ty=Tensor[(16), float32] */;
  %373 = transpose(%108, axes=[1, 0, 2, 3]) /* ty=Tensor[(128, 1, 3, 3), float32] */;
  %374 = multiply(%112, %multiply_67_x) /* ty=Tensor[(1, 128, 6, 6), float32] */;
  %375 = zeros(shape=[16], dtype="float32") /* ty=Tensor[(16), float32] */;
  %376 = zeros(shape=[16], dtype="float32") /* ty=Tensor[(16), float32] */;
  %377 = transpose(%120, axes=[1, 0, 2, 3]) /* ty=Tensor[(128, 128, 1, 1), float32] */;
  %378 = multiply(%124, %multiply_74_x) /* ty=Tensor[(1, 128, 6, 6), float32] */;
  %379 = zeros(shape=[16], dtype="float32") /* ty=Tensor[(16), float32] */;
  %380 = zeros(shape=[16], dtype="float32") /* ty=Tensor[(16), float32] */;
  %381 = transpose(%132, axes=[1, 0, 2, 3]) /* ty=Tensor[(128, 1, 3, 3), float32] */;
  %382 = multiply(%136, %multiply_81_x) /* ty=Tensor[(1, 128, 6, 6), float32] */;
  %383 = zeros(shape=[16], dtype="float32") /* ty=Tensor[(16), float32] */;
  %384 = zeros(shape=[16], dtype="float32") /* ty=Tensor[(16), float32] */;
  %385 = transpose(%144, axes=[1, 0, 2, 3]) /* ty=Tensor[(128, 128, 1, 1), float32] */;
  %386 = multiply(%148, %multiply_88_x) /* ty=Tensor[(1, 128, 6, 6), float32] */;
  %387 = zeros(shape=[16], dtype="float32") /* ty=Tensor[(16), float32] */;
  %388 = zeros(shape=[16], dtype="float32") /* ty=Tensor[(16), float32] */;
  %389 = transpose(%156, axes=[1, 0, 2, 3]) /* ty=Tensor[(128, 1, 3, 3), float32] */;
  %390 = multiply(%160, %multiply_95_x) /* ty=Tensor[(1, 128, 6, 6), float32] */;
  %391 = zeros(shape=[16], dtype="float32") /* ty=Tensor[(16), float32] */;
  %392 = zeros(shape=[16], dtype="float32") /* ty=Tensor[(16), float32] */;
  %393 = transpose(%168, axes=[1, 0, 2, 3]) /* ty=Tensor[(128, 128, 1, 1), float32] */;
  %394 = multiply(%172, %multiply_102_x) /* ty=Tensor[(1, 128, 6, 6), float32] */;
  %395 = zeros(shape=[16], dtype="float32") /* ty=Tensor[(16), float32] */;
  %396 = zeros(shape=[16], dtype="float32") /* ty=Tensor[(16), float32] */;
  %397 = transpose(%180, axes=[1, 0, 2, 3]) /* ty=Tensor[(128, 1, 3, 3), float32] */;
  %398 = multiply(%184, %multiply_109_x) /* ty=Tensor[(1, 128, 6, 6), float32] */;
  %399 = zeros(shape=[16], dtype="float32") /* ty=Tensor[(16), float32] */;
  %400 = zeros(shape=[16], dtype="float32") /* ty=Tensor[(16), float32] */;
  %401 = transpose(%192, axes=[1, 0, 2, 3]) /* ty=Tensor[(128, 64, 1, 1), float32] */;
  %402 = multiply(%196, %multiply_116_x) /* ty=Tensor[(1, 64, 6, 6), float32] */;
  %403 = zeros(shape=[8], dtype="float32") /* ty=Tensor[(8), float32] */;
  %404 = zeros(shape=[8], dtype="float32") /* ty=Tensor[(8), float32] */;
  %405 = strided_slice(%205, begin=[0, 0, 0, 0], end=[64, 1, 3, 3], strides=[1], axes=None) /* ty=Tensor[(64, 1, 3, 3), float32] */;
  %406 = multiply(%209, %multiply_123_x) /* ty=Tensor[(1, 64, 12, 12), float32] */;
  %407 = zeros(shape=[8], dtype="float32") /* ty=Tensor[(8), float32] */;
  %408 = zeros(shape=[8], dtype="float32") /* ty=Tensor[(8), float32] */;
  %409 = transpose(%217, axes=[1, 0, 2, 3]) /* ty=Tensor[(64, 64, 1, 1), float32] */;
  %410 = multiply(%221, %multiply_130_x) /* ty=Tensor[(1, 64, 12, 12), float32] */;
  %411 = zeros(shape=[8], dtype="float32") /* ty=Tensor[(8), float32] */;
  %412 = zeros(shape=[8], dtype="float32") /* ty=Tensor[(8), float32] */;
  %413 = transpose(%229, axes=[1, 0, 2, 3]) /* ty=Tensor[(64, 1, 3, 3), float32] */;
  %414 = multiply(%233, %multiply_137_x) /* ty=Tensor[(1, 64, 12, 12), float32] */;
  %415 = zeros(shape=[8], dtype="float32") /* ty=Tensor[(8), float32] */;
  %416 = zeros(shape=[8], dtype="float32") /* ty=Tensor[(8), float32] */;
  %417 = transpose(%241, axes=[1, 0, 2, 3]) /* ty=Tensor[(64, 32, 1, 1), float32] */;
  %418 = multiply(%245, %multiply_144_x) /* ty=Tensor[(1, 32, 12, 12), float32] */;
  %419 = zeros(shape=[4], dtype="float32") /* ty=Tensor[(4), float32] */;
  %420 = zeros(shape=[4], dtype="float32") /* ty=Tensor[(4), float32] */;
  %421 = strided_slice(%254, begin=[0, 0, 0, 0], end=[32, 1, 3, 3], strides=[1], axes=None) /* ty=Tensor[(32, 1, 3, 3), float32] */;
  %422 = multiply(%258, %multiply_151_x) /* ty=Tensor[(1, 32, 24, 24), float32] */;
  %423 = zeros(shape=[4], dtype="float32") /* ty=Tensor[(4), float32] */;
  %424 = zeros(shape=[4], dtype="float32") /* ty=Tensor[(4), float32] */;
  %425 = transpose(%266, axes=[1, 0, 2, 3]) /* ty=Tensor[(32, 32, 1, 1), float32] */;
  %426 = multiply(%270, %multiply_158_x) /* ty=Tensor[(1, 32, 24, 24), float32] */;
  %427 = zeros(shape=[4], dtype="float32") /* ty=Tensor[(4), float32] */;
  %428 = zeros(shape=[4], dtype="float32") /* ty=Tensor[(4), float32] */;
  %429 = transpose(%278, axes=[1, 0, 2, 3]) /* ty=Tensor[(32, 1, 3, 3), float32] */;
  %430 = multiply(%282, %multiply_165_x) /* ty=Tensor[(1, 32, 24, 24), float32] */;
  %431 = zeros(shape=[4], dtype="float32") /* ty=Tensor[(4), float32] */;
  %432 = zeros(shape=[4], dtype="float32") /* ty=Tensor[(4), float32] */;
  %433 = transpose(%290, axes=[1, 0, 2, 3]) /* ty=Tensor[(32, 16, 1, 1), float32] */;
  %434 = multiply(%294, %multiply_172_x) /* ty=Tensor[(1, 16, 24, 24), float32] */;
  %435 = zeros(shape=[2], dtype="float32") /* ty=Tensor[(2), float32] */;
  %436 = zeros(shape=[2], dtype="float32") /* ty=Tensor[(2), float32] */;
  %437 = strided_slice(%303, begin=[0, 0, 0, 0], end=[16, 1, 3, 3], strides=[1], axes=None) /* ty=Tensor[(16, 1, 3, 3), float32] */;
  %438 = multiply(%307, %multiply_179_x) /* ty=Tensor[(1, 16, 48, 48), float32] */;
  %439 = zeros(shape=[2], dtype="float32") /* ty=Tensor[(2), float32] */;
  %440 = zeros(shape=[2], dtype="float32") /* ty=Tensor[(2), float32] */;
  %441 = transpose(%315, axes=[1, 0, 2, 3]) /* ty=Tensor[(16, 8, 1, 1), float32] */;
  %442 = multiply(%319, %multiply_186_x) /* ty=Tensor[(1, 8, 48, 48), float32] */;
  %443 = zeros(shape=[1], dtype="float32") /* ty=Tensor[(1), float32] */;
  %444 = zeros(shape=[1], dtype="float32") /* ty=Tensor[(1), float32] */;
  %445 = transpose(%327, axes=[1, 0, 2, 3]) /* ty=Tensor[(8, 1, 3, 3), float32] */;
  %446 = multiply(%331, %multiply_193_x) /* ty=Tensor[(1, 8, 48, 48), float32] */;
  %447 = zeros(shape=[1], dtype="float32") /* ty=Tensor[(1), float32] */;
  %448 = zeros(shape=[1], dtype="float32") /* ty=Tensor[(1), float32] */;
  %449 = strided_slice(%340, begin=[0, 0, 0, 0], end=[8, 3, 3, 3], strides=[1], axes=None) /* ty=Tensor[(8, 3, 3, 3), float32] */;
  (%7, %341, %15, %342, %343, %344, %345, %27, %346, %347, %348, %349, %39, %350, %351, %352, %353, %51, %354, %355, %356, %357, %64, %358, %359, %360, %361, %76, %362, %363, %364, %365, %88, %366, %367, %368, %369, %100, %370, %371, %372, %373, %112, %374, %375, %376, %377, %124, %378, %379, %380, %381, %136, %382, %383, %384, %385, %148, %386, %387, %388, %389, %160, %390, %391, %392, %393, %172, %394, %395, %396, %397, %184, %398, %399, %400, %401, %196, %402, %403, %404, %405, %209, %406, %407, %408, %409, %221, %410, %411, %412, %413, %233, %414, %415, %416, %417, %245, %418, %419, %420, %421, %258, %422, %423, %424, %425, %270, %426, %427, %428, %429, %282, %430, %431, %432, %433, %294, %434, %435, %436, %437, %307, %438, %439, %440, %441, %319, %442, %443, %444, %445, %331, %446, %447, %448, %449)
}
