#[version = "0.0.5"]
def @main(%input_0: Tensor[(1, 3, 32, 32), int8] /* ty=Tensor[(1, 3, 32, 32), int8] */) -> Tensor[(1, 1, 16, 16), int32] {
  %2 = annotation.compiler_begin(%input_0, meta[relay.attrs.CompilerAttrs][0]) /* ty=Tensor[(1, 3, 32, 32), int8] */;
  %3 = annotation.compiler_begin(meta[relay.Constant][0] /* ty=Tensor[(1, 3, 3, 3), int8] */, meta[relay.attrs.CompilerAttrs][1]) /* ty=Tensor[(1, 3, 3, 3), int8] */;
  %4 = annotation.compiler_begin(meta[relay.Constant][1] /* ty=Tensor[(1), int32] */, meta[relay.attrs.CompilerAttrs][2]) /* ty=Tensor[(1), int32] */;
  %5 = fn (%FunctionVar_0_0: Tensor[(1, 3, 32, 32), int8] /* ty=Tensor[(1, 3, 32, 32), int8] */, %FunctionVar_0_1: Tensor[(1, 3, 3, 3), int8] /* ty=Tensor[(1, 3, 3, 3), int8] */, %FunctionVar_0_2: Tensor[(1), int32] /* ty=Tensor[(1), int32] */, PartitionedFromPattern="nn.conv2d_nn.bias_add_nn.relu_", Composite="match.neoptex.neoptexvectcpu.vec_conv") -> Tensor[(1, 1, 16, 16), int32] {
    %0 = nn.conv2d(%FunctionVar_0_0, %FunctionVar_0_1, strides=[2, 2], padding=[1, 1, 1, 1], kernel_size=[3, 3], out_dtype="int32") /* ty=Tensor[(1, 1, 16, 16), int32] */;
    %1 = nn.bias_add(%0, %FunctionVar_0_2, axis=0) /* ty=Tensor[(1, 1, 16, 16), int32] */;
    nn.relu(%1) /* ty=Tensor[(1, 1, 16, 16), int32] */
  } /* ty=fn (Tensor[(1, 3, 32, 32), int8], Tensor[(1, 3, 3, 3), int8], Tensor[(1), int32]) -> Tensor[(1, 1, 16, 16), int32] */;
  %6 = %5(%2, %3, %4) /* ty=Tensor[(1, 1, 16, 16), int32] */;
  annotation.compiler_end(%6, meta[relay.attrs.CompilerAttrs][3]) /* ty=Tensor[(1, 1, 16, 16), int32] */
}

#[metadata]
{
  "root": 1, 
  "nodes": [
    {
      "type_key": ""
    }, 
    {
      "type_key": "Map", 
      "keys": [
        "relay.Constant", 
        "relay.attrs.CompilerAttrs"
      ], 
      "data": [2, 16]
    }, 
    {
      "type_key": "Array", 
      "data": [3, 12]
    }, 
    {
      "type_key": "relay.Constant", 
      "attrs": {
        "_checked_type_": "6", 
        "data": "0", 
        "span": "0", 
        "virtual_device_": "4"
      }
    }, 
    {
      "type_key": "VirtualDevice", 
      "attrs": {
        "device_type_int": "-1", 
        "memory_scope": "5", 
        "target": "0", 
        "virtual_device_id": "-1"
      }
    }, 
    {
      "type_key": "runtime.String"
    }, 
    {
      "type_key": "relay.TensorType", 
      "attrs": {
        "dtype": "int8", 
        "shape": "7", 
        "span": "0"
      }
    }, 
    {
      "type_key": "Array", 
      "data": [8, 9, 10, 11]
    }, 
    {
      "type_key": "IntImm", 
      "attrs": {
        "dtype": "int32", 
        "span": "0", 
        "value": "1"
      }
    }, 
    {
      "type_key": "IntImm", 
      "attrs": {
        "dtype": "int32", 
        "span": "0", 
        "value": "3"
      }
    }, 
    {
      "type_key": "IntImm", 
      "attrs": {
        "dtype": "int32", 
        "span": "0", 
        "value": "3"
      }
    }, 
    {
      "type_key": "IntImm", 
      "attrs": {
        "dtype": "int32", 
        "span": "0", 
        "value": "3"
      }
    }, 
    {
      "type_key": "relay.Constant", 
      "attrs": {
        "_checked_type_": "13", 
        "data": "1", 
        "span": "0", 
        "virtual_device_": "4"
      }
    }, 
    {
      "type_key": "relay.TensorType", 
      "attrs": {
        "dtype": "int32", 
        "shape": "14", 
        "span": "0"
      }
    }, 
    {
      "type_key": "Array", 
      "data": [15]
    }, 
    {
      "type_key": "IntImm", 
      "attrs": {
        "dtype": "int32", 
        "span": "0", 
        "value": "1"
      }
    }, 
    {
      "type_key": "Array", 
      "data": [17, 18, 19, 20]
    }, 
    {
      "type_key": "relay.attrs.CompilerAttrs", 
      "attrs": {"compiler": "match"}
    }, 
    {
      "type_key": "relay.attrs.CompilerAttrs", 
      "attrs": {"compiler": "match"}
    }, 
    {
      "type_key": "relay.attrs.CompilerAttrs", 
      "attrs": {"compiler": "match"}
    }, 
    {
      "type_key": "relay.attrs.CompilerAttrs", 
      "attrs": {"compiler": "match"}
    }
  ], 
  "b64ndarrays": [
    "P6G0lvBAXt0AAAAAAAAAAAEAAAAAAAAABAAAAAAIAQABAAAAAAAAAAMAAAAAAAAAAwAAAAAAAAADAAAAAAAAABsAAAAAAAAALIr/DK8qRBf1JpY3QEyhWMMzzhp70iJbQ/b9", 
    "P6G0lvBAXt0AAAAAAAAAAAEAAAAAAAAAAQAAAAAgAQABAAAAAAAAAAQAAAAAAAAAZ33lWA=="
  ], 
  "attrs": {"tvm_version": "0.15.dev0"}
}