def @main(%data_0: Tensor[(1, 3, 32, 32), float32], %param_1_train: Tensor[(16, 3, 3, 3), float32], %param_2_train: Tensor[(2), float32], %param_3_train: Tensor[(2), float32], %param_4_train: Tensor[(16, 1, 1), float32], %param_5_train: Tensor[(16, 1, 1), float32], %param_6_train: Tensor[(16, 16, 3, 3), float32], %param_7_train: Tensor[(2), float32], %param_8_train: Tensor[(2), float32], %param_9_train: Tensor[(16, 1, 1), float32], %param_10_train: Tensor[(16, 1, 1), float32], %param_11_train: Tensor[(16, 16, 3, 3), float32], %param_12_train: Tensor[(16), float32], %param_13_train: Tensor[(2), float32], %param_14_train: Tensor[(2), float32], %param_15_train: Tensor[(16, 1, 1), float32], %param_16_train: Tensor[(16, 1, 1), float32], %param_17_train: Tensor[(32, 16, 1, 1), float32], %param_18_train: Tensor[(32), float32], %param_19_train: Tensor[(32, 16, 3, 3), float32], %param_20_train: Tensor[(4), float32], %param_21_train: Tensor[(4), float32], %param_22_train: Tensor[(32, 1, 1), float32], %param_23_train: Tensor[(32, 1, 1), float32], %param_24_train: Tensor[(32, 32, 3, 3), float32], %param_25_train: Tensor[(32), float32], %param_26_train: Tensor[(4), float32], %param_27_train: Tensor[(4), float32], %param_28_train: Tensor[(32, 1, 1), float32], %param_29_train: Tensor[(32, 1, 1), float32], %param_30_train: Tensor[(64, 32, 1, 1), float32], %param_31_train: Tensor[(64), float32], %param_32_train: Tensor[(64, 32, 3, 3), float32], %param_33_train: Tensor[(8), float32], %param_34_train: Tensor[(8), float32], %param_35_train: Tensor[(64, 1, 1), float32], %param_36_train: Tensor[(64, 1, 1), float32], %param_37_train: Tensor[(64, 64, 3, 3), float32], %param_38_train: Tensor[(64), float32], %param_39_train: Tensor[(8), float32], %param_40_train: Tensor[(8), float32], %param_41_train: Tensor[(64, 1, 1), float32], %param_42_train: Tensor[(64, 1, 1), float32], %param_43_train: Tensor[(10, 64), float32], %param_44_train: Tensor[(10), float32], %label: Tensor[(1, 10), float32]) -> (float32, Tensor[(1, 10), float32], Tensor[(1, 10), float32], Tensor[(1, 64), float32], Tensor[(1, 64, 1, 1), float32], Tensor[(1, 64, 8, 8), float32], Tensor[(1, 64, 8, 8), float32], Tensor[(1, 64, 8, 8), float32], Tensor[(1, 8, 512), float32], Tensor[(1, 64, 8, 8), float32], Tensor[(1, 64, 8, 8), float32], Tensor[(1, 64, 8, 8), float32], Tensor[(1, 8, 512), float32], Tensor[(1, 32, 16, 16), float32], Tensor[(1, 32, 16, 16), float32], Tensor[(1, 32, 16, 16), float32], Tensor[(1, 4, 2048), float32], Tensor[(1, 32, 16, 16), float32], Tensor[(1, 32, 16, 16), float32], Tensor[(1, 32, 16, 16), float32], Tensor[(1, 4, 2048), float32], Tensor[(1, 16, 32, 32), float32], Tensor[(1, 16, 32, 32), float32], Tensor[(1, 16, 32, 32), float32], Tensor[(1, 2, 8192), float32], Tensor[(1, 16, 32, 32), float32], Tensor[(1, 16, 32, 32), float32], Tensor[(1, 16, 32, 32), float32], Tensor[(1, 2, 8192), float32], Tensor[(1, 16, 32, 32), float32], Tensor[(1, 16, 32, 32), float32], Tensor[(1, 16, 32, 32), float32], Tensor[(1, 2, 8192), float32], Tensor[(1, 3, 32, 32), float32], Tensor[(1, 16, 32, 32), float32], Tensor[(1, 32, 16, 16), float32]) {
  %0 = nn.conv2d(%data_0, %param_1_train, padding=[1, 1, 1, 1], channels=16, kernel_size=[3, 3]) /* ty=Tensor[(1, 16, 32, 32), float32] */;
  %1 = reshape(%0, newshape=[0, 2, -1]) /* ty=Tensor[(1, 2, 8192), float32] */;
  %2 = nn.instance_norm(%1, %param_2_train, %param_3_train) /* ty=Tensor[(1, 2, 8192), float32] */;
  %3 = reshape(%2, newshape=[1, 16, 32, 32]) /* ty=Tensor[(1, 16, 32, 32), float32] */;
  %4 = multiply(%3, %param_4_train) /* ty=Tensor[(1, 16, 32, 32), float32] */;
  %5 = add(%4, %param_5_train) /* ty=Tensor[(1, 16, 32, 32), float32] */;
  %6 = nn.relu(%5) /* ty=Tensor[(1, 16, 32, 32), float32] */;
  %7 = nn.conv2d(%6, %param_6_train, padding=[1, 1, 1, 1], channels=16, kernel_size=[3, 3]) /* ty=Tensor[(1, 16, 32, 32), float32] */;
  %8 = reshape(%7, newshape=[0, 2, -1]) /* ty=Tensor[(1, 2, 8192), float32] */;
  %9 = nn.instance_norm(%8, %param_7_train, %param_8_train) /* ty=Tensor[(1, 2, 8192), float32] */;
  %10 = reshape(%9, newshape=[1, 16, 32, 32]) /* ty=Tensor[(1, 16, 32, 32), float32] */;
  %11 = multiply(%10, %param_9_train) /* ty=Tensor[(1, 16, 32, 32), float32] */;
  %12 = add(%11, %param_10_train) /* ty=Tensor[(1, 16, 32, 32), float32] */;
  %13 = nn.relu(%12) /* ty=Tensor[(1, 16, 32, 32), float32] */;
  %14 = nn.conv2d(%13, %param_11_train, padding=[1, 1, 1, 1], channels=16, kernel_size=[3, 3]) /* ty=Tensor[(1, 16, 32, 32), float32] */;
  %15 = nn.bias_add(%14, %param_12_train) /* ty=Tensor[(1, 16, 32, 32), float32] */;
  %16 = reshape(%15, newshape=[0, 2, -1]) /* ty=Tensor[(1, 2, 8192), float32] */;
  %17 = nn.instance_norm(%16, %param_13_train, %param_14_train) /* ty=Tensor[(1, 2, 8192), float32] */;
  %18 = reshape(%17, newshape=[1, 16, 32, 32]) /* ty=Tensor[(1, 16, 32, 32), float32] */;
  %19 = multiply(%18, %param_15_train) /* ty=Tensor[(1, 16, 32, 32), float32] */;
  %20 = add(%19, %param_16_train) /* ty=Tensor[(1, 16, 32, 32), float32] */;
  %21 = add(%6, %20) /* ty=Tensor[(1, 16, 32, 32), float32] */;
  %22 = nn.relu(%21) /* ty=Tensor[(1, 16, 32, 32), float32] */;
  %23 = nn.conv2d(%22, %param_17_train, strides=[2, 2], padding=[0, 0, 0, 0], channels=32, kernel_size=[1, 1]) /* ty=Tensor[(1, 32, 16, 16), float32] */;
  %24 = nn.conv2d(%22, %param_19_train, strides=[2, 2], padding=[1, 1, 1, 1], channels=32, kernel_size=[3, 3]) /* ty=Tensor[(1, 32, 16, 16), float32] */;
  %25 = reshape(%24, newshape=[0, 4, -1]) /* ty=Tensor[(1, 4, 2048), float32] */;
  %26 = nn.instance_norm(%25, %param_20_train, %param_21_train) /* ty=Tensor[(1, 4, 2048), float32] */;
  %27 = reshape(%26, newshape=[1, 32, 16, 16]) /* ty=Tensor[(1, 32, 16, 16), float32] */;
  %28 = multiply(%27, %param_22_train) /* ty=Tensor[(1, 32, 16, 16), float32] */;
  %29 = add(%28, %param_23_train) /* ty=Tensor[(1, 32, 16, 16), float32] */;
  %30 = nn.relu(%29) /* ty=Tensor[(1, 32, 16, 16), float32] */;
  %31 = nn.conv2d(%30, %param_24_train, padding=[1, 1, 1, 1], channels=32, kernel_size=[3, 3]) /* ty=Tensor[(1, 32, 16, 16), float32] */;
  %32 = nn.bias_add(%31, %param_25_train) /* ty=Tensor[(1, 32, 16, 16), float32] */;
  %33 = reshape(%32, newshape=[0, 4, -1]) /* ty=Tensor[(1, 4, 2048), float32] */;
  %34 = nn.instance_norm(%33, %param_26_train, %param_27_train) /* ty=Tensor[(1, 4, 2048), float32] */;
  %35 = reshape(%34, newshape=[1, 32, 16, 16]) /* ty=Tensor[(1, 32, 16, 16), float32] */;
  %36 = multiply(%35, %param_28_train) /* ty=Tensor[(1, 32, 16, 16), float32] */;
  %37 = nn.bias_add(%23, %param_18_train) /* ty=Tensor[(1, 32, 16, 16), float32] */;
  %38 = add(%36, %param_29_train) /* ty=Tensor[(1, 32, 16, 16), float32] */;
  %39 = add(%37, %38) /* ty=Tensor[(1, 32, 16, 16), float32] */;
  %40 = nn.relu(%39) /* ty=Tensor[(1, 32, 16, 16), float32] */;
  %41 = nn.conv2d(%40, %param_30_train, strides=[2, 2], padding=[0, 0, 0, 0], channels=64, kernel_size=[1, 1]) /* ty=Tensor[(1, 64, 8, 8), float32] */;
  %42 = nn.conv2d(%40, %param_32_train, strides=[2, 2], padding=[1, 1, 1, 1], channels=64, kernel_size=[3, 3]) /* ty=Tensor[(1, 64, 8, 8), float32] */;
  %43 = reshape(%42, newshape=[0, 8, -1]) /* ty=Tensor[(1, 8, 512), float32] */;
  %44 = nn.instance_norm(%43, %param_33_train, %param_34_train) /* ty=Tensor[(1, 8, 512), float32] */;
  %45 = reshape(%44, newshape=[1, 64, 8, 8]) /* ty=Tensor[(1, 64, 8, 8), float32] */;
  %46 = multiply(%45, %param_35_train) /* ty=Tensor[(1, 64, 8, 8), float32] */;
  %47 = add(%46, %param_36_train) /* ty=Tensor[(1, 64, 8, 8), float32] */;
  %48 = nn.relu(%47) /* ty=Tensor[(1, 64, 8, 8), float32] */;
  %49 = nn.conv2d(%48, %param_37_train, padding=[1, 1, 1, 1], channels=64, kernel_size=[3, 3]) /* ty=Tensor[(1, 64, 8, 8), float32] */;
  %50 = nn.bias_add(%49, %param_38_train) /* ty=Tensor[(1, 64, 8, 8), float32] */;
  %51 = reshape(%50, newshape=[0, 8, -1]) /* ty=Tensor[(1, 8, 512), float32] */;
  %52 = nn.instance_norm(%51, %param_39_train, %param_40_train) /* ty=Tensor[(1, 8, 512), float32] */;
  %53 = reshape(%52, newshape=[1, 64, 8, 8]) /* ty=Tensor[(1, 64, 8, 8), float32] */;
  %54 = multiply(%53, %param_41_train) /* ty=Tensor[(1, 64, 8, 8), float32] */;
  %55 = nn.bias_add(%41, %param_31_train) /* ty=Tensor[(1, 64, 8, 8), float32] */;
  %56 = add(%54, %param_42_train) /* ty=Tensor[(1, 64, 8, 8), float32] */;
  %57 = add(%55, %56) /* ty=Tensor[(1, 64, 8, 8), float32] */;
  %58 = nn.relu(%57) /* ty=Tensor[(1, 64, 8, 8), float32] */;
  %59 = nn.pad(%58, 0f /* ty=float32 */, pad_width=[[0, 0], [0, 0], [0, 0], [0, 0]]) /* ty=Tensor[(1, 64, 8, 8), float32] */;
  %60 = nn.avg_pool2d(%59, pool_size=[8, 8], strides=[8, 8], padding=[0, 0, 0, 0]) /* ty=Tensor[(1, 64, 1, 1), float32] */;
  %61 = nn.batch_flatten(%60) /* ty=Tensor[(1, 64), float32] */;
  %62 = nn.dense(%61, %param_43_train, units=10) /* ty=Tensor[(1, 10), float32] */;
  %63 = add(%62, %param_44_train) /* ty=Tensor[(1, 10), float32] */;
  %64 = reshape(%63, newshape=[0, 0]) /* ty=Tensor[(1, 10), float32] */;
  %65 = nn.log_softmax(%64) /* ty=Tensor[(1, 10), float32] */;
  %66 = nn.cross_entropy_with_logits(%65, %label) /* ty=float32 */;
  %67 = copy(%data_0) /* ty=Tensor[(1, 3, 32, 32), float32] */;
  (%66, %65, %65, %61, %60, %59, %57, %53, %51, %48, %47, %45, %43, %40, %39, %35, %33, %30, %29, %27, %25, %22, %21, %18, %16, %13, %12, %10, %8, %6, %5, %3, %1, %67, %22, %40)
}
