def @main(%nn_cross_entropy_with_logits_0_pred: Tensor[(1, 10), float32], %nn_log_softmax_1_y: Tensor[(1, 10), float32], %nn_dense_5_x: Tensor[(1, 64), float32], %nn_batch_flatten_6_x: Tensor[(1, 64, 1, 1), float32], %nn_avg_pool2d_7_x: Tensor[(1, 64, 8, 8), float32], %nn_relu_9_x: Tensor[(1, 64, 8, 8), float32], %multiply_12_x: Tensor[(1, 64, 8, 8), float32], %nn_instance_norm_14_x: Tensor[(1, 8, 512), float32], %nn_conv2d_17_x: Tensor[(1, 64, 8, 8), float32], %nn_relu_18_x: Tensor[(1, 64, 8, 8), float32], %multiply_20_x: Tensor[(1, 64, 8, 8), float32], %nn_instance_norm_22_x: Tensor[(1, 8, 512), float32], %nn_conv2d_24_x: Tensor[(1, 32, 16, 16), float32], %nn_relu_25_x: Tensor[(1, 32, 16, 16), float32], %multiply_28_x: Tensor[(1, 32, 16, 16), float32], %nn_instance_norm_30_x: Tensor[(1, 4, 2048), float32], %nn_conv2d_33_x: Tensor[(1, 32, 16, 16), float32], %nn_relu_34_x: Tensor[(1, 32, 16, 16), float32], %multiply_36_x: Tensor[(1, 32, 16, 16), float32], %nn_instance_norm_38_x: Tensor[(1, 4, 2048), float32], %nn_conv2d_40_x: Tensor[(1, 16, 32, 32), float32], %nn_relu_41_x: Tensor[(1, 16, 32, 32), float32], %multiply_44_x: Tensor[(1, 16, 32, 32), float32], %nn_instance_norm_46_x: Tensor[(1, 2, 8192), float32], %nn_conv2d_49_x: Tensor[(1, 16, 32, 32), float32], %nn_relu_50_x: Tensor[(1, 16, 32, 32), float32], %multiply_52_x: Tensor[(1, 16, 32, 32), float32], %nn_instance_norm_54_x: Tensor[(1, 2, 8192), float32], %nn_conv2d_56_x: Tensor[(1, 16, 32, 32), float32], %nn_relu_57_x: Tensor[(1, 16, 32, 32), float32], %multiply_59_x: Tensor[(1, 16, 32, 32), float32], %nn_instance_norm_61_x: Tensor[(1, 2, 8192), float32], %nn_conv2d_63_x: Tensor[(1, 3, 32, 32), float32], %nn_conv2d_65_x: Tensor[(1, 16, 32, 32), float32], %nn_conv2d_67_x: Tensor[(1, 32, 16, 16), float32], %data_0: Tensor[(1, 3, 32, 32), float32], %param1_weight: Tensor[(16, 3, 3, 3), float32], %param2_bias: Tensor[(2), float32], %param3_bias: Tensor[(2), float32], %param4_weight: Tensor[(16, 1, 1), float32], %param5_weight: Tensor[(16, 1, 1), float32], %param6_weight: Tensor[(16, 16, 3, 3), float32], %param7_bias: Tensor[(2), float32], %param8_bias: Tensor[(2), float32], %param9_weight: Tensor[(16, 1, 1), float32], %param10_weight: Tensor[(16, 1, 1), float32], %param11_weight: Tensor[(16, 16, 3, 3), float32], %param12_bias: Tensor[(16), float32], %param13_bias: Tensor[(2), float32], %param14_bias: Tensor[(2), float32], %param15_weight: Tensor[(16, 1, 1), float32], %param16_weight: Tensor[(16, 1, 1), float32], %param17_weight: Tensor[(32, 16, 1, 1), float32], %param18_bias: Tensor[(32), float32], %param19_weight: Tensor[(32, 16, 3, 3), float32], %param20_bias: Tensor[(4), float32], %param21_bias: Tensor[(4), float32], %param22_weight: Tensor[(32, 1, 1), float32], %param23_weight: Tensor[(32, 1, 1), float32], %param24_weight: Tensor[(32, 32, 3, 3), float32], %param25_bias: Tensor[(32), float32], %param26_bias: Tensor[(4), float32], %param27_bias: Tensor[(4), float32], %param28_weight: Tensor[(32, 1, 1), float32], %param29_weight: Tensor[(32, 1, 1), float32], %param30_weight: Tensor[(64, 32, 1, 1), float32], %param31_bias: Tensor[(64), float32], %param32_weight: Tensor[(64, 32, 3, 3), float32], %param33_bias: Tensor[(8), float32], %param34_bias: Tensor[(8), float32], %param35_weight: Tensor[(64, 1, 1), float32], %param36_weight: Tensor[(64, 1, 1), float32], %param37_weight: Tensor[(64, 64, 3, 3), float32], %param38_bias: Tensor[(64), float32], %param39_bias: Tensor[(8), float32], %param40_bias: Tensor[(8), float32], %param41_weight: Tensor[(64, 1, 1), float32], %param42_weight: Tensor[(64, 1, 1), float32], %param43_weight: Tensor[(10, 64), float32], %param44_bias: Tensor[(10), float32], %label: Tensor[(1, 10), float32]) -> (Tensor[(1, 10), float32], Tensor[(10, 64), float32], Tensor[(1, 64, 8, 8), float32], Tensor[(1, 64, 8, 8), float32], Tensor[(8), float32], Tensor[(8), float32], Tensor[(64), float32], Tensor[(64, 64, 3, 3), float32], Tensor[(1, 64, 8, 8), float32], Tensor[(1, 64, 8, 8), float32], Tensor[(8), float32], Tensor[(8), float32], Tensor[(64, 32, 3, 3), float32], Tensor[(64), float32], Tensor[(64, 32, 1, 1), float32], Tensor[(1, 32, 16, 16), float32], Tensor[(1, 32, 16, 16), float32], Tensor[(4), float32], Tensor[(4), float32], Tensor[(32), float32], Tensor[(32, 32, 3, 3), float32], Tensor[(1, 32, 16, 16), float32], Tensor[(1, 32, 16, 16), float32], Tensor[(4), float32], Tensor[(4), float32], Tensor[(32, 16, 3, 3), float32], Tensor[(32), float32], Tensor[(32, 16, 1, 1), float32], Tensor[(1, 16, 32, 32), float32], Tensor[(1, 16, 32, 32), float32], Tensor[(2), float32], Tensor[(2), float32], Tensor[(16), float32], Tensor[(16, 16, 3, 3), float32], Tensor[(1, 16, 32, 32), float32], Tensor[(1, 16, 32, 32), float32], Tensor[(2), float32], Tensor[(2), float32], Tensor[(16, 16, 3, 3), float32], Tensor[(1, 16, 32, 32), float32], Tensor[(1, 16, 32, 32), float32], Tensor[(2), float32], Tensor[(2), float32], Tensor[(16, 3, 3, 3), float32]) {
  %0 = ones(shape=[], dtype="float32") /* ty=float32 */;
  %1 = negative(%0) /* ty=float32 */;
  %2 = multiply(%1, %label) /* ty=Tensor[(1, 10), float32] */;
  %3 = sum(%2, axis=[-1], keepdims=True) /* ty=Tensor[(1, 1), float32] */;
  %4 = exp(%nn_log_softmax_1_y) /* ty=Tensor[(1, 10), float32] */;
  %5 = multiply(%3, %4) /* ty=Tensor[(1, 10), float32] */;
  %6 = subtract(%2, %5) /* ty=Tensor[(1, 10), float32] */;
  %7 = reshape(%6, newshape=[1, 10]) /* ty=Tensor[(1, 10), float32] */;
  %8 = transpose(%7, axes=None) /* ty=Tensor[(10, 1), float32] */;
  %9 = zeros(shape=[1, 64, 8, 8], dtype="float32") /* ty=Tensor[(1, 64, 8, 8), float32] */;
  %10 = nn.matmul(%7, %param43_weight, units=None) /* ty=Tensor[(1, 64), float32] */;
  %11 = reshape(%10, newshape=[1, 64, 1, 1]) /* ty=Tensor[(1, 64, 1, 1), float32] */;
  %12 = nn.avg_pool2d_grad(%11, %nn_avg_pool2d_7_x, pool_size=[8, 8], strides=[8, 8], dilation=[], padding=[0, 0, 0, 0]) /* ty=Tensor[(1, 64, 8, 8), float32] */;
  %13 = less(%nn_relu_9_x, %9) /* ty=Tensor[(1, 64, 8, 8), bool] */;
  %14 = strided_slice(%12, begin=[0, 0, 0, 0], end=[None, None, None, None], strides=[1], axes=None) /* ty=Tensor[(1, 64, 8, 8), float32] */;
  %15 = where(%13, %9, %14) /* ty=Tensor[(1, 64, 8, 8), float32] */;
  %16 = multiply(%15, %param41_weight) /* ty=Tensor[(1, 64, 8, 8), float32] */;
  %17 = reshape(%16, newshape=[1, 64, 8, 8]) /* ty=Tensor[(1, 64, 8, 8), float32] */;
  %18 = transpose(%nn_conv2d_17_x, axes=[1, 0, 2, 3]) /* ty=Tensor[(64, 1, 8, 8), float32] */;
  %19 = transpose(%17, axes=[1, 0, 2, 3]) /* ty=Tensor[(64, 1, 8, 8), float32] */;
  %20 = reshape(%18, newshape=[64, 1, 8, 8]) /* ty=Tensor[(64, 1, 8, 8), float32] */;
  %21 = reshape(%19, newshape=[64, 1, 8, 8]) /* ty=Tensor[(64, 1, 8, 8), float32] */;
  %22 = nn.conv2d(%20, %21, padding=[1, 1, 1, 1], channels=64, kernel_size=[8, 8]) /* ty=Tensor[(64, 64, 3, 3), float32] */;
  %23 = reshape(%22, newshape=[64, 1, 64, 3, 3]) /* ty=Tensor[(64, 1, 64, 3, 3), float32] */;
  %24 = zeros(shape=[1, 64, 8, 8], dtype="float32") /* ty=Tensor[(1, 64, 8, 8), float32] */;
  %25 = less(%nn_relu_18_x, %24) /* ty=Tensor[(1, 64, 8, 8), bool] */;
  %26 = nn.conv2d_transpose(%17, %param37_weight, channels=64, kernel_size=[3, 3], padding=[1, 1, 1, 1], kernel_layout="IOHW") /* ty=Tensor[(1, 64, 8, 8), float32] */;
  %27 = where(%25, %24, %26) /* ty=Tensor[(1, 64, 8, 8), float32] */;
  %28 = multiply(%27, %param35_weight) /* ty=Tensor[(1, 64, 8, 8), float32] */;
  %29 = reshape(%28, newshape=[1, 64, 8, 8]) /* ty=Tensor[(1, 64, 8, 8), float32] */;
  %30 = tile(%29, reps=[1, 32, 1, 1]) /* ty=Tensor[(1, 2048, 8, 8), float32] */;
  %31 = reshape(%nn_conv2d_24_x, newshape=[1, -1, 0, 0]) /* ty=Tensor[(1, 32, 16, 16), float32] */;
  %32 = reshape(%30, newshape=[-1, 1, 0, 0]) /* ty=Tensor[(2048, 1, 8, 8), float32] */;
  %33 = nn.conv2d(%31, %32, padding=[1, 1, 1, 1], dilation=[2, 2], groups=32, channels=2048, kernel_size=[8, 8]) /* ty=Tensor[(1, 2048, 4, 4), float32] */;
  %34 = reshape(%33, newshape=[1, 32, 64, 4, 4]) /* ty=Tensor[(1, 32, 64, 4, 4), float32] */;
  %35 = sum(%34, axis=[0]) /* ty=Tensor[(32, 64, 4, 4), float32] */;
  %36 = transpose(%35, axes=[1, 0, 2, 3]) /* ty=Tensor[(64, 32, 4, 4), float32] */;
  %37 = tile(%15, reps=[1, 32, 1, 1]) /* ty=Tensor[(1, 2048, 8, 8), float32] */;
  %38 = reshape(%nn_conv2d_67_x, newshape=[1, -1, 0, 0]) /* ty=Tensor[(1, 32, 16, 16), float32] */;
  %39 = reshape(%37, newshape=[-1, 1, 0, 0]) /* ty=Tensor[(2048, 1, 8, 8), float32] */;
  %40 = nn.conv2d(%38, %39, padding=[0, 0, 0, 0], dilation=[2, 2], groups=32, channels=2048, kernel_size=[8, 8]) /* ty=Tensor[(1, 2048, 2, 2), float32] */;
  %41 = reshape(%40, newshape=[1, 32, 64, 2, 2]) /* ty=Tensor[(1, 32, 64, 2, 2), float32] */;
  %42 = sum(%41, axis=[0]) /* ty=Tensor[(32, 64, 2, 2), float32] */;
  %43 = transpose(%42, axes=[1, 0, 2, 3]) /* ty=Tensor[(64, 32, 2, 2), float32] */;
  %44 = zeros(shape=[1, 32, 16, 16], dtype="float32") /* ty=Tensor[(1, 32, 16, 16), float32] */;
  %45 = less(%nn_relu_25_x, %44) /* ty=Tensor[(1, 32, 16, 16), bool] */;
  %46 = nn.conv2d_transpose(%29, %param32_weight, channels=32, kernel_size=[3, 3], strides=[2, 2], output_padding=[1, 1], padding=[1, 1, 1, 1], kernel_layout="IOHW") /* ty=Tensor[(1, 32, 16, 16), float32] */;
  %47 = where(%45, %44, %46) /* ty=Tensor[(1, 32, 16, 16), float32] */;
  %48 = multiply(%47, %param28_weight) /* ty=Tensor[(1, 32, 16, 16), float32] */;
  %49 = reshape(%48, newshape=[1, 32, 16, 16]) /* ty=Tensor[(1, 32, 16, 16), float32] */;
  %50 = transpose(%nn_conv2d_33_x, axes=[1, 0, 2, 3]) /* ty=Tensor[(32, 1, 16, 16), float32] */;
  %51 = transpose(%49, axes=[1, 0, 2, 3]) /* ty=Tensor[(32, 1, 16, 16), float32] */;
  %52 = reshape(%50, newshape=[32, 1, 16, 16]) /* ty=Tensor[(32, 1, 16, 16), float32] */;
  %53 = reshape(%51, newshape=[32, 1, 16, 16]) /* ty=Tensor[(32, 1, 16, 16), float32] */;
  %54 = nn.conv2d(%52, %53, padding=[1, 1, 1, 1], channels=32, kernel_size=[16, 16]) /* ty=Tensor[(32, 32, 3, 3), float32] */;
  %55 = reshape(%54, newshape=[32, 1, 32, 3, 3]) /* ty=Tensor[(32, 1, 32, 3, 3), float32] */;
  %56 = zeros(shape=[1, 32, 16, 16], dtype="float32") /* ty=Tensor[(1, 32, 16, 16), float32] */;
  %57 = less(%nn_relu_34_x, %56) /* ty=Tensor[(1, 32, 16, 16), bool] */;
  %58 = nn.conv2d_transpose(%49, %param24_weight, channels=32, kernel_size=[3, 3], padding=[1, 1, 1, 1], kernel_layout="IOHW") /* ty=Tensor[(1, 32, 16, 16), float32] */;
  %59 = where(%57, %56, %58) /* ty=Tensor[(1, 32, 16, 16), float32] */;
  %60 = multiply(%59, %param22_weight) /* ty=Tensor[(1, 32, 16, 16), float32] */;
  %61 = reshape(%60, newshape=[1, 32, 16, 16]) /* ty=Tensor[(1, 32, 16, 16), float32] */;
  %62 = tile(%61, reps=[1, 16, 1, 1]) /* ty=Tensor[(1, 512, 16, 16), float32] */;
  %63 = reshape(%nn_conv2d_40_x, newshape=[1, -1, 0, 0]) /* ty=Tensor[(1, 16, 32, 32), float32] */;
  %64 = reshape(%62, newshape=[-1, 1, 0, 0]) /* ty=Tensor[(512, 1, 16, 16), float32] */;
  %65 = nn.conv2d(%63, %64, padding=[1, 1, 1, 1], dilation=[2, 2], groups=16, channels=512, kernel_size=[16, 16]) /* ty=Tensor[(1, 512, 4, 4), float32] */;
  %66 = reshape(%65, newshape=[1, 16, 32, 4, 4]) /* ty=Tensor[(1, 16, 32, 4, 4), float32] */;
  %67 = sum(%66, axis=[0]) /* ty=Tensor[(16, 32, 4, 4), float32] */;
  %68 = transpose(%67, axes=[1, 0, 2, 3]) /* ty=Tensor[(32, 16, 4, 4), float32] */;
  %69 = tile(%47, reps=[1, 16, 1, 1]) /* ty=Tensor[(1, 512, 16, 16), float32] */;
  %70 = reshape(%nn_conv2d_65_x, newshape=[1, -1, 0, 0]) /* ty=Tensor[(1, 16, 32, 32), float32] */;
  %71 = reshape(%69, newshape=[-1, 1, 0, 0]) /* ty=Tensor[(512, 1, 16, 16), float32] */;
  %72 = nn.conv2d(%70, %71, padding=[0, 0, 0, 0], dilation=[2, 2], groups=16, channels=512, kernel_size=[16, 16]) /* ty=Tensor[(1, 512, 2, 2), float32] */;
  %73 = reshape(%72, newshape=[1, 16, 32, 2, 2]) /* ty=Tensor[(1, 16, 32, 2, 2), float32] */;
  %74 = sum(%73, axis=[0]) /* ty=Tensor[(16, 32, 2, 2), float32] */;
  %75 = transpose(%74, axes=[1, 0, 2, 3]) /* ty=Tensor[(32, 16, 2, 2), float32] */;
  %76 = zeros(shape=[1, 16, 32, 32], dtype="float32") /* ty=Tensor[(1, 16, 32, 32), float32] */;
  %77 = less(%nn_relu_41_x, %76) /* ty=Tensor[(1, 16, 32, 32), bool] */;
  %78 = nn.conv2d_transpose(%61, %param19_weight, channels=16, kernel_size=[3, 3], strides=[2, 2], output_padding=[1, 1], padding=[1, 1, 1, 1], kernel_layout="IOHW") /* ty=Tensor[(1, 16, 32, 32), float32] */;
  %79 = where(%77, %76, %78) /* ty=Tensor[(1, 16, 32, 32), float32] */;
  %80 = multiply(%79, %param15_weight) /* ty=Tensor[(1, 16, 32, 32), float32] */;
  %81 = reshape(%80, newshape=[1, 16, 32, 32]) /* ty=Tensor[(1, 16, 32, 32), float32] */;
  %82 = transpose(%nn_conv2d_49_x, axes=[1, 0, 2, 3]) /* ty=Tensor[(16, 1, 32, 32), float32] */;
  %83 = transpose(%81, axes=[1, 0, 2, 3]) /* ty=Tensor[(16, 1, 32, 32), float32] */;
  %84 = reshape(%82, newshape=[16, 1, 32, 32]) /* ty=Tensor[(16, 1, 32, 32), float32] */;
  %85 = reshape(%83, newshape=[16, 1, 32, 32]) /* ty=Tensor[(16, 1, 32, 32), float32] */;
  %86 = nn.conv2d(%84, %85, padding=[1, 1, 1, 1], channels=16, kernel_size=[32, 32]) /* ty=Tensor[(16, 16, 3, 3), float32] */;
  %87 = reshape(%86, newshape=[16, 1, 16, 3, 3]) /* ty=Tensor[(16, 1, 16, 3, 3), float32] */;
  %88 = zeros(shape=[1, 16, 32, 32], dtype="float32") /* ty=Tensor[(1, 16, 32, 32), float32] */;
  %89 = less(%nn_relu_50_x, %88) /* ty=Tensor[(1, 16, 32, 32), bool] */;
  %90 = nn.conv2d_transpose(%81, %param11_weight, channels=16, kernel_size=[3, 3], padding=[1, 1, 1, 1], kernel_layout="IOHW") /* ty=Tensor[(1, 16, 32, 32), float32] */;
  %91 = where(%89, %88, %90) /* ty=Tensor[(1, 16, 32, 32), float32] */;
  %92 = transpose(%nn_conv2d_56_x, axes=[1, 0, 2, 3]) /* ty=Tensor[(16, 1, 32, 32), float32] */;
  %93 = multiply(%91, %param9_weight) /* ty=Tensor[(1, 16, 32, 32), float32] */;
  %94 = reshape(%93, newshape=[1, 16, 32, 32]) /* ty=Tensor[(1, 16, 32, 32), float32] */;
  %95 = transpose(%94, axes=[1, 0, 2, 3]) /* ty=Tensor[(16, 1, 32, 32), float32] */;
  %96 = reshape(%92, newshape=[16, 1, 32, 32]) /* ty=Tensor[(16, 1, 32, 32), float32] */;
  %97 = reshape(%95, newshape=[16, 1, 32, 32]) /* ty=Tensor[(16, 1, 32, 32), float32] */;
  %98 = nn.conv2d(%96, %97, padding=[1, 1, 1, 1], channels=16, kernel_size=[32, 32]) /* ty=Tensor[(16, 16, 3, 3), float32] */;
  %99 = reshape(%98, newshape=[16, 1, 16, 3, 3]) /* ty=Tensor[(16, 1, 16, 3, 3), float32] */;
  %100 = zeros(shape=[1, 16, 32, 32], dtype="float32") /* ty=Tensor[(1, 16, 32, 32), float32] */;
  %101 = less(%nn_relu_57_x, %100) /* ty=Tensor[(1, 16, 32, 32), bool] */;
  %102 = nn.conv2d_transpose(%94, %param6_weight, channels=16, kernel_size=[3, 3], padding=[1, 1, 1, 1], kernel_layout="IOHW") /* ty=Tensor[(1, 16, 32, 32), float32] */;
  %103 = where(%101, %100, %102) /* ty=Tensor[(1, 16, 32, 32), float32] */;
  %104 = transpose(%nn_conv2d_63_x, axes=[1, 0, 2, 3]) /* ty=Tensor[(3, 1, 32, 32), float32] */;
  %105 = multiply(%103, %param4_weight) /* ty=Tensor[(1, 16, 32, 32), float32] */;
  %106 = reshape(%105, newshape=[1, 16, 32, 32]) /* ty=Tensor[(1, 16, 32, 32), float32] */;
  %107 = transpose(%106, axes=[1, 0, 2, 3]) /* ty=Tensor[(16, 1, 32, 32), float32] */;
  %108 = reshape(%104, newshape=[3, 1, 32, 32]) /* ty=Tensor[(3, 1, 32, 32), float32] */;
  %109 = reshape(%107, newshape=[16, 1, 32, 32]) /* ty=Tensor[(16, 1, 32, 32), float32] */;
  %110 = nn.conv2d(%108, %109, padding=[1, 1, 1, 1], channels=16, kernel_size=[32, 32]) /* ty=Tensor[(3, 16, 3, 3), float32] */;
  %111 = reshape(%110, newshape=[16, 1, 3, 3, 3]) /* ty=Tensor[(16, 1, 3, 3, 3), float32] */;
  %112 = nn.matmul(%8, %nn_dense_5_x, units=None) /* ty=Tensor[(10, 64), float32] */;
  %113 = multiply(%15, %multiply_12_x) /* ty=Tensor[(1, 64, 8, 8), float32] */;
  %114 = zeros(shape=[8], dtype="float32") /* ty=Tensor[(8), float32] */;
  %115 = zeros(shape=[8], dtype="float32") /* ty=Tensor[(8), float32] */;
  %116 = sum(%17, axis=[1], exclude=True) /* ty=Tensor[(64), float32] */;
  %117 = sum(%23, axis=[1]) /* ty=Tensor[(64, 64, 3, 3), float32] */;
  %118 = multiply(%27, %multiply_20_x) /* ty=Tensor[(1, 64, 8, 8), float32] */;
  %119 = zeros(shape=[8], dtype="float32") /* ty=Tensor[(8), float32] */;
  %120 = zeros(shape=[8], dtype="float32") /* ty=Tensor[(8), float32] */;
  %121 = strided_slice(%36, begin=[0, 0, 0, 0], end=[64, 32, 3, 3], strides=[1], axes=None) /* ty=Tensor[(64, 32, 3, 3), float32] */;
  %122 = sum(%15, axis=[1], exclude=True) /* ty=Tensor[(64), float32] */;
  %123 = strided_slice(%43, begin=[0, 0, 0, 0], end=[64, 32, 1, 1], strides=[1], axes=None) /* ty=Tensor[(64, 32, 1, 1), float32] */;
  %124 = multiply(%47, %multiply_28_x) /* ty=Tensor[(1, 32, 16, 16), float32] */;
  %125 = zeros(shape=[4], dtype="float32") /* ty=Tensor[(4), float32] */;
  %126 = zeros(shape=[4], dtype="float32") /* ty=Tensor[(4), float32] */;
  %127 = sum(%49, axis=[1], exclude=True) /* ty=Tensor[(32), float32] */;
  %128 = sum(%55, axis=[1]) /* ty=Tensor[(32, 32, 3, 3), float32] */;
  %129 = multiply(%59, %multiply_36_x) /* ty=Tensor[(1, 32, 16, 16), float32] */;
  %130 = zeros(shape=[4], dtype="float32") /* ty=Tensor[(4), float32] */;
  %131 = zeros(shape=[4], dtype="float32") /* ty=Tensor[(4), float32] */;
  %132 = strided_slice(%68, begin=[0, 0, 0, 0], end=[32, 16, 3, 3], strides=[1], axes=None) /* ty=Tensor[(32, 16, 3, 3), float32] */;
  %133 = sum(%47, axis=[1], exclude=True) /* ty=Tensor[(32), float32] */;
  %134 = strided_slice(%75, begin=[0, 0, 0, 0], end=[32, 16, 1, 1], strides=[1], axes=None) /* ty=Tensor[(32, 16, 1, 1), float32] */;
  %135 = multiply(%79, %multiply_44_x) /* ty=Tensor[(1, 16, 32, 32), float32] */;
  %136 = zeros(shape=[2], dtype="float32") /* ty=Tensor[(2), float32] */;
  %137 = zeros(shape=[2], dtype="float32") /* ty=Tensor[(2), float32] */;
  %138 = sum(%81, axis=[1], exclude=True) /* ty=Tensor[(16), float32] */;
  %139 = sum(%87, axis=[1]) /* ty=Tensor[(16, 16, 3, 3), float32] */;
  %140 = multiply(%91, %multiply_52_x) /* ty=Tensor[(1, 16, 32, 32), float32] */;
  %141 = zeros(shape=[2], dtype="float32") /* ty=Tensor[(2), float32] */;
  %142 = zeros(shape=[2], dtype="float32") /* ty=Tensor[(2), float32] */;
  %143 = sum(%99, axis=[1]) /* ty=Tensor[(16, 16, 3, 3), float32] */;
  %144 = multiply(%103, %multiply_59_x) /* ty=Tensor[(1, 16, 32, 32), float32] */;
  %145 = zeros(shape=[2], dtype="float32") /* ty=Tensor[(2), float32] */;
  %146 = zeros(shape=[2], dtype="float32") /* ty=Tensor[(2), float32] */;
  %147 = sum(%111, axis=[1]) /* ty=Tensor[(16, 3, 3, 3), float32] */;
  (%7, %112, %15, %113, %114, %115, %116, %117, %27, %118, %119, %120, %121, %122, %123, %47, %124, %125, %126, %127, %128, %59, %129, %130, %131, %132, %133, %134, %79, %135, %136, %137, %138, %139, %91, %140, %141, %142, %143, %103, %144, %145, %146, %147)
}
