def @main(%data_0: Tensor[(1, 3, 32, 32), float32], %param1_weight: Tensor[(16, 3, 3, 3), float32], %param2_bias: Tensor[(2), float32], %param3_bias: Tensor[(2), float32], %param4_weight: Tensor[(16, 1, 1), float32], %param5_weight: Tensor[(16, 1, 1), float32], %param6_weight: Tensor[(16, 16, 3, 3), float32], %param7_bias: Tensor[(2), float32], %param8_bias: Tensor[(2), float32], %param9_weight: Tensor[(16, 1, 1), float32], %param10_weight: Tensor[(16, 1, 1), float32], %param11_weight: Tensor[(16, 16, 3, 3), float32], %param12_bias: Tensor[(16), float32], %param13_bias: Tensor[(2), float32], %param14_bias: Tensor[(2), float32], %param15_weight: Tensor[(16, 1, 1), float32], %param16_weight: Tensor[(16, 1, 1), float32], %param17_weight: Tensor[(32, 16, 1, 1), float32], %param18_bias: Tensor[(32), float32], %param19_weight: Tensor[(32, 16, 3, 3), float32], %param20_bias: Tensor[(4), float32], %param21_bias: Tensor[(4), float32], %param22_weight: Tensor[(32, 1, 1), float32], %param23_weight: Tensor[(32, 1, 1), float32], %param24_weight: Tensor[(32, 32, 3, 3), float32], %param25_bias: Tensor[(32), float32], %param26_bias: Tensor[(4), float32], %param27_bias: Tensor[(4), float32], %param28_weight: Tensor[(32, 1, 1), float32], %param29_weight: Tensor[(32, 1, 1), float32], %param30_weight: Tensor[(64, 32, 1, 1), float32], %param31_bias: Tensor[(64), float32], %param32_weight: Tensor[(64, 32, 3, 3), float32], %param33_bias: Tensor[(8), float32], %param34_bias: Tensor[(8), float32], %param35_weight: Tensor[(64, 1, 1), float32], %param36_weight: Tensor[(64, 1, 1), float32], %param37_weight: Tensor[(64, 64, 3, 3), float32], %param38_bias: Tensor[(64), float32], %param39_bias: Tensor[(8), float32], %param40_bias: Tensor[(8), float32], %param41_weight: Tensor[(64, 1, 1), float32], %param42_weight: Tensor[(64, 1, 1), float32], %param43_weight: Tensor[(10, 64), float32], %param44_bias: Tensor[(10), float32], %label: Tensor[(1, 10), float32]) -> (float32, Tensor[(1, 10), float32], Tensor[(1, 10), float32], Tensor[(1, 64), float32], Tensor[(1, 64, 1, 1), float32], Tensor[(1, 64, 8, 8), float32], Tensor[(1, 64, 8, 8), float32], Tensor[(1, 64, 8, 8), float32], Tensor[(1, 8, 512), float32], Tensor[(1, 64, 8, 8), float32], Tensor[(1, 64, 8, 8), float32], Tensor[(1, 64, 8, 8), float32], Tensor[(1, 8, 512), float32], Tensor[(1, 32, 16, 16), float32], Tensor[(1, 32, 16, 16), float32], Tensor[(1, 32, 16, 16), float32], Tensor[(1, 4, 2048), float32], Tensor[(1, 32, 16, 16), float32], Tensor[(1, 32, 16, 16), float32], Tensor[(1, 32, 16, 16), float32], Tensor[(1, 4, 2048), float32], Tensor[(1, 16, 32, 32), float32], Tensor[(1, 16, 32, 32), float32], Tensor[(1, 16, 32, 32), float32], Tensor[(1, 2, 8192), float32], Tensor[(1, 16, 32, 32), float32], Tensor[(1, 16, 32, 32), float32], Tensor[(1, 16, 32, 32), float32], Tensor[(1, 2, 8192), float32], Tensor[(1, 16, 32, 32), float32], Tensor[(1, 16, 32, 32), float32], Tensor[(1, 16, 32, 32), float32], Tensor[(1, 2, 8192), float32], Tensor[(1, 3, 32, 32), float32], Tensor[(1, 16, 32, 32), float32], Tensor[(1, 32, 16, 16), float32]) {
  %0 = nn.conv2d(%data_0, %param1_weight, padding=[1, 1, 1, 1], channels=16, kernel_size=[3, 3]) /* ty=Tensor[(1, 16, 32, 32), float32] */;
  %1 = reshape(%0, newshape=[0, 2, -1]) /* ty=Tensor[(1, 2, 8192), float32] */;
  %2 = nn.instance_norm(%1, %param2_bias, %param3_bias) /* ty=Tensor[(1, 2, 8192), float32] */;
  %3 = reshape(%2, newshape=[1, 16, 32, 32]) /* ty=Tensor[(1, 16, 32, 32), float32] */;
  %4 = multiply(%3, %param4_weight) /* ty=Tensor[(1, 16, 32, 32), float32] */;
  %5 = add(%4, %param5_weight) /* ty=Tensor[(1, 16, 32, 32), float32] */;
  %6 = nn.relu(%5) /* ty=Tensor[(1, 16, 32, 32), float32] */;
  %7 = nn.conv2d(%6, %param6_weight, padding=[1, 1, 1, 1], channels=16, kernel_size=[3, 3]) /* ty=Tensor[(1, 16, 32, 32), float32] */;
  %8 = reshape(%7, newshape=[0, 2, -1]) /* ty=Tensor[(1, 2, 8192), float32] */;
  %9 = nn.instance_norm(%8, %param7_bias, %param8_bias) /* ty=Tensor[(1, 2, 8192), float32] */;
  %10 = reshape(%9, newshape=[1, 16, 32, 32]) /* ty=Tensor[(1, 16, 32, 32), float32] */;
  %11 = multiply(%10, %param9_weight) /* ty=Tensor[(1, 16, 32, 32), float32] */;
  %12 = add(%11, %param10_weight) /* ty=Tensor[(1, 16, 32, 32), float32] */;
  %13 = nn.relu(%12) /* ty=Tensor[(1, 16, 32, 32), float32] */;
  %14 = nn.conv2d(%13, %param11_weight, padding=[1, 1, 1, 1], channels=16, kernel_size=[3, 3]) /* ty=Tensor[(1, 16, 32, 32), float32] */;
  %15 = nn.bias_add(%14, %param12_bias) /* ty=Tensor[(1, 16, 32, 32), float32] */;
  %16 = reshape(%15, newshape=[0, 2, -1]) /* ty=Tensor[(1, 2, 8192), float32] */;
  %17 = nn.instance_norm(%16, %param13_bias, %param14_bias) /* ty=Tensor[(1, 2, 8192), float32] */;
  %18 = reshape(%17, newshape=[1, 16, 32, 32]) /* ty=Tensor[(1, 16, 32, 32), float32] */;
  %19 = multiply(%18, %param15_weight) /* ty=Tensor[(1, 16, 32, 32), float32] */;
  %20 = add(%19, %param16_weight) /* ty=Tensor[(1, 16, 32, 32), float32] */;
  %21 = add(%6, %20) /* ty=Tensor[(1, 16, 32, 32), float32] */;
  %22 = nn.relu(%21) /* ty=Tensor[(1, 16, 32, 32), float32] */;
  %23 = nn.conv2d(%22, %param17_weight, strides=[2, 2], padding=[0, 0, 0, 0], channels=32, kernel_size=[1, 1]) /* ty=Tensor[(1, 32, 16, 16), float32] */;
  %24 = nn.conv2d(%22, %param19_weight, strides=[2, 2], padding=[1, 1, 1, 1], channels=32, kernel_size=[3, 3]) /* ty=Tensor[(1, 32, 16, 16), float32] */;
  %25 = reshape(%24, newshape=[0, 4, -1]) /* ty=Tensor[(1, 4, 2048), float32] */;
  %26 = nn.instance_norm(%25, %param20_bias, %param21_bias) /* ty=Tensor[(1, 4, 2048), float32] */;
  %27 = reshape(%26, newshape=[1, 32, 16, 16]) /* ty=Tensor[(1, 32, 16, 16), float32] */;
  %28 = multiply(%27, %param22_weight) /* ty=Tensor[(1, 32, 16, 16), float32] */;
  %29 = add(%28, %param23_weight) /* ty=Tensor[(1, 32, 16, 16), float32] */;
  %30 = nn.relu(%29) /* ty=Tensor[(1, 32, 16, 16), float32] */;
  %31 = nn.conv2d(%30, %param24_weight, padding=[1, 1, 1, 1], channels=32, kernel_size=[3, 3]) /* ty=Tensor[(1, 32, 16, 16), float32] */;
  %32 = nn.bias_add(%31, %param25_bias) /* ty=Tensor[(1, 32, 16, 16), float32] */;
  %33 = reshape(%32, newshape=[0, 4, -1]) /* ty=Tensor[(1, 4, 2048), float32] */;
  %34 = nn.instance_norm(%33, %param26_bias, %param27_bias) /* ty=Tensor[(1, 4, 2048), float32] */;
  %35 = reshape(%34, newshape=[1, 32, 16, 16]) /* ty=Tensor[(1, 32, 16, 16), float32] */;
  %36 = multiply(%35, %param28_weight) /* ty=Tensor[(1, 32, 16, 16), float32] */;
  %37 = nn.bias_add(%23, %param18_bias) /* ty=Tensor[(1, 32, 16, 16), float32] */;
  %38 = add(%36, %param29_weight) /* ty=Tensor[(1, 32, 16, 16), float32] */;
  %39 = add(%37, %38) /* ty=Tensor[(1, 32, 16, 16), float32] */;
  %40 = nn.relu(%39) /* ty=Tensor[(1, 32, 16, 16), float32] */;
  %41 = nn.conv2d(%40, %param30_weight, strides=[2, 2], padding=[0, 0, 0, 0], channels=64, kernel_size=[1, 1]) /* ty=Tensor[(1, 64, 8, 8), float32] */;
  %42 = nn.conv2d(%40, %param32_weight, strides=[2, 2], padding=[1, 1, 1, 1], channels=64, kernel_size=[3, 3]) /* ty=Tensor[(1, 64, 8, 8), float32] */;
  %43 = reshape(%42, newshape=[0, 8, -1]) /* ty=Tensor[(1, 8, 512), float32] */;
  %44 = nn.instance_norm(%43, %param33_bias, %param34_bias) /* ty=Tensor[(1, 8, 512), float32] */;
  %45 = reshape(%44, newshape=[1, 64, 8, 8]) /* ty=Tensor[(1, 64, 8, 8), float32] */;
  %46 = multiply(%45, %param35_weight) /* ty=Tensor[(1, 64, 8, 8), float32] */;
  %47 = add(%46, %param36_weight) /* ty=Tensor[(1, 64, 8, 8), float32] */;
  %48 = nn.relu(%47) /* ty=Tensor[(1, 64, 8, 8), float32] */;
  %49 = nn.conv2d(%48, %param37_weight, padding=[1, 1, 1, 1], channels=64, kernel_size=[3, 3]) /* ty=Tensor[(1, 64, 8, 8), float32] */;
  %50 = nn.bias_add(%49, %param38_bias) /* ty=Tensor[(1, 64, 8, 8), float32] */;
  %51 = reshape(%50, newshape=[0, 8, -1]) /* ty=Tensor[(1, 8, 512), float32] */;
  %52 = nn.instance_norm(%51, %param39_bias, %param40_bias) /* ty=Tensor[(1, 8, 512), float32] */;
  %53 = reshape(%52, newshape=[1, 64, 8, 8]) /* ty=Tensor[(1, 64, 8, 8), float32] */;
  %54 = multiply(%53, %param41_weight) /* ty=Tensor[(1, 64, 8, 8), float32] */;
  %55 = nn.bias_add(%41, %param31_bias) /* ty=Tensor[(1, 64, 8, 8), float32] */;
  %56 = add(%54, %param42_weight) /* ty=Tensor[(1, 64, 8, 8), float32] */;
  %57 = add(%55, %56) /* ty=Tensor[(1, 64, 8, 8), float32] */;
  %58 = nn.relu(%57) /* ty=Tensor[(1, 64, 8, 8), float32] */;
  %59 = nn.pad(%58, 0f /* ty=float32 */, pad_width=[[0, 0], [0, 0], [0, 0], [0, 0]]) /* ty=Tensor[(1, 64, 8, 8), float32] */;
  %60 = nn.avg_pool2d(%59, pool_size=[8, 8], strides=[8, 8], padding=[0, 0, 0, 0]) /* ty=Tensor[(1, 64, 1, 1), float32] */;
  %61 = nn.batch_flatten(%60) /* ty=Tensor[(1, 64), float32] */;
  %62 = nn.dense(%61, %param43_weight, units=10) /* ty=Tensor[(1, 10), float32] */;
  %63 = add(%62, %param44_bias) /* ty=Tensor[(1, 10), float32] */;
  %64 = reshape(%63, newshape=[0, 0]) /* ty=Tensor[(1, 10), float32] */;
  %65 = nn.log_softmax(%64) /* ty=Tensor[(1, 10), float32] */;
  %66 = nn.cross_entropy_with_logits(%65, %label) /* ty=float32 */;
  %67 = copy(%data_0) /* ty=Tensor[(1, 3, 32, 32), float32] */;
  (%66, %65, %65, %61, %60, %59, %57, %53, %51, %48, %47, %45, %43, %40, %39, %35, %33, %30, %29, %27, %25, %22, %21, %18, %16, %13, %12, %10, %8, %6, %5, %3, %1, %67, %22, %40)
}
