def @main(%grad_output: float32, %nn_cross_entropy_with_logits_0_pred: Tensor[(1, 10), float32], %nn_log_softmax_1_y: Tensor[(1, 10), float32], %nn_dense_5_x: Tensor[(1, 64), float32], %nn_batch_flatten_6_x: Tensor[(1, 64, 1, 1), float32], %nn_avg_pool2d_7_x: Tensor[(1, 64, 8, 8), float32], %nn_relu_9_x: Tensor[(1, 64, 8, 8), float32], %multiply_12_x: Tensor[(1, 64, 8, 8), float32], %nn_instance_norm_14_x: Tensor[(1, 8, 512), float32], %nn_conv2d_17_x: Tensor[(1, 64, 8, 8), float32], %nn_relu_18_x: Tensor[(1, 64, 8, 8), float32], %multiply_20_x: Tensor[(1, 64, 8, 8), float32], %nn_instance_norm_22_x: Tensor[(1, 8, 512), float32], %nn_conv2d_24_x: Tensor[(1, 32, 16, 16), float32], %nn_relu_25_x: Tensor[(1, 32, 16, 16), float32], %multiply_28_x: Tensor[(1, 32, 16, 16), float32], %nn_instance_norm_30_x: Tensor[(1, 4, 2048), float32], %nn_conv2d_33_x: Tensor[(1, 32, 16, 16), float32], %nn_relu_34_x: Tensor[(1, 32, 16, 16), float32], %multiply_36_x: Tensor[(1, 32, 16, 16), float32], %nn_instance_norm_38_x: Tensor[(1, 4, 2048), float32], %nn_conv2d_40_x: Tensor[(1, 16, 32, 32), float32], %nn_relu_41_x: Tensor[(1, 16, 32, 32), float32], %multiply_44_x: Tensor[(1, 16, 32, 32), float32], %nn_instance_norm_46_x: Tensor[(1, 2, 8192), float32], %nn_conv2d_49_x: Tensor[(1, 16, 32, 32), float32], %nn_relu_50_x: Tensor[(1, 16, 32, 32), float32], %multiply_52_x: Tensor[(1, 16, 32, 32), float32], %nn_instance_norm_54_x: Tensor[(1, 2, 8192), float32], %nn_conv2d_56_x: Tensor[(1, 16, 32, 32), float32], %nn_relu_57_x: Tensor[(1, 16, 32, 32), float32], %multiply_59_x: Tensor[(1, 16, 32, 32), float32], %nn_instance_norm_61_x: Tensor[(1, 2, 8192), float32], %nn_conv2d_63_x: Tensor[(1, 3, 32, 32), float32], %nn_conv2d_65_x: Tensor[(1, 16, 32, 32), float32], %nn_conv2d_67_x: Tensor[(1, 32, 16, 16), float32], %data_0: Tensor[(1, 3, 32, 32), float32], %param_1_train: Tensor[(16, 3, 3, 3), float32], %param_2_train: Tensor[(2), float32], %param_3_train: Tensor[(2), float32], %param_4_train: Tensor[(16, 1, 1), float32], %param_5_train: Tensor[(16, 1, 1), float32], %param_6_train: Tensor[(16, 16, 3, 3), float32], %param_7_train: Tensor[(2), float32], %param_8_train: Tensor[(2), float32], %param_9_train: Tensor[(16, 1, 1), float32], %param_10_train: Tensor[(16, 1, 1), float32], %param_11_train: Tensor[(16, 16, 3, 3), float32], %param_12_train: Tensor[(16), float32], %param_13_train: Tensor[(2), float32], %param_14_train: Tensor[(2), float32], %param_15_train: Tensor[(16, 1, 1), float32], %param_16_train: Tensor[(16, 1, 1), float32], %param_17_train: Tensor[(32, 16, 1, 1), float32], %param_18_train: Tensor[(32), float32], %param_19_train: Tensor[(32, 16, 3, 3), float32], %param_20_train: Tensor[(4), float32], %param_21_train: Tensor[(4), float32], %param_22_train: Tensor[(32, 1, 1), float32], %param_23_train: Tensor[(32, 1, 1), float32], %param_24_train: Tensor[(32, 32, 3, 3), float32], %param_25_train: Tensor[(32), float32], %param_26_train: Tensor[(4), float32], %param_27_train: Tensor[(4), float32], %param_28_train: Tensor[(32, 1, 1), float32], %param_29_train: Tensor[(32, 1, 1), float32], %param_30_train: Tensor[(64, 32, 1, 1), float32], %param_31_train: Tensor[(64), float32], %param_32_train: Tensor[(64, 32, 3, 3), float32], %param_33_train: Tensor[(8), float32], %param_34_train: Tensor[(8), float32], %param_35_train: Tensor[(64, 1, 1), float32], %param_36_train: Tensor[(64, 1, 1), float32], %param_37_train: Tensor[(64, 64, 3, 3), float32], %param_38_train: Tensor[(64), float32], %param_39_train: Tensor[(8), float32], %param_40_train: Tensor[(8), float32], %param_41_train: Tensor[(64, 1, 1), float32], %param_42_train: Tensor[(64, 1, 1), float32], %param_43_train: Tensor[(10, 64), float32], %param_44_train: Tensor[(10), float32], %label: Tensor[(1, 10), float32]) -> (Tensor[(1, 10), float32], Tensor[(10, 64), float32], Tensor[(1, 64, 1, 1), float32], Tensor[(1, 64, 1, 1), float32], Tensor[(8, 1), float32], Tensor[(8, 1), float32], Tensor[(64), float32], Tensor[(64, 64, 3, 3), float32], Tensor[(1, 64, 1, 1), float32], Tensor[(1, 64, 1, 1), float32], Tensor[(8, 1), float32], Tensor[(8, 1), float32], Tensor[(64, 32, 3, 3), float32], Tensor[(64), float32], Tensor[(64, 32, 1, 1), float32], Tensor[(1, 32, 1, 1), float32], Tensor[(1, 32, 1, 1), float32], Tensor[(4, 1), float32], Tensor[(4, 1), float32], Tensor[(32), float32], Tensor[(32, 32, 3, 3), float32], Tensor[(1, 32, 1, 1), float32], Tensor[(1, 32, 1, 1), float32], Tensor[(4, 1), float32], Tensor[(4, 1), float32], Tensor[(32, 16, 3, 3), float32], Tensor[(32), float32], Tensor[(32, 16, 1, 1), float32], Tensor[(1, 16, 1, 1), float32], Tensor[(1, 16, 1, 1), float32], Tensor[(2, 1), float32], Tensor[(2, 1), float32], Tensor[(16), float32], Tensor[(16, 16, 3, 3), float32], Tensor[(1, 16, 1, 1), float32], Tensor[(1, 16, 1, 1), float32], Tensor[(2, 1), float32], Tensor[(2, 1), float32], Tensor[(16, 16, 3, 3), float32], Tensor[(1, 16, 1, 1), float32], Tensor[(1, 16, 1, 1), float32], Tensor[(2, 1), float32], Tensor[(2, 1), float32], Tensor[(16, 3, 3, 3), float32]) {
  %0 = negative(%grad_output) /* ty=float32 */;
  %1 = multiply(%0, %label) /* ty=Tensor[(1, 10), float32] */;
  %2 = sum(%1, axis=[-1], keepdims=True) /* ty=Tensor[(1, 1), float32] */;
  %3 = exp(%nn_log_softmax_1_y) /* ty=Tensor[(1, 10), float32] */;
  %4 = multiply(%2, %3) /* ty=Tensor[(1, 10), float32] */;
  %5 = subtract(%1, %4) /* ty=Tensor[(1, 10), float32] */;
  %6 = reshape(%5, newshape=[1, 10]) /* ty=Tensor[(1, 10), float32] */;
  %7 = transpose(%6, axes=None) /* ty=Tensor[(10, 1), float32] */;
  %8 = zeros(shape=[1, 64, 8, 8], dtype="float32") /* ty=Tensor[(1, 64, 8, 8), float32] */;
  %9 = nn.matmul(%6, %param_43_train, units=None) /* ty=Tensor[(1, 64), float32] */;
  %10 = reshape(%9, newshape=[1, 64, 1, 1]) /* ty=Tensor[(1, 64, 1, 1), float32] */;
  %11 = nn.avg_pool2d_grad(%10, %nn_avg_pool2d_7_x, pool_size=[8, 8], strides=[8, 8], dilation=[], padding=[0, 0, 0, 0]) /* ty=Tensor[(1, 64, 8, 8), float32] */;
  %12 = less(%nn_relu_9_x, %8) /* ty=Tensor[(1, 64, 8, 8), bool] */;
  %13 = strided_slice(%11, begin=[0, 0, 0, 0], end=[None, None, None, None], strides=[1], axes=None) /* ty=Tensor[(1, 64, 8, 8), float32] */;
  %14 = where(%12, %8, %13) /* ty=Tensor[(1, 64, 8, 8), float32] */;
  %15 = multiply(%14, %multiply_12_x) /* ty=Tensor[(1, 64, 8, 8), float32] */;
  %16 = multiply(%14, %param_41_train) /* ty=Tensor[(1, 64, 8, 8), float32] */;
  %17 = reshape(%nn_instance_norm_14_x, newshape=[8, 512]) /* ty=Tensor[(8, 512), float32] */;
  %18 = mean(%17, axis=[1], keepdims=True) /* ty=Tensor[(8, 1), float32] */;
  %19 = subtract(%17, %18) /* ty=Tensor[(8, 512), float32] */;
  %20 = power(%19, 2f /* ty=float32 */) /* ty=Tensor[(8, 512), float32] */;
  %21 = mean(%20, axis=[1], keepdims=True) /* ty=Tensor[(8, 1), float32] */;
  %22 = add(%21, 1e-05f /* ty=float32 */) /* ty=Tensor[(8, 1), float32] */;
  %23 = sqrt(%22) /* ty=Tensor[(8, 1), float32] */;
  %24 = divide(1f /* ty=float32 */, %23) /* ty=Tensor[(8, 1), float32] */;
  %25 = repeat(%24, repeats=1, axis=0) /* ty=Tensor[(8, 1), float32] */;
  %26 = reshape(%16, newshape=[8, 512]) /* ty=Tensor[(8, 512), float32] */;
  %27 = reshape(%25, newshape=[8, 1]) /* ty=Tensor[(8, 1), float32] */;
  %28 = multiply(%26, %19) /* ty=Tensor[(8, 512), float32] */;
  %29 = sum(%28, axis=[1], keepdims=True) /* ty=Tensor[(8, 1), float32] */;
  %30 = multiply(-0.5f /* ty=float32 */, %29) /* ty=Tensor[(8, 1), float32] */;
  %31 = power(%27, 3f /* ty=float32 */) /* ty=Tensor[(8, 1), float32] */;
  %32 = multiply(%30, %31) /* ty=Tensor[(8, 1), float32] */;
  %33 = multiply(%32, 0.00195312f /* ty=float32 */) /* ty=Tensor[(8, 1), float32] */;
  %34 = multiply(%19, %33) /* ty=Tensor[(8, 512), float32] */;
  %35 = multiply(%26, %27) /* ty=Tensor[(8, 512), float32] */;
  %36 = multiply(%34, 2f /* ty=float32 */) /* ty=Tensor[(8, 512), float32] */;
  %37 = add(%35, %36) /* ty=Tensor[(8, 512), float32] */;
  %38 = sum(%37, axis=[1], keepdims=True) /* ty=Tensor[(8, 1), float32] */;
  %39 = negative(%38) /* ty=Tensor[(8, 1), float32] */;
  %40 = multiply(%39, 0.00195312f /* ty=float32 */) /* ty=Tensor[(8, 1), float32] */;
  %41 = add(%37, %40) /* ty=Tensor[(8, 512), float32] */;
  %42 = reshape(%41, newshape=[1, 64, 8, 8]) /* ty=Tensor[(1, 64, 8, 8), float32] */;
  %43 = transpose(%nn_conv2d_17_x, axes=[1, 0, 2, 3]) /* ty=Tensor[(64, 1, 8, 8), float32] */;
  %44 = transpose(%42, axes=[1, 0, 2, 3]) /* ty=Tensor[(64, 1, 8, 8), float32] */;
  %45 = reshape(%43, newshape=[64, 1, 8, 8]) /* ty=Tensor[(64, 1, 8, 8), float32] */;
  %46 = reshape(%44, newshape=[64, 1, 8, 8]) /* ty=Tensor[(64, 1, 8, 8), float32] */;
  %47 = nn.conv2d(%45, %46, padding=[1, 1, 1, 1], channels=64, kernel_size=[8, 8]) /* ty=Tensor[(64, 64, 3, 3), float32] */;
  %48 = transpose(%47, axes=[1, 0, 2, 3]) /* ty=Tensor[(64, 64, 3, 3), float32] */;
  %49 = reshape(%48, newshape=[64, 1, 64, 3, 3]) /* ty=Tensor[(64, 1, 64, 3, 3), float32] */;
  %50 = sum(%49, axis=[1]) /* ty=Tensor[(64, 64, 3, 3), float32] */;
  %51 = zeros(shape=[1, 64, 8, 8], dtype="float32") /* ty=Tensor[(1, 64, 8, 8), float32] */;
  %52 = less(%nn_relu_18_x, %51) /* ty=Tensor[(1, 64, 8, 8), bool] */;
  %53 = nn.conv2d_transpose(%42, %param_37_train, channels=64, kernel_size=[3, 3], padding=[1, 1, 1, 1], kernel_layout="IOHW") /* ty=Tensor[(1, 64, 8, 8), float32] */;
  %54 = where(%52, %51, %53) /* ty=Tensor[(1, 64, 8, 8), float32] */;
  %55 = multiply(%54, %multiply_20_x) /* ty=Tensor[(1, 64, 8, 8), float32] */;
  %56 = transpose(%nn_conv2d_24_x, axes=[1, 0, 2, 3]) /* ty=Tensor[(32, 1, 16, 16), float32] */;
  %57 = multiply(%54, %param_35_train) /* ty=Tensor[(1, 64, 8, 8), float32] */;
  %58 = reshape(%nn_instance_norm_22_x, newshape=[8, 512]) /* ty=Tensor[(8, 512), float32] */;
  %59 = mean(%58, axis=[1], keepdims=True) /* ty=Tensor[(8, 1), float32] */;
  %60 = subtract(%58, %59) /* ty=Tensor[(8, 512), float32] */;
  %61 = power(%60, 2f /* ty=float32 */) /* ty=Tensor[(8, 512), float32] */;
  %62 = mean(%61, axis=[1], keepdims=True) /* ty=Tensor[(8, 1), float32] */;
  %63 = add(%62, 1e-05f /* ty=float32 */) /* ty=Tensor[(8, 1), float32] */;
  %64 = sqrt(%63) /* ty=Tensor[(8, 1), float32] */;
  %65 = divide(1f /* ty=float32 */, %64) /* ty=Tensor[(8, 1), float32] */;
  %66 = repeat(%65, repeats=1, axis=0) /* ty=Tensor[(8, 1), float32] */;
  %67 = reshape(%57, newshape=[8, 512]) /* ty=Tensor[(8, 512), float32] */;
  %68 = reshape(%66, newshape=[8, 1]) /* ty=Tensor[(8, 1), float32] */;
  %69 = multiply(%67, %60) /* ty=Tensor[(8, 512), float32] */;
  %70 = sum(%69, axis=[1], keepdims=True) /* ty=Tensor[(8, 1), float32] */;
  %71 = multiply(-0.5f /* ty=float32 */, %70) /* ty=Tensor[(8, 1), float32] */;
  %72 = power(%68, 3f /* ty=float32 */) /* ty=Tensor[(8, 1), float32] */;
  %73 = multiply(%71, %72) /* ty=Tensor[(8, 1), float32] */;
  %74 = multiply(%73, 0.00195312f /* ty=float32 */) /* ty=Tensor[(8, 1), float32] */;
  %75 = multiply(%60, %74) /* ty=Tensor[(8, 512), float32] */;
  %76 = multiply(%67, %68) /* ty=Tensor[(8, 512), float32] */;
  %77 = multiply(%75, 2f /* ty=float32 */) /* ty=Tensor[(8, 512), float32] */;
  %78 = add(%76, %77) /* ty=Tensor[(8, 512), float32] */;
  %79 = sum(%78, axis=[1], keepdims=True) /* ty=Tensor[(8, 1), float32] */;
  %80 = negative(%79) /* ty=Tensor[(8, 1), float32] */;
  %81 = multiply(%80, 0.00195312f /* ty=float32 */) /* ty=Tensor[(8, 1), float32] */;
  %82 = add(%78, %81) /* ty=Tensor[(8, 512), float32] */;
  %83 = reshape(%82, newshape=[1, 64, 8, 8]) /* ty=Tensor[(1, 64, 8, 8), float32] */;
  %84 = transpose(%83, axes=[1, 0, 2, 3]) /* ty=Tensor[(64, 1, 8, 8), float32] */;
  %85 = reshape(%56, newshape=[32, 1, 16, 16]) /* ty=Tensor[(32, 1, 16, 16), float32] */;
  %86 = reshape(%84, newshape=[64, 1, 8, 8]) /* ty=Tensor[(64, 1, 8, 8), float32] */;
  %87 = nn.conv2d(%85, %86, padding=[1, 1, 1, 1], dilation=[2, 2], channels=64, kernel_size=[8, 8]) /* ty=Tensor[(32, 64, 4, 4), float32] */;
  %88 = reshape(%87, newshape=[1, 32, 64, 4, 4]) /* ty=Tensor[(1, 32, 64, 4, 4), float32] */;
  %89 = sum(%88, axis=[0]) /* ty=Tensor[(32, 64, 4, 4), float32] */;
  %90 = transpose(%89, axes=[1, 0, 2, 3]) /* ty=Tensor[(64, 32, 4, 4), float32] */;
  %91 = transpose(%nn_conv2d_67_x, axes=[1, 0, 2, 3]) /* ty=Tensor[(32, 1, 16, 16), float32] */;
  %92 = transpose(%14, axes=[1, 0, 2, 3]) /* ty=Tensor[(64, 1, 8, 8), float32] */;
  %93 = reshape(%91, newshape=[32, 1, 16, 16]) /* ty=Tensor[(32, 1, 16, 16), float32] */;
  %94 = reshape(%92, newshape=[64, 1, 8, 8]) /* ty=Tensor[(64, 1, 8, 8), float32] */;
  %95 = nn.conv2d(%93, %94, padding=[0, 0, 0, 0], dilation=[2, 2], channels=64, kernel_size=[8, 8]) /* ty=Tensor[(32, 64, 2, 2), float32] */;
  %96 = reshape(%95, newshape=[1, 32, 64, 2, 2]) /* ty=Tensor[(1, 32, 64, 2, 2), float32] */;
  %97 = sum(%96, axis=[0]) /* ty=Tensor[(32, 64, 2, 2), float32] */;
  %98 = transpose(%97, axes=[1, 0, 2, 3]) /* ty=Tensor[(64, 32, 2, 2), float32] */;
  %99 = zeros(shape=[1, 32, 16, 16], dtype="float32") /* ty=Tensor[(1, 32, 16, 16), float32] */;
  %100 = less(%nn_relu_25_x, %99) /* ty=Tensor[(1, 32, 16, 16), bool] */;
  %101 = nn.conv2d_transpose(%83, %param_32_train, channels=32, kernel_size=[3, 3], strides=[2, 2], output_padding=[1, 1], padding=[1, 1, 1, 1], kernel_layout="IOHW") /* ty=Tensor[(1, 32, 16, 16), float32] */;
  %102 = where(%100, %99, %101) /* ty=Tensor[(1, 32, 16, 16), float32] */;
  %103 = multiply(%102, %multiply_28_x) /* ty=Tensor[(1, 32, 16, 16), float32] */;
  %104 = multiply(%102, %param_28_train) /* ty=Tensor[(1, 32, 16, 16), float32] */;
  %105 = reshape(%nn_instance_norm_30_x, newshape=[4, 2048]) /* ty=Tensor[(4, 2048), float32] */;
  %106 = mean(%105, axis=[1], keepdims=True) /* ty=Tensor[(4, 1), float32] */;
  %107 = subtract(%105, %106) /* ty=Tensor[(4, 2048), float32] */;
  %108 = power(%107, 2f /* ty=float32 */) /* ty=Tensor[(4, 2048), float32] */;
  %109 = mean(%108, axis=[1], keepdims=True) /* ty=Tensor[(4, 1), float32] */;
  %110 = add(%109, 1e-05f /* ty=float32 */) /* ty=Tensor[(4, 1), float32] */;
  %111 = sqrt(%110) /* ty=Tensor[(4, 1), float32] */;
  %112 = divide(1f /* ty=float32 */, %111) /* ty=Tensor[(4, 1), float32] */;
  %113 = repeat(%112, repeats=1, axis=0) /* ty=Tensor[(4, 1), float32] */;
  %114 = reshape(%104, newshape=[4, 2048]) /* ty=Tensor[(4, 2048), float32] */;
  %115 = reshape(%113, newshape=[4, 1]) /* ty=Tensor[(4, 1), float32] */;
  %116 = multiply(%114, %107) /* ty=Tensor[(4, 2048), float32] */;
  %117 = sum(%116, axis=[1], keepdims=True) /* ty=Tensor[(4, 1), float32] */;
  %118 = multiply(-0.5f /* ty=float32 */, %117) /* ty=Tensor[(4, 1), float32] */;
  %119 = power(%115, 3f /* ty=float32 */) /* ty=Tensor[(4, 1), float32] */;
  %120 = multiply(%118, %119) /* ty=Tensor[(4, 1), float32] */;
  %121 = multiply(%120, 0.000488281f /* ty=float32 */) /* ty=Tensor[(4, 1), float32] */;
  %122 = multiply(%107, %121) /* ty=Tensor[(4, 2048), float32] */;
  %123 = multiply(%114, %115) /* ty=Tensor[(4, 2048), float32] */;
  %124 = multiply(%122, 2f /* ty=float32 */) /* ty=Tensor[(4, 2048), float32] */;
  %125 = add(%123, %124) /* ty=Tensor[(4, 2048), float32] */;
  %126 = sum(%125, axis=[1], keepdims=True) /* ty=Tensor[(4, 1), float32] */;
  %127 = negative(%126) /* ty=Tensor[(4, 1), float32] */;
  %128 = multiply(%127, 0.000488281f /* ty=float32 */) /* ty=Tensor[(4, 1), float32] */;
  %129 = add(%125, %128) /* ty=Tensor[(4, 2048), float32] */;
  %130 = reshape(%129, newshape=[1, 32, 16, 16]) /* ty=Tensor[(1, 32, 16, 16), float32] */;
  %131 = transpose(%nn_conv2d_33_x, axes=[1, 0, 2, 3]) /* ty=Tensor[(32, 1, 16, 16), float32] */;
  %132 = transpose(%130, axes=[1, 0, 2, 3]) /* ty=Tensor[(32, 1, 16, 16), float32] */;
  %133 = reshape(%131, newshape=[32, 1, 16, 16]) /* ty=Tensor[(32, 1, 16, 16), float32] */;
  %134 = reshape(%132, newshape=[32, 1, 16, 16]) /* ty=Tensor[(32, 1, 16, 16), float32] */;
  %135 = nn.conv2d(%133, %134, padding=[1, 1, 1, 1], channels=32, kernel_size=[16, 16]) /* ty=Tensor[(32, 32, 3, 3), float32] */;
  %136 = transpose(%135, axes=[1, 0, 2, 3]) /* ty=Tensor[(32, 32, 3, 3), float32] */;
  %137 = reshape(%136, newshape=[32, 1, 32, 3, 3]) /* ty=Tensor[(32, 1, 32, 3, 3), float32] */;
  %138 = sum(%137, axis=[1]) /* ty=Tensor[(32, 32, 3, 3), float32] */;
  %139 = zeros(shape=[1, 32, 16, 16], dtype="float32") /* ty=Tensor[(1, 32, 16, 16), float32] */;
  %140 = less(%nn_relu_34_x, %139) /* ty=Tensor[(1, 32, 16, 16), bool] */;
  %141 = nn.conv2d_transpose(%130, %param_24_train, channels=32, kernel_size=[3, 3], padding=[1, 1, 1, 1], kernel_layout="IOHW") /* ty=Tensor[(1, 32, 16, 16), float32] */;
  %142 = where(%140, %139, %141) /* ty=Tensor[(1, 32, 16, 16), float32] */;
  %143 = multiply(%142, %multiply_36_x) /* ty=Tensor[(1, 32, 16, 16), float32] */;
  %144 = transpose(%nn_conv2d_40_x, axes=[1, 0, 2, 3]) /* ty=Tensor[(16, 1, 32, 32), float32] */;
  %145 = multiply(%142, %param_22_train) /* ty=Tensor[(1, 32, 16, 16), float32] */;
  %146 = reshape(%nn_instance_norm_38_x, newshape=[4, 2048]) /* ty=Tensor[(4, 2048), float32] */;
  %147 = mean(%146, axis=[1], keepdims=True) /* ty=Tensor[(4, 1), float32] */;
  %148 = subtract(%146, %147) /* ty=Tensor[(4, 2048), float32] */;
  %149 = power(%148, 2f /* ty=float32 */) /* ty=Tensor[(4, 2048), float32] */;
  %150 = mean(%149, axis=[1], keepdims=True) /* ty=Tensor[(4, 1), float32] */;
  %151 = add(%150, 1e-05f /* ty=float32 */) /* ty=Tensor[(4, 1), float32] */;
  %152 = sqrt(%151) /* ty=Tensor[(4, 1), float32] */;
  %153 = divide(1f /* ty=float32 */, %152) /* ty=Tensor[(4, 1), float32] */;
  %154 = repeat(%153, repeats=1, axis=0) /* ty=Tensor[(4, 1), float32] */;
  %155 = reshape(%145, newshape=[4, 2048]) /* ty=Tensor[(4, 2048), float32] */;
  %156 = reshape(%154, newshape=[4, 1]) /* ty=Tensor[(4, 1), float32] */;
  %157 = multiply(%155, %148) /* ty=Tensor[(4, 2048), float32] */;
  %158 = sum(%157, axis=[1], keepdims=True) /* ty=Tensor[(4, 1), float32] */;
  %159 = multiply(-0.5f /* ty=float32 */, %158) /* ty=Tensor[(4, 1), float32] */;
  %160 = power(%156, 3f /* ty=float32 */) /* ty=Tensor[(4, 1), float32] */;
  %161 = multiply(%159, %160) /* ty=Tensor[(4, 1), float32] */;
  %162 = multiply(%161, 0.000488281f /* ty=float32 */) /* ty=Tensor[(4, 1), float32] */;
  %163 = multiply(%148, %162) /* ty=Tensor[(4, 2048), float32] */;
  %164 = multiply(%155, %156) /* ty=Tensor[(4, 2048), float32] */;
  %165 = multiply(%163, 2f /* ty=float32 */) /* ty=Tensor[(4, 2048), float32] */;
  %166 = add(%164, %165) /* ty=Tensor[(4, 2048), float32] */;
  %167 = sum(%166, axis=[1], keepdims=True) /* ty=Tensor[(4, 1), float32] */;
  %168 = negative(%167) /* ty=Tensor[(4, 1), float32] */;
  %169 = multiply(%168, 0.000488281f /* ty=float32 */) /* ty=Tensor[(4, 1), float32] */;
  %170 = add(%166, %169) /* ty=Tensor[(4, 2048), float32] */;
  %171 = reshape(%170, newshape=[1, 32, 16, 16]) /* ty=Tensor[(1, 32, 16, 16), float32] */;
  %172 = transpose(%171, axes=[1, 0, 2, 3]) /* ty=Tensor[(32, 1, 16, 16), float32] */;
  %173 = reshape(%144, newshape=[16, 1, 32, 32]) /* ty=Tensor[(16, 1, 32, 32), float32] */;
  %174 = reshape(%172, newshape=[32, 1, 16, 16]) /* ty=Tensor[(32, 1, 16, 16), float32] */;
  %175 = nn.conv2d(%173, %174, padding=[1, 1, 1, 1], dilation=[2, 2], channels=32, kernel_size=[16, 16]) /* ty=Tensor[(16, 32, 4, 4), float32] */;
  %176 = reshape(%175, newshape=[1, 16, 32, 4, 4]) /* ty=Tensor[(1, 16, 32, 4, 4), float32] */;
  %177 = sum(%176, axis=[0]) /* ty=Tensor[(16, 32, 4, 4), float32] */;
  %178 = transpose(%177, axes=[1, 0, 2, 3]) /* ty=Tensor[(32, 16, 4, 4), float32] */;
  %179 = transpose(%nn_conv2d_65_x, axes=[1, 0, 2, 3]) /* ty=Tensor[(16, 1, 32, 32), float32] */;
  %180 = transpose(%102, axes=[1, 0, 2, 3]) /* ty=Tensor[(32, 1, 16, 16), float32] */;
  %181 = reshape(%179, newshape=[16, 1, 32, 32]) /* ty=Tensor[(16, 1, 32, 32), float32] */;
  %182 = reshape(%180, newshape=[32, 1, 16, 16]) /* ty=Tensor[(32, 1, 16, 16), float32] */;
  %183 = nn.conv2d(%181, %182, padding=[0, 0, 0, 0], dilation=[2, 2], channels=32, kernel_size=[16, 16]) /* ty=Tensor[(16, 32, 2, 2), float32] */;
  %184 = reshape(%183, newshape=[1, 16, 32, 2, 2]) /* ty=Tensor[(1, 16, 32, 2, 2), float32] */;
  %185 = sum(%184, axis=[0]) /* ty=Tensor[(16, 32, 2, 2), float32] */;
  %186 = transpose(%185, axes=[1, 0, 2, 3]) /* ty=Tensor[(32, 16, 2, 2), float32] */;
  %187 = zeros(shape=[1, 16, 32, 32], dtype="float32") /* ty=Tensor[(1, 16, 32, 32), float32] */;
  %188 = less(%nn_relu_41_x, %187) /* ty=Tensor[(1, 16, 32, 32), bool] */;
  %189 = nn.conv2d_transpose(%171, %param_19_train, channels=16, kernel_size=[3, 3], strides=[2, 2], output_padding=[1, 1], padding=[1, 1, 1, 1], kernel_layout="IOHW") /* ty=Tensor[(1, 16, 32, 32), float32] */;
  %190 = where(%188, %187, %189) /* ty=Tensor[(1, 16, 32, 32), float32] */;
  %191 = multiply(%190, %multiply_44_x) /* ty=Tensor[(1, 16, 32, 32), float32] */;
  %192 = multiply(%190, %param_15_train) /* ty=Tensor[(1, 16, 32, 32), float32] */;
  %193 = reshape(%nn_instance_norm_46_x, newshape=[2, 8192]) /* ty=Tensor[(2, 8192), float32] */;
  %194 = mean(%193, axis=[1], keepdims=True) /* ty=Tensor[(2, 1), float32] */;
  %195 = subtract(%193, %194) /* ty=Tensor[(2, 8192), float32] */;
  %196 = power(%195, 2f /* ty=float32 */) /* ty=Tensor[(2, 8192), float32] */;
  %197 = mean(%196, axis=[1], keepdims=True) /* ty=Tensor[(2, 1), float32] */;
  %198 = add(%197, 1e-05f /* ty=float32 */) /* ty=Tensor[(2, 1), float32] */;
  %199 = sqrt(%198) /* ty=Tensor[(2, 1), float32] */;
  %200 = divide(1f /* ty=float32 */, %199) /* ty=Tensor[(2, 1), float32] */;
  %201 = repeat(%200, repeats=1, axis=0) /* ty=Tensor[(2, 1), float32] */;
  %202 = reshape(%192, newshape=[2, 8192]) /* ty=Tensor[(2, 8192), float32] */;
  %203 = reshape(%201, newshape=[2, 1]) /* ty=Tensor[(2, 1), float32] */;
  %204 = multiply(%202, %195) /* ty=Tensor[(2, 8192), float32] */;
  %205 = sum(%204, axis=[1], keepdims=True) /* ty=Tensor[(2, 1), float32] */;
  %206 = multiply(-0.5f /* ty=float32 */, %205) /* ty=Tensor[(2, 1), float32] */;
  %207 = power(%203, 3f /* ty=float32 */) /* ty=Tensor[(2, 1), float32] */;
  %208 = multiply(%206, %207) /* ty=Tensor[(2, 1), float32] */;
  %209 = multiply(%208, 0.00012207f /* ty=float32 */) /* ty=Tensor[(2, 1), float32] */;
  %210 = multiply(%195, %209) /* ty=Tensor[(2, 8192), float32] */;
  %211 = multiply(%202, %203) /* ty=Tensor[(2, 8192), float32] */;
  %212 = multiply(%210, 2f /* ty=float32 */) /* ty=Tensor[(2, 8192), float32] */;
  %213 = add(%211, %212) /* ty=Tensor[(2, 8192), float32] */;
  %214 = sum(%213, axis=[1], keepdims=True) /* ty=Tensor[(2, 1), float32] */;
  %215 = negative(%214) /* ty=Tensor[(2, 1), float32] */;
  %216 = multiply(%215, 0.00012207f /* ty=float32 */) /* ty=Tensor[(2, 1), float32] */;
  %217 = add(%213, %216) /* ty=Tensor[(2, 8192), float32] */;
  %218 = reshape(%217, newshape=[1, 16, 32, 32]) /* ty=Tensor[(1, 16, 32, 32), float32] */;
  %219 = transpose(%nn_conv2d_49_x, axes=[1, 0, 2, 3]) /* ty=Tensor[(16, 1, 32, 32), float32] */;
  %220 = transpose(%218, axes=[1, 0, 2, 3]) /* ty=Tensor[(16, 1, 32, 32), float32] */;
  %221 = reshape(%219, newshape=[16, 1, 32, 32]) /* ty=Tensor[(16, 1, 32, 32), float32] */;
  %222 = reshape(%220, newshape=[16, 1, 32, 32]) /* ty=Tensor[(16, 1, 32, 32), float32] */;
  %223 = nn.conv2d(%221, %222, padding=[1, 1, 1, 1], channels=16, kernel_size=[32, 32]) /* ty=Tensor[(16, 16, 3, 3), float32] */;
  %224 = transpose(%223, axes=[1, 0, 2, 3]) /* ty=Tensor[(16, 16, 3, 3), float32] */;
  %225 = reshape(%224, newshape=[16, 1, 16, 3, 3]) /* ty=Tensor[(16, 1, 16, 3, 3), float32] */;
  %226 = sum(%225, axis=[1]) /* ty=Tensor[(16, 16, 3, 3), float32] */;
  %227 = zeros(shape=[1, 16, 32, 32], dtype="float32") /* ty=Tensor[(1, 16, 32, 32), float32] */;
  %228 = less(%nn_relu_50_x, %227) /* ty=Tensor[(1, 16, 32, 32), bool] */;
  %229 = nn.conv2d_transpose(%218, %param_11_train, channels=16, kernel_size=[3, 3], padding=[1, 1, 1, 1], kernel_layout="IOHW") /* ty=Tensor[(1, 16, 32, 32), float32] */;
  %230 = where(%228, %227, %229) /* ty=Tensor[(1, 16, 32, 32), float32] */;
  %231 = multiply(%230, %multiply_52_x) /* ty=Tensor[(1, 16, 32, 32), float32] */;
  %232 = transpose(%nn_conv2d_56_x, axes=[1, 0, 2, 3]) /* ty=Tensor[(16, 1, 32, 32), float32] */;
  %233 = multiply(%230, %param_9_train) /* ty=Tensor[(1, 16, 32, 32), float32] */;
  %234 = reshape(%nn_instance_norm_54_x, newshape=[2, 8192]) /* ty=Tensor[(2, 8192), float32] */;
  %235 = mean(%234, axis=[1], keepdims=True) /* ty=Tensor[(2, 1), float32] */;
  %236 = subtract(%234, %235) /* ty=Tensor[(2, 8192), float32] */;
  %237 = power(%236, 2f /* ty=float32 */) /* ty=Tensor[(2, 8192), float32] */;
  %238 = mean(%237, axis=[1], keepdims=True) /* ty=Tensor[(2, 1), float32] */;
  %239 = add(%238, 1e-05f /* ty=float32 */) /* ty=Tensor[(2, 1), float32] */;
  %240 = sqrt(%239) /* ty=Tensor[(2, 1), float32] */;
  %241 = divide(1f /* ty=float32 */, %240) /* ty=Tensor[(2, 1), float32] */;
  %242 = repeat(%241, repeats=1, axis=0) /* ty=Tensor[(2, 1), float32] */;
  %243 = reshape(%233, newshape=[2, 8192]) /* ty=Tensor[(2, 8192), float32] */;
  %244 = reshape(%242, newshape=[2, 1]) /* ty=Tensor[(2, 1), float32] */;
  %245 = multiply(%243, %236) /* ty=Tensor[(2, 8192), float32] */;
  %246 = sum(%245, axis=[1], keepdims=True) /* ty=Tensor[(2, 1), float32] */;
  %247 = multiply(-0.5f /* ty=float32 */, %246) /* ty=Tensor[(2, 1), float32] */;
  %248 = power(%244, 3f /* ty=float32 */) /* ty=Tensor[(2, 1), float32] */;
  %249 = multiply(%247, %248) /* ty=Tensor[(2, 1), float32] */;
  %250 = multiply(%249, 0.00012207f /* ty=float32 */) /* ty=Tensor[(2, 1), float32] */;
  %251 = multiply(%236, %250) /* ty=Tensor[(2, 8192), float32] */;
  %252 = multiply(%243, %244) /* ty=Tensor[(2, 8192), float32] */;
  %253 = multiply(%251, 2f /* ty=float32 */) /* ty=Tensor[(2, 8192), float32] */;
  %254 = add(%252, %253) /* ty=Tensor[(2, 8192), float32] */;
  %255 = sum(%254, axis=[1], keepdims=True) /* ty=Tensor[(2, 1), float32] */;
  %256 = negative(%255) /* ty=Tensor[(2, 1), float32] */;
  %257 = multiply(%256, 0.00012207f /* ty=float32 */) /* ty=Tensor[(2, 1), float32] */;
  %258 = add(%254, %257) /* ty=Tensor[(2, 8192), float32] */;
  %259 = reshape(%258, newshape=[1, 16, 32, 32]) /* ty=Tensor[(1, 16, 32, 32), float32] */;
  %260 = transpose(%259, axes=[1, 0, 2, 3]) /* ty=Tensor[(16, 1, 32, 32), float32] */;
  %261 = reshape(%232, newshape=[16, 1, 32, 32]) /* ty=Tensor[(16, 1, 32, 32), float32] */;
  %262 = reshape(%260, newshape=[16, 1, 32, 32]) /* ty=Tensor[(16, 1, 32, 32), float32] */;
  %263 = nn.conv2d(%261, %262, padding=[1, 1, 1, 1], channels=16, kernel_size=[32, 32]) /* ty=Tensor[(16, 16, 3, 3), float32] */;
  %264 = transpose(%263, axes=[1, 0, 2, 3]) /* ty=Tensor[(16, 16, 3, 3), float32] */;
  %265 = reshape(%264, newshape=[16, 1, 16, 3, 3]) /* ty=Tensor[(16, 1, 16, 3, 3), float32] */;
  %266 = sum(%265, axis=[1]) /* ty=Tensor[(16, 16, 3, 3), float32] */;
  %267 = zeros(shape=[1, 16, 32, 32], dtype="float32") /* ty=Tensor[(1, 16, 32, 32), float32] */;
  %268 = less(%nn_relu_57_x, %267) /* ty=Tensor[(1, 16, 32, 32), bool] */;
  %269 = nn.conv2d_transpose(%259, %param_6_train, channels=16, kernel_size=[3, 3], padding=[1, 1, 1, 1], kernel_layout="IOHW") /* ty=Tensor[(1, 16, 32, 32), float32] */;
  %270 = where(%268, %267, %269) /* ty=Tensor[(1, 16, 32, 32), float32] */;
  %271 = multiply(%270, %multiply_59_x) /* ty=Tensor[(1, 16, 32, 32), float32] */;
  %272 = transpose(%nn_conv2d_63_x, axes=[1, 0, 2, 3]) /* ty=Tensor[(3, 1, 32, 32), float32] */;
  %273 = multiply(%270, %param_4_train) /* ty=Tensor[(1, 16, 32, 32), float32] */;
  %274 = reshape(%nn_instance_norm_61_x, newshape=[2, 8192]) /* ty=Tensor[(2, 8192), float32] */;
  %275 = mean(%274, axis=[1], keepdims=True) /* ty=Tensor[(2, 1), float32] */;
  %276 = subtract(%274, %275) /* ty=Tensor[(2, 8192), float32] */;
  %277 = power(%276, 2f /* ty=float32 */) /* ty=Tensor[(2, 8192), float32] */;
  %278 = mean(%277, axis=[1], keepdims=True) /* ty=Tensor[(2, 1), float32] */;
  %279 = add(%278, 1e-05f /* ty=float32 */) /* ty=Tensor[(2, 1), float32] */;
  %280 = sqrt(%279) /* ty=Tensor[(2, 1), float32] */;
  %281 = divide(1f /* ty=float32 */, %280) /* ty=Tensor[(2, 1), float32] */;
  %282 = repeat(%281, repeats=1, axis=0) /* ty=Tensor[(2, 1), float32] */;
  %283 = reshape(%273, newshape=[2, 8192]) /* ty=Tensor[(2, 8192), float32] */;
  %284 = reshape(%282, newshape=[2, 1]) /* ty=Tensor[(2, 1), float32] */;
  %285 = multiply(%283, %276) /* ty=Tensor[(2, 8192), float32] */;
  %286 = sum(%285, axis=[1], keepdims=True) /* ty=Tensor[(2, 1), float32] */;
  %287 = multiply(-0.5f /* ty=float32 */, %286) /* ty=Tensor[(2, 1), float32] */;
  %288 = power(%284, 3f /* ty=float32 */) /* ty=Tensor[(2, 1), float32] */;
  %289 = multiply(%287, %288) /* ty=Tensor[(2, 1), float32] */;
  %290 = multiply(%289, 0.00012207f /* ty=float32 */) /* ty=Tensor[(2, 1), float32] */;
  %291 = multiply(%276, %290) /* ty=Tensor[(2, 8192), float32] */;
  %292 = multiply(%283, %284) /* ty=Tensor[(2, 8192), float32] */;
  %293 = multiply(%291, 2f /* ty=float32 */) /* ty=Tensor[(2, 8192), float32] */;
  %294 = add(%292, %293) /* ty=Tensor[(2, 8192), float32] */;
  %295 = sum(%294, axis=[1], keepdims=True) /* ty=Tensor[(2, 1), float32] */;
  %296 = negative(%295) /* ty=Tensor[(2, 1), float32] */;
  %297 = multiply(%296, 0.00012207f /* ty=float32 */) /* ty=Tensor[(2, 1), float32] */;
  %298 = add(%294, %297) /* ty=Tensor[(2, 8192), float32] */;
  %299 = reshape(%298, newshape=[1, 16, 32, 32]) /* ty=Tensor[(1, 16, 32, 32), float32] */;
  %300 = transpose(%299, axes=[1, 0, 2, 3]) /* ty=Tensor[(16, 1, 32, 32), float32] */;
  %301 = reshape(%272, newshape=[3, 1, 32, 32]) /* ty=Tensor[(3, 1, 32, 32), float32] */;
  %302 = reshape(%300, newshape=[16, 1, 32, 32]) /* ty=Tensor[(16, 1, 32, 32), float32] */;
  %303 = nn.conv2d(%301, %302, padding=[1, 1, 1, 1], channels=16, kernel_size=[32, 32]) /* ty=Tensor[(3, 16, 3, 3), float32] */;
  %304 = transpose(%303, axes=[1, 0, 2, 3]) /* ty=Tensor[(16, 3, 3, 3), float32] */;
  %305 = reshape(%304, newshape=[3, 1, 16, 3, 3]) /* ty=Tensor[(3, 1, 16, 3, 3), float32] */;
  %306 = sum(%305, axis=[1]) /* ty=Tensor[(3, 16, 3, 3), float32] */;
  %307 = nn.matmul(%7, %nn_dense_5_x, units=None) /* ty=Tensor[(10, 64), float32] */;
  %308 = sum(%14, axis=[2, 3], keepdims=True) /* ty=Tensor[(1, 64, 1, 1), float32] */;
  %309 = sum(%15, axis=[2, 3], keepdims=True) /* ty=Tensor[(1, 64, 1, 1), float32] */;
  %310 = zeros(shape=[8, 1], dtype="float32") /* ty=Tensor[(8, 1), float32] */;
  %311 = zeros(shape=[8, 1], dtype="float32") /* ty=Tensor[(8, 1), float32] */;
  %312 = sum(%42, axis=[1], exclude=True) /* ty=Tensor[(64), float32] */;
  %313 = reshape(%50, newshape=[64, 64, 3, 3]) /* ty=Tensor[(64, 64, 3, 3), float32] */;
  %314 = sum(%54, axis=[2, 3], keepdims=True) /* ty=Tensor[(1, 64, 1, 1), float32] */;
  %315 = sum(%55, axis=[2, 3], keepdims=True) /* ty=Tensor[(1, 64, 1, 1), float32] */;
  %316 = zeros(shape=[8, 1], dtype="float32") /* ty=Tensor[(8, 1), float32] */;
  %317 = zeros(shape=[8, 1], dtype="float32") /* ty=Tensor[(8, 1), float32] */;
  %318 = strided_slice(%90, begin=[0, 0, 0, 0], end=[64, 32, 3, 3], strides=[1], axes=None) /* ty=Tensor[(64, 32, 3, 3), float32] */;
  %319 = sum(%14, axis=[1], exclude=True) /* ty=Tensor[(64), float32] */;
  %320 = strided_slice(%98, begin=[0, 0, 0, 0], end=[64, 32, 1, 1], strides=[1], axes=None) /* ty=Tensor[(64, 32, 1, 1), float32] */;
  %321 = sum(%102, axis=[2, 3], keepdims=True) /* ty=Tensor[(1, 32, 1, 1), float32] */;
  %322 = sum(%103, axis=[2, 3], keepdims=True) /* ty=Tensor[(1, 32, 1, 1), float32] */;
  %323 = zeros(shape=[4, 1], dtype="float32") /* ty=Tensor[(4, 1), float32] */;
  %324 = zeros(shape=[4, 1], dtype="float32") /* ty=Tensor[(4, 1), float32] */;
  %325 = sum(%130, axis=[1], exclude=True) /* ty=Tensor[(32), float32] */;
  %326 = reshape(%138, newshape=[32, 32, 3, 3]) /* ty=Tensor[(32, 32, 3, 3), float32] */;
  %327 = sum(%142, axis=[2, 3], keepdims=True) /* ty=Tensor[(1, 32, 1, 1), float32] */;
  %328 = sum(%143, axis=[2, 3], keepdims=True) /* ty=Tensor[(1, 32, 1, 1), float32] */;
  %329 = zeros(shape=[4, 1], dtype="float32") /* ty=Tensor[(4, 1), float32] */;
  %330 = zeros(shape=[4, 1], dtype="float32") /* ty=Tensor[(4, 1), float32] */;
  %331 = strided_slice(%178, begin=[0, 0, 0, 0], end=[32, 16, 3, 3], strides=[1], axes=None) /* ty=Tensor[(32, 16, 3, 3), float32] */;
  %332 = sum(%102, axis=[1], exclude=True) /* ty=Tensor[(32), float32] */;
  %333 = strided_slice(%186, begin=[0, 0, 0, 0], end=[32, 16, 1, 1], strides=[1], axes=None) /* ty=Tensor[(32, 16, 1, 1), float32] */;
  %334 = sum(%190, axis=[2, 3], keepdims=True) /* ty=Tensor[(1, 16, 1, 1), float32] */;
  %335 = sum(%191, axis=[2, 3], keepdims=True) /* ty=Tensor[(1, 16, 1, 1), float32] */;
  %336 = zeros(shape=[2, 1], dtype="float32") /* ty=Tensor[(2, 1), float32] */;
  %337 = zeros(shape=[2, 1], dtype="float32") /* ty=Tensor[(2, 1), float32] */;
  %338 = sum(%218, axis=[1], exclude=True) /* ty=Tensor[(16), float32] */;
  %339 = reshape(%226, newshape=[16, 16, 3, 3]) /* ty=Tensor[(16, 16, 3, 3), float32] */;
  %340 = sum(%230, axis=[2, 3], keepdims=True) /* ty=Tensor[(1, 16, 1, 1), float32] */;
  %341 = sum(%231, axis=[2, 3], keepdims=True) /* ty=Tensor[(1, 16, 1, 1), float32] */;
  %342 = zeros(shape=[2, 1], dtype="float32") /* ty=Tensor[(2, 1), float32] */;
  %343 = zeros(shape=[2, 1], dtype="float32") /* ty=Tensor[(2, 1), float32] */;
  %344 = reshape(%266, newshape=[16, 16, 3, 3]) /* ty=Tensor[(16, 16, 3, 3), float32] */;
  %345 = sum(%270, axis=[2, 3], keepdims=True) /* ty=Tensor[(1, 16, 1, 1), float32] */;
  %346 = sum(%271, axis=[2, 3], keepdims=True) /* ty=Tensor[(1, 16, 1, 1), float32] */;
  %347 = zeros(shape=[2, 1], dtype="float32") /* ty=Tensor[(2, 1), float32] */;
  %348 = zeros(shape=[2, 1], dtype="float32") /* ty=Tensor[(2, 1), float32] */;
  %349 = reshape(%306, newshape=[16, 3, 3, 3]) /* ty=Tensor[(16, 3, 3, 3), float32] */;
  (%6, %307, %308, %309, %310, %311, %312, %313, %314, %315, %316, %317, %318, %319, %320, %321, %322, %323, %324, %325, %326, %327, %328, %329, %330, %331, %332, %333, %334, %335, %336, %337, %338, %339, %340, %341, %342, %343, %344, %345, %346, %347, %348, %349)
}
