def @main(%grad_output: float32, %nn_cross_entropy_with_logits_0_pred: Tensor[(1, 10), float32], %nn_log_softmax_1_y: Tensor[(1, 10), float32], %nn_dense_5_x: Tensor[(1, 64), float32], %nn_batch_flatten_6_x: Tensor[(1, 64, 1, 1), float32], %nn_avg_pool2d_7_x: Tensor[(1, 64, 8, 8), float32], %nn_relu_9_x: Tensor[(1, 64, 8, 8), float32], %multiply_12_x: Tensor[(1, 64, 8, 8), float32], %nn_instance_norm_14_x: Tensor[(1, 8, 512), float32], %nn_conv2d_17_x: Tensor[(1, 64, 8, 8), float32], %nn_relu_18_x: Tensor[(1, 64, 8, 8), float32], %multiply_20_x: Tensor[(1, 64, 8, 8), float32], %nn_instance_norm_22_x: Tensor[(1, 8, 512), float32], %nn_conv2d_24_x: Tensor[(1, 32, 16, 16), float32], %nn_relu_25_x: Tensor[(1, 32, 16, 16), float32], %multiply_28_x: Tensor[(1, 32, 16, 16), float32], %nn_instance_norm_30_x: Tensor[(1, 4, 2048), float32], %nn_conv2d_33_x: Tensor[(1, 32, 16, 16), float32], %nn_relu_34_x: Tensor[(1, 32, 16, 16), float32], %multiply_36_x: Tensor[(1, 32, 16, 16), float32], %nn_instance_norm_38_x: Tensor[(1, 4, 2048), float32], %nn_conv2d_40_x: Tensor[(1, 16, 32, 32), float32], %nn_relu_41_x: Tensor[(1, 16, 32, 32), float32], %multiply_44_x: Tensor[(1, 16, 32, 32), float32], %nn_instance_norm_46_x: Tensor[(1, 2, 8192), float32], %nn_conv2d_49_x: Tensor[(1, 16, 32, 32), float32], %nn_relu_50_x: Tensor[(1, 16, 32, 32), float32], %multiply_52_x: Tensor[(1, 16, 32, 32), float32], %nn_instance_norm_54_x: Tensor[(1, 2, 8192), float32], %nn_conv2d_56_x: Tensor[(1, 16, 32, 32), float32], %nn_relu_57_x: Tensor[(1, 16, 32, 32), float32], %multiply_59_x: Tensor[(1, 16, 32, 32), float32], %nn_instance_norm_61_x: Tensor[(1, 2, 8192), float32], %nn_conv2d_63_x: Tensor[(1, 3, 32, 32), float32], %nn_conv2d_65_x: Tensor[(1, 16, 32, 32), float32], %nn_conv2d_67_x: Tensor[(1, 32, 16, 16), float32], %data_0: Tensor[(1, 3, 32, 32), float32], %param_1_train: Tensor[(16, 3, 3, 3), float32], %param_2_train: Tensor[(2), float32], %param_3_train: Tensor[(2), float32], %param_4_train: Tensor[(16, 1, 1), float32], %param_5_train: Tensor[(16, 1, 1), float32], %param_6_train: Tensor[(16, 16, 3, 3), float32], %param_7_train: Tensor[(2), float32], %param_8_train: Tensor[(2), float32], %param_9_train: Tensor[(16, 1, 1), float32], %param_10_train: Tensor[(16, 1, 1), float32], %param_11_train: Tensor[(16, 16, 3, 3), float32], %param_12_train: Tensor[(16), float32], %param_13_train: Tensor[(2), float32], %param_14_train: Tensor[(2), float32], %param_15_train: Tensor[(16, 1, 1), float32], %param_16_train: Tensor[(16, 1, 1), float32], %param_17_train: Tensor[(32, 16, 1, 1), float32], %param_18_train: Tensor[(32), float32], %param_19_train: Tensor[(32, 16, 3, 3), float32], %param_20_train: Tensor[(4), float32], %param_21_train: Tensor[(4), float32], %param_22_train: Tensor[(32, 1, 1), float32], %param_23_train: Tensor[(32, 1, 1), float32], %param_24_train: Tensor[(32, 32, 3, 3), float32], %param_25_train: Tensor[(32), float32], %param_26_train: Tensor[(4), float32], %param_27_train: Tensor[(4), float32], %param_28_train: Tensor[(32, 1, 1), float32], %param_29_train: Tensor[(32, 1, 1), float32], %param_30_train: Tensor[(64, 32, 1, 1), float32], %param_31_train: Tensor[(64), float32], %param_32_train: Tensor[(64, 32, 3, 3), float32], %param_33_train: Tensor[(8), float32], %param_34_train: Tensor[(8), float32], %param_35_train: Tensor[(64, 1, 1), float32], %param_36_train: Tensor[(64, 1, 1), float32], %param_37_train: Tensor[(64, 64, 3, 3), float32], %param_38_train: Tensor[(64), float32], %param_39_train: Tensor[(8), float32], %param_40_train: Tensor[(8), float32], %param_41_train: Tensor[(64, 1, 1), float32], %param_42_train: Tensor[(64, 1, 1), float32], %param_43_train: Tensor[(10, 64), float32], %param_44_train: Tensor[(10), float32], %label: Tensor[(1, 10), float32]) -> (Tensor[(1, 10), float32], Tensor[(10, 64), float32], Tensor[(1, 64, 1, 1), float32], Tensor[(1, 64, 1, 1), float32], Tensor[(8, 1), float32], Tensor[(8, 1), float32], Tensor[(64), float32], Tensor[(64, 64, 3, 3), float32], Tensor[(1, 64, 1, 1), float32], Tensor[(1, 64, 1, 1), float32], Tensor[(8, 1), float32], Tensor[(8, 1), float32], Tensor[(64, 32, 3, 3), float32], Tensor[(64), float32], Tensor[(64, 32, 1, 1), float32], Tensor[(1, 32, 1, 1), float32], Tensor[(1, 32, 1, 1), float32], Tensor[(4, 1), float32], Tensor[(4, 1), float32], Tensor[(32), float32], Tensor[(32, 32, 3, 3), float32], Tensor[(1, 32, 1, 1), float32], Tensor[(1, 32, 1, 1), float32], Tensor[(4, 1), float32], Tensor[(4, 1), float32], Tensor[(32, 16, 3, 3), float32], Tensor[(32), float32], Tensor[(32, 16, 1, 1), float32], Tensor[(1, 16, 1, 1), float32], Tensor[(1, 16, 1, 1), float32], Tensor[(2, 1), float32], Tensor[(2, 1), float32], Tensor[(16), float32], Tensor[(16, 16, 3, 3), float32], Tensor[(1, 16, 1, 1), float32], Tensor[(1, 16, 1, 1), float32], Tensor[(2, 1), float32], Tensor[(2, 1), float32], Tensor[(16, 16, 3, 3), float32], Tensor[(1, 16, 1, 1), float32], Tensor[(1, 16, 1, 1), float32], Tensor[(2, 1), float32], Tensor[(2, 1), float32], Tensor[(16, 3, 3, 3), float32]) {
  %0 = negative(%grad_output) /* ty=float32 */;
  %1 = multiply(%0, %label) /* ty=Tensor[(1, 10), float32] */;
  %2 = sum(%1, axis=[-1], keepdims=True) /* ty=Tensor[(1, 1), float32] */;
  %3 = exp(%nn_log_softmax_1_y) /* ty=Tensor[(1, 10), float32] */;
  %4 = multiply(%2, %3) /* ty=Tensor[(1, 10), float32] */;
  %5 = subtract(%1, %4) /* ty=Tensor[(1, 10), float32] */;
  %6 = reshape(%5, newshape=[1, 10]) /* ty=Tensor[(1, 10), float32] */;
  %7 = transpose(%6, axes=None) /* ty=Tensor[(10, 1), float32] */;
  %8 = zeros(shape=[1, 64, 8, 8], dtype="float32") /* ty=Tensor[(1, 64, 8, 8), float32] */;
  %9 = nn.matmul(%6, %param_43_train, units=None) /* ty=Tensor[(1, 64), float32] */;
  %10 = reshape(%9, newshape=[1, 64, 1, 1]) /* ty=Tensor[(1, 64, 1, 1), float32] */;
  %11 = nn.avg_pool2d_grad(%10, %nn_avg_pool2d_7_x, pool_size=[8, 8], strides=[8, 8], dilation=[], padding=[0, 0, 0, 0]) /* ty=Tensor[(1, 64, 8, 8), float32] */;
  %12 = less(%nn_relu_9_x, %8) /* ty=Tensor[(1, 64, 8, 8), bool] */;
  %13 = strided_slice(%11, begin=[0, 0, 0, 0], end=[None, None, None, None], strides=[1], axes=None) /* ty=Tensor[(1, 64, 8, 8), float32] */;
  %14 = where(%12, %8, %13) /* ty=Tensor[(1, 64, 8, 8), float32] */;
  %15 = multiply(%14, %multiply_12_x) /* ty=Tensor[(1, 64, 8, 8), float32] */;
  %16 = multiply(%14, %param_41_train) /* ty=Tensor[(1, 64, 8, 8), float32] */;
  %17 = reshape(%nn_instance_norm_14_x, newshape=[8, 512]) /* ty=Tensor[(8, 512), float32] */;
  %18 = mean(%17, axis=[1], keepdims=True) /* ty=Tensor[(8, 1), float32] */;
  %19 = subtract(%17, %18) /* ty=Tensor[(8, 512), float32] */;
  %20 = multiply(%19, %19) /* ty=Tensor[(8, 512), float32] */;
  %21 = mean(%20, axis=[1], keepdims=True) /* ty=Tensor[(8, 1), float32] */;
  %22 = add(%21, 1e-05f /* ty=float32 */) /* ty=Tensor[(8, 1), float32] */;
  %23 = sqrt(%22) /* ty=Tensor[(8, 1), float32] */;
  %24 = divide(1f /* ty=float32 */, %23) /* ty=Tensor[(8, 1), float32] */;
  %25 = repeat(%24, repeats=1, axis=0) /* ty=Tensor[(8, 1), float32] */;
  %26 = reshape(%16, newshape=[8, 512]) /* ty=Tensor[(8, 512), float32] */;
  %27 = reshape(%25, newshape=[8, 1]) /* ty=Tensor[(8, 1), float32] */;
  %28 = multiply(%26, %19) /* ty=Tensor[(8, 512), float32] */;
  %29 = sum(%28, axis=[1], keepdims=True) /* ty=Tensor[(8, 1), float32] */;
  %30 = multiply(%27, %27) /* ty=Tensor[(8, 1), float32] */;
  %31 = multiply(-0.5f /* ty=float32 */, %29) /* ty=Tensor[(8, 1), float32] */;
  %32 = multiply(%30, %27) /* ty=Tensor[(8, 1), float32] */;
  %33 = multiply(%31, %32) /* ty=Tensor[(8, 1), float32] */;
  %34 = multiply(%33, 0.00195312f /* ty=float32 */) /* ty=Tensor[(8, 1), float32] */;
  %35 = multiply(%19, %34) /* ty=Tensor[(8, 512), float32] */;
  %36 = multiply(%26, %27) /* ty=Tensor[(8, 512), float32] */;
  %37 = multiply(%35, 2f /* ty=float32 */) /* ty=Tensor[(8, 512), float32] */;
  %38 = add(%36, %37) /* ty=Tensor[(8, 512), float32] */;
  %39 = sum(%38, axis=[1], keepdims=True) /* ty=Tensor[(8, 1), float32] */;
  %40 = negative(%39) /* ty=Tensor[(8, 1), float32] */;
  %41 = multiply(%40, 0.00195312f /* ty=float32 */) /* ty=Tensor[(8, 1), float32] */;
  %42 = add(%38, %41) /* ty=Tensor[(8, 512), float32] */;
  %43 = reshape(%42, newshape=[1, 64, 8, 8]) /* ty=Tensor[(1, 64, 8, 8), float32] */;
  %44 = transpose(%nn_conv2d_17_x, axes=[1, 0, 2, 3]) /* ty=Tensor[(64, 1, 8, 8), float32] */;
  %45 = transpose(%43, axes=[1, 0, 2, 3]) /* ty=Tensor[(64, 1, 8, 8), float32] */;
  %46 = reshape(%44, newshape=[64, 1, 8, 8]) /* ty=Tensor[(64, 1, 8, 8), float32] */;
  %47 = reshape(%45, newshape=[64, 1, 8, 8]) /* ty=Tensor[(64, 1, 8, 8), float32] */;
  %48 = nn.conv2d(%46, %47, padding=[1, 1, 1, 1], channels=64, kernel_size=[8, 8]) /* ty=Tensor[(64, 64, 3, 3), float32] */;
  %49 = transpose(%48, axes=[1, 0, 2, 3]) /* ty=Tensor[(64, 64, 3, 3), float32] */;
  %50 = reshape(%49, newshape=[64, 1, 64, 3, 3]) /* ty=Tensor[(64, 1, 64, 3, 3), float32] */;
  %51 = sum(%50, axis=[1]) /* ty=Tensor[(64, 64, 3, 3), float32] */;
  %52 = zeros(shape=[1, 64, 8, 8], dtype="float32") /* ty=Tensor[(1, 64, 8, 8), float32] */;
  %53 = less(%nn_relu_18_x, %52) /* ty=Tensor[(1, 64, 8, 8), bool] */;
  %54 = nn.conv2d_transpose(%43, %param_37_train, channels=64, kernel_size=[3, 3], padding=[1, 1, 1, 1], kernel_layout="IOHW") /* ty=Tensor[(1, 64, 8, 8), float32] */;
  %55 = where(%53, %52, %54) /* ty=Tensor[(1, 64, 8, 8), float32] */;
  %56 = multiply(%55, %multiply_20_x) /* ty=Tensor[(1, 64, 8, 8), float32] */;
  %57 = transpose(%nn_conv2d_24_x, axes=[1, 0, 2, 3]) /* ty=Tensor[(32, 1, 16, 16), float32] */;
  %58 = multiply(%55, %param_35_train) /* ty=Tensor[(1, 64, 8, 8), float32] */;
  %59 = reshape(%nn_instance_norm_22_x, newshape=[8, 512]) /* ty=Tensor[(8, 512), float32] */;
  %60 = mean(%59, axis=[1], keepdims=True) /* ty=Tensor[(8, 1), float32] */;
  %61 = subtract(%59, %60) /* ty=Tensor[(8, 512), float32] */;
  %62 = multiply(%61, %61) /* ty=Tensor[(8, 512), float32] */;
  %63 = mean(%62, axis=[1], keepdims=True) /* ty=Tensor[(8, 1), float32] */;
  %64 = add(%63, 1e-05f /* ty=float32 */) /* ty=Tensor[(8, 1), float32] */;
  %65 = sqrt(%64) /* ty=Tensor[(8, 1), float32] */;
  %66 = divide(1f /* ty=float32 */, %65) /* ty=Tensor[(8, 1), float32] */;
  %67 = repeat(%66, repeats=1, axis=0) /* ty=Tensor[(8, 1), float32] */;
  %68 = reshape(%58, newshape=[8, 512]) /* ty=Tensor[(8, 512), float32] */;
  %69 = reshape(%67, newshape=[8, 1]) /* ty=Tensor[(8, 1), float32] */;
  %70 = multiply(%68, %61) /* ty=Tensor[(8, 512), float32] */;
  %71 = sum(%70, axis=[1], keepdims=True) /* ty=Tensor[(8, 1), float32] */;
  %72 = multiply(%69, %69) /* ty=Tensor[(8, 1), float32] */;
  %73 = multiply(-0.5f /* ty=float32 */, %71) /* ty=Tensor[(8, 1), float32] */;
  %74 = multiply(%72, %69) /* ty=Tensor[(8, 1), float32] */;
  %75 = multiply(%73, %74) /* ty=Tensor[(8, 1), float32] */;
  %76 = multiply(%75, 0.00195312f /* ty=float32 */) /* ty=Tensor[(8, 1), float32] */;
  %77 = multiply(%61, %76) /* ty=Tensor[(8, 512), float32] */;
  %78 = multiply(%68, %69) /* ty=Tensor[(8, 512), float32] */;
  %79 = multiply(%77, 2f /* ty=float32 */) /* ty=Tensor[(8, 512), float32] */;
  %80 = add(%78, %79) /* ty=Tensor[(8, 512), float32] */;
  %81 = sum(%80, axis=[1], keepdims=True) /* ty=Tensor[(8, 1), float32] */;
  %82 = negative(%81) /* ty=Tensor[(8, 1), float32] */;
  %83 = multiply(%82, 0.00195312f /* ty=float32 */) /* ty=Tensor[(8, 1), float32] */;
  %84 = add(%80, %83) /* ty=Tensor[(8, 512), float32] */;
  %85 = reshape(%84, newshape=[1, 64, 8, 8]) /* ty=Tensor[(1, 64, 8, 8), float32] */;
  %86 = transpose(%85, axes=[1, 0, 2, 3]) /* ty=Tensor[(64, 1, 8, 8), float32] */;
  %87 = reshape(%57, newshape=[32, 1, 16, 16]) /* ty=Tensor[(32, 1, 16, 16), float32] */;
  %88 = reshape(%86, newshape=[64, 1, 8, 8]) /* ty=Tensor[(64, 1, 8, 8), float32] */;
  %89 = nn.conv2d(%87, %88, padding=[1, 1, 1, 1], dilation=[2, 2], channels=64, kernel_size=[8, 8]) /* ty=Tensor[(32, 64, 4, 4), float32] */;
  %90 = reshape(%89, newshape=[1, 32, 64, 4, 4]) /* ty=Tensor[(1, 32, 64, 4, 4), float32] */;
  %91 = sum(%90, axis=[0]) /* ty=Tensor[(32, 64, 4, 4), float32] */;
  %92 = transpose(%91, axes=[1, 0, 2, 3]) /* ty=Tensor[(64, 32, 4, 4), float32] */;
  %93 = transpose(%nn_conv2d_67_x, axes=[1, 0, 2, 3]) /* ty=Tensor[(32, 1, 16, 16), float32] */;
  %94 = transpose(%14, axes=[1, 0, 2, 3]) /* ty=Tensor[(64, 1, 8, 8), float32] */;
  %95 = reshape(%93, newshape=[32, 1, 16, 16]) /* ty=Tensor[(32, 1, 16, 16), float32] */;
  %96 = reshape(%94, newshape=[64, 1, 8, 8]) /* ty=Tensor[(64, 1, 8, 8), float32] */;
  %97 = nn.conv2d(%95, %96, padding=[0, 0, 0, 0], dilation=[2, 2], channels=64, kernel_size=[8, 8]) /* ty=Tensor[(32, 64, 2, 2), float32] */;
  %98 = reshape(%97, newshape=[1, 32, 64, 2, 2]) /* ty=Tensor[(1, 32, 64, 2, 2), float32] */;
  %99 = sum(%98, axis=[0]) /* ty=Tensor[(32, 64, 2, 2), float32] */;
  %100 = transpose(%99, axes=[1, 0, 2, 3]) /* ty=Tensor[(64, 32, 2, 2), float32] */;
  %101 = zeros(shape=[1, 32, 16, 16], dtype="float32") /* ty=Tensor[(1, 32, 16, 16), float32] */;
  %102 = less(%nn_relu_25_x, %101) /* ty=Tensor[(1, 32, 16, 16), bool] */;
  %103 = nn.conv2d_transpose(%85, %param_32_train, channels=32, kernel_size=[3, 3], strides=[2, 2], output_padding=[1, 1], padding=[1, 1, 1, 1], kernel_layout="IOHW") /* ty=Tensor[(1, 32, 16, 16), float32] */;
  %104 = where(%102, %101, %103) /* ty=Tensor[(1, 32, 16, 16), float32] */;
  %105 = multiply(%104, %multiply_28_x) /* ty=Tensor[(1, 32, 16, 16), float32] */;
  %106 = multiply(%104, %param_28_train) /* ty=Tensor[(1, 32, 16, 16), float32] */;
  %107 = reshape(%nn_instance_norm_30_x, newshape=[4, 2048]) /* ty=Tensor[(4, 2048), float32] */;
  %108 = mean(%107, axis=[1], keepdims=True) /* ty=Tensor[(4, 1), float32] */;
  %109 = subtract(%107, %108) /* ty=Tensor[(4, 2048), float32] */;
  %110 = multiply(%109, %109) /* ty=Tensor[(4, 2048), float32] */;
  %111 = mean(%110, axis=[1], keepdims=True) /* ty=Tensor[(4, 1), float32] */;
  %112 = add(%111, 1e-05f /* ty=float32 */) /* ty=Tensor[(4, 1), float32] */;
  %113 = sqrt(%112) /* ty=Tensor[(4, 1), float32] */;
  %114 = divide(1f /* ty=float32 */, %113) /* ty=Tensor[(4, 1), float32] */;
  %115 = repeat(%114, repeats=1, axis=0) /* ty=Tensor[(4, 1), float32] */;
  %116 = reshape(%106, newshape=[4, 2048]) /* ty=Tensor[(4, 2048), float32] */;
  %117 = reshape(%115, newshape=[4, 1]) /* ty=Tensor[(4, 1), float32] */;
  %118 = multiply(%116, %109) /* ty=Tensor[(4, 2048), float32] */;
  %119 = sum(%118, axis=[1], keepdims=True) /* ty=Tensor[(4, 1), float32] */;
  %120 = multiply(%117, %117) /* ty=Tensor[(4, 1), float32] */;
  %121 = multiply(-0.5f /* ty=float32 */, %119) /* ty=Tensor[(4, 1), float32] */;
  %122 = multiply(%120, %117) /* ty=Tensor[(4, 1), float32] */;
  %123 = multiply(%121, %122) /* ty=Tensor[(4, 1), float32] */;
  %124 = multiply(%123, 0.000488281f /* ty=float32 */) /* ty=Tensor[(4, 1), float32] */;
  %125 = multiply(%109, %124) /* ty=Tensor[(4, 2048), float32] */;
  %126 = multiply(%116, %117) /* ty=Tensor[(4, 2048), float32] */;
  %127 = multiply(%125, 2f /* ty=float32 */) /* ty=Tensor[(4, 2048), float32] */;
  %128 = add(%126, %127) /* ty=Tensor[(4, 2048), float32] */;
  %129 = sum(%128, axis=[1], keepdims=True) /* ty=Tensor[(4, 1), float32] */;
  %130 = negative(%129) /* ty=Tensor[(4, 1), float32] */;
  %131 = multiply(%130, 0.000488281f /* ty=float32 */) /* ty=Tensor[(4, 1), float32] */;
  %132 = add(%128, %131) /* ty=Tensor[(4, 2048), float32] */;
  %133 = reshape(%132, newshape=[1, 32, 16, 16]) /* ty=Tensor[(1, 32, 16, 16), float32] */;
  %134 = transpose(%nn_conv2d_33_x, axes=[1, 0, 2, 3]) /* ty=Tensor[(32, 1, 16, 16), float32] */;
  %135 = transpose(%133, axes=[1, 0, 2, 3]) /* ty=Tensor[(32, 1, 16, 16), float32] */;
  %136 = reshape(%134, newshape=[32, 1, 16, 16]) /* ty=Tensor[(32, 1, 16, 16), float32] */;
  %137 = reshape(%135, newshape=[32, 1, 16, 16]) /* ty=Tensor[(32, 1, 16, 16), float32] */;
  %138 = nn.conv2d(%136, %137, padding=[1, 1, 1, 1], channels=32, kernel_size=[16, 16]) /* ty=Tensor[(32, 32, 3, 3), float32] */;
  %139 = transpose(%138, axes=[1, 0, 2, 3]) /* ty=Tensor[(32, 32, 3, 3), float32] */;
  %140 = reshape(%139, newshape=[32, 1, 32, 3, 3]) /* ty=Tensor[(32, 1, 32, 3, 3), float32] */;
  %141 = sum(%140, axis=[1]) /* ty=Tensor[(32, 32, 3, 3), float32] */;
  %142 = zeros(shape=[1, 32, 16, 16], dtype="float32") /* ty=Tensor[(1, 32, 16, 16), float32] */;
  %143 = less(%nn_relu_34_x, %142) /* ty=Tensor[(1, 32, 16, 16), bool] */;
  %144 = nn.conv2d_transpose(%133, %param_24_train, channels=32, kernel_size=[3, 3], padding=[1, 1, 1, 1], kernel_layout="IOHW") /* ty=Tensor[(1, 32, 16, 16), float32] */;
  %145 = where(%143, %142, %144) /* ty=Tensor[(1, 32, 16, 16), float32] */;
  %146 = multiply(%145, %multiply_36_x) /* ty=Tensor[(1, 32, 16, 16), float32] */;
  %147 = transpose(%nn_conv2d_40_x, axes=[1, 0, 2, 3]) /* ty=Tensor[(16, 1, 32, 32), float32] */;
  %148 = multiply(%145, %param_22_train) /* ty=Tensor[(1, 32, 16, 16), float32] */;
  %149 = reshape(%nn_instance_norm_38_x, newshape=[4, 2048]) /* ty=Tensor[(4, 2048), float32] */;
  %150 = mean(%149, axis=[1], keepdims=True) /* ty=Tensor[(4, 1), float32] */;
  %151 = subtract(%149, %150) /* ty=Tensor[(4, 2048), float32] */;
  %152 = multiply(%151, %151) /* ty=Tensor[(4, 2048), float32] */;
  %153 = mean(%152, axis=[1], keepdims=True) /* ty=Tensor[(4, 1), float32] */;
  %154 = add(%153, 1e-05f /* ty=float32 */) /* ty=Tensor[(4, 1), float32] */;
  %155 = sqrt(%154) /* ty=Tensor[(4, 1), float32] */;
  %156 = divide(1f /* ty=float32 */, %155) /* ty=Tensor[(4, 1), float32] */;
  %157 = repeat(%156, repeats=1, axis=0) /* ty=Tensor[(4, 1), float32] */;
  %158 = reshape(%148, newshape=[4, 2048]) /* ty=Tensor[(4, 2048), float32] */;
  %159 = reshape(%157, newshape=[4, 1]) /* ty=Tensor[(4, 1), float32] */;
  %160 = multiply(%158, %151) /* ty=Tensor[(4, 2048), float32] */;
  %161 = sum(%160, axis=[1], keepdims=True) /* ty=Tensor[(4, 1), float32] */;
  %162 = multiply(%159, %159) /* ty=Tensor[(4, 1), float32] */;
  %163 = multiply(-0.5f /* ty=float32 */, %161) /* ty=Tensor[(4, 1), float32] */;
  %164 = multiply(%162, %159) /* ty=Tensor[(4, 1), float32] */;
  %165 = multiply(%163, %164) /* ty=Tensor[(4, 1), float32] */;
  %166 = multiply(%165, 0.000488281f /* ty=float32 */) /* ty=Tensor[(4, 1), float32] */;
  %167 = multiply(%151, %166) /* ty=Tensor[(4, 2048), float32] */;
  %168 = multiply(%158, %159) /* ty=Tensor[(4, 2048), float32] */;
  %169 = multiply(%167, 2f /* ty=float32 */) /* ty=Tensor[(4, 2048), float32] */;
  %170 = add(%168, %169) /* ty=Tensor[(4, 2048), float32] */;
  %171 = sum(%170, axis=[1], keepdims=True) /* ty=Tensor[(4, 1), float32] */;
  %172 = negative(%171) /* ty=Tensor[(4, 1), float32] */;
  %173 = multiply(%172, 0.000488281f /* ty=float32 */) /* ty=Tensor[(4, 1), float32] */;
  %174 = add(%170, %173) /* ty=Tensor[(4, 2048), float32] */;
  %175 = reshape(%174, newshape=[1, 32, 16, 16]) /* ty=Tensor[(1, 32, 16, 16), float32] */;
  %176 = transpose(%175, axes=[1, 0, 2, 3]) /* ty=Tensor[(32, 1, 16, 16), float32] */;
  %177 = reshape(%147, newshape=[16, 1, 32, 32]) /* ty=Tensor[(16, 1, 32, 32), float32] */;
  %178 = reshape(%176, newshape=[32, 1, 16, 16]) /* ty=Tensor[(32, 1, 16, 16), float32] */;
  %179 = nn.conv2d(%177, %178, padding=[1, 1, 1, 1], dilation=[2, 2], channels=32, kernel_size=[16, 16]) /* ty=Tensor[(16, 32, 4, 4), float32] */;
  %180 = reshape(%179, newshape=[1, 16, 32, 4, 4]) /* ty=Tensor[(1, 16, 32, 4, 4), float32] */;
  %181 = sum(%180, axis=[0]) /* ty=Tensor[(16, 32, 4, 4), float32] */;
  %182 = transpose(%181, axes=[1, 0, 2, 3]) /* ty=Tensor[(32, 16, 4, 4), float32] */;
  %183 = transpose(%nn_conv2d_65_x, axes=[1, 0, 2, 3]) /* ty=Tensor[(16, 1, 32, 32), float32] */;
  %184 = transpose(%104, axes=[1, 0, 2, 3]) /* ty=Tensor[(32, 1, 16, 16), float32] */;
  %185 = reshape(%183, newshape=[16, 1, 32, 32]) /* ty=Tensor[(16, 1, 32, 32), float32] */;
  %186 = reshape(%184, newshape=[32, 1, 16, 16]) /* ty=Tensor[(32, 1, 16, 16), float32] */;
  %187 = nn.conv2d(%185, %186, padding=[0, 0, 0, 0], dilation=[2, 2], channels=32, kernel_size=[16, 16]) /* ty=Tensor[(16, 32, 2, 2), float32] */;
  %188 = reshape(%187, newshape=[1, 16, 32, 2, 2]) /* ty=Tensor[(1, 16, 32, 2, 2), float32] */;
  %189 = sum(%188, axis=[0]) /* ty=Tensor[(16, 32, 2, 2), float32] */;
  %190 = transpose(%189, axes=[1, 0, 2, 3]) /* ty=Tensor[(32, 16, 2, 2), float32] */;
  %191 = zeros(shape=[1, 16, 32, 32], dtype="float32") /* ty=Tensor[(1, 16, 32, 32), float32] */;
  %192 = less(%nn_relu_41_x, %191) /* ty=Tensor[(1, 16, 32, 32), bool] */;
  %193 = nn.conv2d_transpose(%175, %param_19_train, channels=16, kernel_size=[3, 3], strides=[2, 2], output_padding=[1, 1], padding=[1, 1, 1, 1], kernel_layout="IOHW") /* ty=Tensor[(1, 16, 32, 32), float32] */;
  %194 = where(%192, %191, %193) /* ty=Tensor[(1, 16, 32, 32), float32] */;
  %195 = multiply(%194, %multiply_44_x) /* ty=Tensor[(1, 16, 32, 32), float32] */;
  %196 = multiply(%194, %param_15_train) /* ty=Tensor[(1, 16, 32, 32), float32] */;
  %197 = reshape(%nn_instance_norm_46_x, newshape=[2, 8192]) /* ty=Tensor[(2, 8192), float32] */;
  %198 = mean(%197, axis=[1], keepdims=True) /* ty=Tensor[(2, 1), float32] */;
  %199 = subtract(%197, %198) /* ty=Tensor[(2, 8192), float32] */;
  %200 = multiply(%199, %199) /* ty=Tensor[(2, 8192), float32] */;
  %201 = mean(%200, axis=[1], keepdims=True) /* ty=Tensor[(2, 1), float32] */;
  %202 = add(%201, 1e-05f /* ty=float32 */) /* ty=Tensor[(2, 1), float32] */;
  %203 = sqrt(%202) /* ty=Tensor[(2, 1), float32] */;
  %204 = divide(1f /* ty=float32 */, %203) /* ty=Tensor[(2, 1), float32] */;
  %205 = repeat(%204, repeats=1, axis=0) /* ty=Tensor[(2, 1), float32] */;
  %206 = reshape(%196, newshape=[2, 8192]) /* ty=Tensor[(2, 8192), float32] */;
  %207 = reshape(%205, newshape=[2, 1]) /* ty=Tensor[(2, 1), float32] */;
  %208 = multiply(%206, %199) /* ty=Tensor[(2, 8192), float32] */;
  %209 = sum(%208, axis=[1], keepdims=True) /* ty=Tensor[(2, 1), float32] */;
  %210 = multiply(%207, %207) /* ty=Tensor[(2, 1), float32] */;
  %211 = multiply(-0.5f /* ty=float32 */, %209) /* ty=Tensor[(2, 1), float32] */;
  %212 = multiply(%210, %207) /* ty=Tensor[(2, 1), float32] */;
  %213 = multiply(%211, %212) /* ty=Tensor[(2, 1), float32] */;
  %214 = multiply(%213, 0.00012207f /* ty=float32 */) /* ty=Tensor[(2, 1), float32] */;
  %215 = multiply(%199, %214) /* ty=Tensor[(2, 8192), float32] */;
  %216 = multiply(%206, %207) /* ty=Tensor[(2, 8192), float32] */;
  %217 = multiply(%215, 2f /* ty=float32 */) /* ty=Tensor[(2, 8192), float32] */;
  %218 = add(%216, %217) /* ty=Tensor[(2, 8192), float32] */;
  %219 = sum(%218, axis=[1], keepdims=True) /* ty=Tensor[(2, 1), float32] */;
  %220 = negative(%219) /* ty=Tensor[(2, 1), float32] */;
  %221 = multiply(%220, 0.00012207f /* ty=float32 */) /* ty=Tensor[(2, 1), float32] */;
  %222 = add(%218, %221) /* ty=Tensor[(2, 8192), float32] */;
  %223 = reshape(%222, newshape=[1, 16, 32, 32]) /* ty=Tensor[(1, 16, 32, 32), float32] */;
  %224 = transpose(%nn_conv2d_49_x, axes=[1, 0, 2, 3]) /* ty=Tensor[(16, 1, 32, 32), float32] */;
  %225 = transpose(%223, axes=[1, 0, 2, 3]) /* ty=Tensor[(16, 1, 32, 32), float32] */;
  %226 = reshape(%224, newshape=[16, 1, 32, 32]) /* ty=Tensor[(16, 1, 32, 32), float32] */;
  %227 = reshape(%225, newshape=[16, 1, 32, 32]) /* ty=Tensor[(16, 1, 32, 32), float32] */;
  %228 = nn.conv2d(%226, %227, padding=[1, 1, 1, 1], channels=16, kernel_size=[32, 32]) /* ty=Tensor[(16, 16, 3, 3), float32] */;
  %229 = transpose(%228, axes=[1, 0, 2, 3]) /* ty=Tensor[(16, 16, 3, 3), float32] */;
  %230 = reshape(%229, newshape=[16, 1, 16, 3, 3]) /* ty=Tensor[(16, 1, 16, 3, 3), float32] */;
  %231 = sum(%230, axis=[1]) /* ty=Tensor[(16, 16, 3, 3), float32] */;
  %232 = zeros(shape=[1, 16, 32, 32], dtype="float32") /* ty=Tensor[(1, 16, 32, 32), float32] */;
  %233 = less(%nn_relu_50_x, %232) /* ty=Tensor[(1, 16, 32, 32), bool] */;
  %234 = nn.conv2d_transpose(%223, %param_11_train, channels=16, kernel_size=[3, 3], padding=[1, 1, 1, 1], kernel_layout="IOHW") /* ty=Tensor[(1, 16, 32, 32), float32] */;
  %235 = where(%233, %232, %234) /* ty=Tensor[(1, 16, 32, 32), float32] */;
  %236 = multiply(%235, %multiply_52_x) /* ty=Tensor[(1, 16, 32, 32), float32] */;
  %237 = transpose(%nn_conv2d_56_x, axes=[1, 0, 2, 3]) /* ty=Tensor[(16, 1, 32, 32), float32] */;
  %238 = multiply(%235, %param_9_train) /* ty=Tensor[(1, 16, 32, 32), float32] */;
  %239 = reshape(%nn_instance_norm_54_x, newshape=[2, 8192]) /* ty=Tensor[(2, 8192), float32] */;
  %240 = mean(%239, axis=[1], keepdims=True) /* ty=Tensor[(2, 1), float32] */;
  %241 = subtract(%239, %240) /* ty=Tensor[(2, 8192), float32] */;
  %242 = multiply(%241, %241) /* ty=Tensor[(2, 8192), float32] */;
  %243 = mean(%242, axis=[1], keepdims=True) /* ty=Tensor[(2, 1), float32] */;
  %244 = add(%243, 1e-05f /* ty=float32 */) /* ty=Tensor[(2, 1), float32] */;
  %245 = sqrt(%244) /* ty=Tensor[(2, 1), float32] */;
  %246 = divide(1f /* ty=float32 */, %245) /* ty=Tensor[(2, 1), float32] */;
  %247 = repeat(%246, repeats=1, axis=0) /* ty=Tensor[(2, 1), float32] */;
  %248 = reshape(%238, newshape=[2, 8192]) /* ty=Tensor[(2, 8192), float32] */;
  %249 = reshape(%247, newshape=[2, 1]) /* ty=Tensor[(2, 1), float32] */;
  %250 = multiply(%248, %241) /* ty=Tensor[(2, 8192), float32] */;
  %251 = sum(%250, axis=[1], keepdims=True) /* ty=Tensor[(2, 1), float32] */;
  %252 = multiply(%249, %249) /* ty=Tensor[(2, 1), float32] */;
  %253 = multiply(-0.5f /* ty=float32 */, %251) /* ty=Tensor[(2, 1), float32] */;
  %254 = multiply(%252, %249) /* ty=Tensor[(2, 1), float32] */;
  %255 = multiply(%253, %254) /* ty=Tensor[(2, 1), float32] */;
  %256 = multiply(%255, 0.00012207f /* ty=float32 */) /* ty=Tensor[(2, 1), float32] */;
  %257 = multiply(%241, %256) /* ty=Tensor[(2, 8192), float32] */;
  %258 = multiply(%248, %249) /* ty=Tensor[(2, 8192), float32] */;
  %259 = multiply(%257, 2f /* ty=float32 */) /* ty=Tensor[(2, 8192), float32] */;
  %260 = add(%258, %259) /* ty=Tensor[(2, 8192), float32] */;
  %261 = sum(%260, axis=[1], keepdims=True) /* ty=Tensor[(2, 1), float32] */;
  %262 = negative(%261) /* ty=Tensor[(2, 1), float32] */;
  %263 = multiply(%262, 0.00012207f /* ty=float32 */) /* ty=Tensor[(2, 1), float32] */;
  %264 = add(%260, %263) /* ty=Tensor[(2, 8192), float32] */;
  %265 = reshape(%264, newshape=[1, 16, 32, 32]) /* ty=Tensor[(1, 16, 32, 32), float32] */;
  %266 = transpose(%265, axes=[1, 0, 2, 3]) /* ty=Tensor[(16, 1, 32, 32), float32] */;
  %267 = reshape(%237, newshape=[16, 1, 32, 32]) /* ty=Tensor[(16, 1, 32, 32), float32] */;
  %268 = reshape(%266, newshape=[16, 1, 32, 32]) /* ty=Tensor[(16, 1, 32, 32), float32] */;
  %269 = nn.conv2d(%267, %268, padding=[1, 1, 1, 1], channels=16, kernel_size=[32, 32]) /* ty=Tensor[(16, 16, 3, 3), float32] */;
  %270 = transpose(%269, axes=[1, 0, 2, 3]) /* ty=Tensor[(16, 16, 3, 3), float32] */;
  %271 = reshape(%270, newshape=[16, 1, 16, 3, 3]) /* ty=Tensor[(16, 1, 16, 3, 3), float32] */;
  %272 = sum(%271, axis=[1]) /* ty=Tensor[(16, 16, 3, 3), float32] */;
  %273 = zeros(shape=[1, 16, 32, 32], dtype="float32") /* ty=Tensor[(1, 16, 32, 32), float32] */;
  %274 = less(%nn_relu_57_x, %273) /* ty=Tensor[(1, 16, 32, 32), bool] */;
  %275 = nn.conv2d_transpose(%265, %param_6_train, channels=16, kernel_size=[3, 3], padding=[1, 1, 1, 1], kernel_layout="IOHW") /* ty=Tensor[(1, 16, 32, 32), float32] */;
  %276 = where(%274, %273, %275) /* ty=Tensor[(1, 16, 32, 32), float32] */;
  %277 = multiply(%276, %multiply_59_x) /* ty=Tensor[(1, 16, 32, 32), float32] */;
  %278 = transpose(%nn_conv2d_63_x, axes=[1, 0, 2, 3]) /* ty=Tensor[(3, 1, 32, 32), float32] */;
  %279 = multiply(%276, %param_4_train) /* ty=Tensor[(1, 16, 32, 32), float32] */;
  %280 = reshape(%nn_instance_norm_61_x, newshape=[2, 8192]) /* ty=Tensor[(2, 8192), float32] */;
  %281 = mean(%280, axis=[1], keepdims=True) /* ty=Tensor[(2, 1), float32] */;
  %282 = subtract(%280, %281) /* ty=Tensor[(2, 8192), float32] */;
  %283 = multiply(%282, %282) /* ty=Tensor[(2, 8192), float32] */;
  %284 = mean(%283, axis=[1], keepdims=True) /* ty=Tensor[(2, 1), float32] */;
  %285 = add(%284, 1e-05f /* ty=float32 */) /* ty=Tensor[(2, 1), float32] */;
  %286 = sqrt(%285) /* ty=Tensor[(2, 1), float32] */;
  %287 = divide(1f /* ty=float32 */, %286) /* ty=Tensor[(2, 1), float32] */;
  %288 = repeat(%287, repeats=1, axis=0) /* ty=Tensor[(2, 1), float32] */;
  %289 = reshape(%279, newshape=[2, 8192]) /* ty=Tensor[(2, 8192), float32] */;
  %290 = reshape(%288, newshape=[2, 1]) /* ty=Tensor[(2, 1), float32] */;
  %291 = multiply(%289, %282) /* ty=Tensor[(2, 8192), float32] */;
  %292 = sum(%291, axis=[1], keepdims=True) /* ty=Tensor[(2, 1), float32] */;
  %293 = multiply(%290, %290) /* ty=Tensor[(2, 1), float32] */;
  %294 = multiply(-0.5f /* ty=float32 */, %292) /* ty=Tensor[(2, 1), float32] */;
  %295 = multiply(%293, %290) /* ty=Tensor[(2, 1), float32] */;
  %296 = multiply(%294, %295) /* ty=Tensor[(2, 1), float32] */;
  %297 = multiply(%296, 0.00012207f /* ty=float32 */) /* ty=Tensor[(2, 1), float32] */;
  %298 = multiply(%282, %297) /* ty=Tensor[(2, 8192), float32] */;
  %299 = multiply(%289, %290) /* ty=Tensor[(2, 8192), float32] */;
  %300 = multiply(%298, 2f /* ty=float32 */) /* ty=Tensor[(2, 8192), float32] */;
  %301 = add(%299, %300) /* ty=Tensor[(2, 8192), float32] */;
  %302 = sum(%301, axis=[1], keepdims=True) /* ty=Tensor[(2, 1), float32] */;
  %303 = negative(%302) /* ty=Tensor[(2, 1), float32] */;
  %304 = multiply(%303, 0.00012207f /* ty=float32 */) /* ty=Tensor[(2, 1), float32] */;
  %305 = add(%301, %304) /* ty=Tensor[(2, 8192), float32] */;
  %306 = reshape(%305, newshape=[1, 16, 32, 32]) /* ty=Tensor[(1, 16, 32, 32), float32] */;
  %307 = transpose(%306, axes=[1, 0, 2, 3]) /* ty=Tensor[(16, 1, 32, 32), float32] */;
  %308 = reshape(%278, newshape=[3, 1, 32, 32]) /* ty=Tensor[(3, 1, 32, 32), float32] */;
  %309 = reshape(%307, newshape=[16, 1, 32, 32]) /* ty=Tensor[(16, 1, 32, 32), float32] */;
  %310 = nn.conv2d(%308, %309, padding=[1, 1, 1, 1], channels=16, kernel_size=[32, 32]) /* ty=Tensor[(3, 16, 3, 3), float32] */;
  %311 = transpose(%310, axes=[1, 0, 2, 3]) /* ty=Tensor[(16, 3, 3, 3), float32] */;
  %312 = reshape(%311, newshape=[3, 1, 16, 3, 3]) /* ty=Tensor[(3, 1, 16, 3, 3), float32] */;
  %313 = sum(%312, axis=[1]) /* ty=Tensor[(3, 16, 3, 3), float32] */;
  %314 = nn.matmul(%7, %nn_dense_5_x, units=None) /* ty=Tensor[(10, 64), float32] */;
  %315 = sum(%14, axis=[2, 3], keepdims=True) /* ty=Tensor[(1, 64, 1, 1), float32] */;
  %316 = sum(%15, axis=[2, 3], keepdims=True) /* ty=Tensor[(1, 64, 1, 1), float32] */;
  %317 = zeros(shape=[8, 1], dtype="float32") /* ty=Tensor[(8, 1), float32] */;
  %318 = zeros(shape=[8, 1], dtype="float32") /* ty=Tensor[(8, 1), float32] */;
  %319 = sum(%43, axis=[1], exclude=True) /* ty=Tensor[(64), float32] */;
  %320 = reshape(%51, newshape=[64, 64, 3, 3]) /* ty=Tensor[(64, 64, 3, 3), float32] */;
  %321 = sum(%55, axis=[2, 3], keepdims=True) /* ty=Tensor[(1, 64, 1, 1), float32] */;
  %322 = sum(%56, axis=[2, 3], keepdims=True) /* ty=Tensor[(1, 64, 1, 1), float32] */;
  %323 = zeros(shape=[8, 1], dtype="float32") /* ty=Tensor[(8, 1), float32] */;
  %324 = zeros(shape=[8, 1], dtype="float32") /* ty=Tensor[(8, 1), float32] */;
  %325 = strided_slice(%92, begin=[0, 0, 0, 0], end=[64, 32, 3, 3], strides=[1], axes=None) /* ty=Tensor[(64, 32, 3, 3), float32] */;
  %326 = sum(%14, axis=[1], exclude=True) /* ty=Tensor[(64), float32] */;
  %327 = strided_slice(%100, begin=[0, 0, 0, 0], end=[64, 32, 1, 1], strides=[1], axes=None) /* ty=Tensor[(64, 32, 1, 1), float32] */;
  %328 = sum(%104, axis=[2, 3], keepdims=True) /* ty=Tensor[(1, 32, 1, 1), float32] */;
  %329 = sum(%105, axis=[2, 3], keepdims=True) /* ty=Tensor[(1, 32, 1, 1), float32] */;
  %330 = zeros(shape=[4, 1], dtype="float32") /* ty=Tensor[(4, 1), float32] */;
  %331 = zeros(shape=[4, 1], dtype="float32") /* ty=Tensor[(4, 1), float32] */;
  %332 = sum(%133, axis=[1], exclude=True) /* ty=Tensor[(32), float32] */;
  %333 = reshape(%141, newshape=[32, 32, 3, 3]) /* ty=Tensor[(32, 32, 3, 3), float32] */;
  %334 = sum(%145, axis=[2, 3], keepdims=True) /* ty=Tensor[(1, 32, 1, 1), float32] */;
  %335 = sum(%146, axis=[2, 3], keepdims=True) /* ty=Tensor[(1, 32, 1, 1), float32] */;
  %336 = zeros(shape=[4, 1], dtype="float32") /* ty=Tensor[(4, 1), float32] */;
  %337 = zeros(shape=[4, 1], dtype="float32") /* ty=Tensor[(4, 1), float32] */;
  %338 = strided_slice(%182, begin=[0, 0, 0, 0], end=[32, 16, 3, 3], strides=[1], axes=None) /* ty=Tensor[(32, 16, 3, 3), float32] */;
  %339 = sum(%104, axis=[1], exclude=True) /* ty=Tensor[(32), float32] */;
  %340 = strided_slice(%190, begin=[0, 0, 0, 0], end=[32, 16, 1, 1], strides=[1], axes=None) /* ty=Tensor[(32, 16, 1, 1), float32] */;
  %341 = sum(%194, axis=[2, 3], keepdims=True) /* ty=Tensor[(1, 16, 1, 1), float32] */;
  %342 = sum(%195, axis=[2, 3], keepdims=True) /* ty=Tensor[(1, 16, 1, 1), float32] */;
  %343 = zeros(shape=[2, 1], dtype="float32") /* ty=Tensor[(2, 1), float32] */;
  %344 = zeros(shape=[2, 1], dtype="float32") /* ty=Tensor[(2, 1), float32] */;
  %345 = sum(%223, axis=[1], exclude=True) /* ty=Tensor[(16), float32] */;
  %346 = reshape(%231, newshape=[16, 16, 3, 3]) /* ty=Tensor[(16, 16, 3, 3), float32] */;
  %347 = sum(%235, axis=[2, 3], keepdims=True) /* ty=Tensor[(1, 16, 1, 1), float32] */;
  %348 = sum(%236, axis=[2, 3], keepdims=True) /* ty=Tensor[(1, 16, 1, 1), float32] */;
  %349 = zeros(shape=[2, 1], dtype="float32") /* ty=Tensor[(2, 1), float32] */;
  %350 = zeros(shape=[2, 1], dtype="float32") /* ty=Tensor[(2, 1), float32] */;
  %351 = reshape(%272, newshape=[16, 16, 3, 3]) /* ty=Tensor[(16, 16, 3, 3), float32] */;
  %352 = sum(%276, axis=[2, 3], keepdims=True) /* ty=Tensor[(1, 16, 1, 1), float32] */;
  %353 = sum(%277, axis=[2, 3], keepdims=True) /* ty=Tensor[(1, 16, 1, 1), float32] */;
  %354 = zeros(shape=[2, 1], dtype="float32") /* ty=Tensor[(2, 1), float32] */;
  %355 = zeros(shape=[2, 1], dtype="float32") /* ty=Tensor[(2, 1), float32] */;
  %356 = reshape(%313, newshape=[16, 3, 3, 3]) /* ty=Tensor[(16, 3, 3, 3), float32] */;
  (%6, %314, %315, %316, %317, %318, %319, %320, %321, %322, %323, %324, %325, %326, %327, %328, %329, %330, %331, %332, %333, %334, %335, %336, %337, %338, %339, %340, %341, %342, %343, %344, %345, %346, %347, %348, %349, %350, %351, %352, %353, %354, %355, %356)
}
